infer_models/PNet.pth (torch, 35190 bytes, 12 tensors)

weight f4 [10, 3, 3, 3]
00000000: a519 b73d 367a 53bb 8b77 14be e855 d4bd
00000010: bb1d a03c b5a1 003e 7834 e8bd 0bd8 363d
00000020: 9b56 083b 75c5 17be c099 99be 7032 763d
00000030: 1b10 383e 66f5 213e 41b2 163c 34c7 65bd
00000040: d320 e83d 944e f73d 3a59 76bf bc88 29bf
00000050: b5e1 a1be f397 da3b 5f7f 16bc 2bcc 683e
00000060: aa56 1b3f 5965 243f 860f ce3e c9d9 2bbe
00000070: a58e 82be bb15 a0bd 17ed 0a3e 3cfe 963d
00000080: e5fb 66be 5bac 9f3e 816e 3d3e d83d 8cbd
00000090: 0b47 623e b618 823d 70cf 4cbe 3985 7a3e
000000a0: 2b35 a93d 1432 c8bd 599a db37 89ae 413e
000000b0: 0f25 2dbe 4c2e 503e 1def f1be 7fee 47bf
000000c0: b706 ba3e abcf 25be b368 5dbe 6cdb b33e
000000d0: 8092 8c3e eb80 ec3d fb0d cbbd cce7 223e
000000e0: 68ec e93d 57ca 12bd eff0 ae3e 19c3 df3e
000000f0: c5b8 873b d2b7 07bf cbdb ccbe 28a5 813e
00000100: d3e4 363e 0d10 013e b93a 4cbe cdf9 763e
00000110: 58f0 ed3e 04b1 4abe 3db2 08bf 4839 93be
00000120: 2e9d 993e c8f3 503e fc3d 0abe bb23 e53d
00000130: 834b 3f3e db64 433e ddac 84be 063f c2be
00000140: a11e 71be 3b8b 8fbd e660 df3e c99e 60be
00000150: 98e4 9ebd f43a 883e b60b 87bd e4f5 183f
00000160: d249 a03c 9d29 913d 0e14 21bf 8b8e 023e
00000170: 8bb7 26bd cd46 06bf a5b8 c5bd 8cf5 13be
00000180: 0f7c 02bf c7c9 f9be caa4 e8be 3db6 e3be
00000190: 673e 4e3e 3df1 293e b984 9ebe 0d82 6e3e
000001a0: 9005 fa3e b726 113d cfd6 a53d 11a1 6d3e
000001b0: cf4e cf3e ce1f 82bd 100f 5bbe b1c6 353e
000001c0: 72ad 6a3e 848e b2be 5de5 323e 8ced 36bf
000001d0: e753 cbbe 0343 8f3d 5ba5 f73e 6dd2 bbbc
000001e0: 020e 0d3e c8d4 453f ece9 f43d 4709 4c3b
000001f0: 1060 cdbe 2d24 113e bc77 55bf 07e1 51bf
00000200: 1e45 32be 939c d9be 83f6 be3d 2778 c93d
00000210: b46a 193f 0a68 3c3d 307d 633f 33ae b93e
00000220: b5ab a23e a30b 22be 1a66 de3e e095 383d
00000230: aabb 7cbe 88d5 58be 9cf0 acbe b00f 73be
00000240: 04ab 143e 6354 ae3e 0d29 c1bd 4fa5 b93e
00000250: fb61 9e3e 92ac a4be 4bed 973d 3abe c0be
00000260: 1773 d3be c996 4ebe 3aa4 3d3e 1fdd 3e3d
00000270: 9152 333e b19c 3e3e 7451 09be 3ecc fd3d
00000280: 168f 48be 1920 66be 326c 863d ac04 bb3b
00000290: e3ff 18be aa66 43bd 8f9d f9bd 2ade 7dbd
000002a0: 467b 203e fd15 6fbe a666 bcbd dee6 083f
000002b0: 5f02 883e cd80 e2bc 143f 423e 0d2b 583e
000002c0: f86b 463d 11c3 df3e 76ee af3e f0f7 5b3e
000002d0: 05ea 76be 17fb b33a 84c1 46be 41f6 2ebf
000002e0: cdf6 25be 0dfa ac3e 98a3 50bf c8e9 64be
000002f0: 7e49 5f3e 0402 0abf 4335 1ebe f392 63bb
00000300: e6bc 81be 58b6 763e 9bda e43d 6723 00be
00000310: 233b c73d 5a46 113f bb46 00bf 5efd cd3d
00000320: 2d94 80bd 7872 e4bc 73d3 b93d 8355 423f
00000330: c8fb 7fbd d4de da3e 08a2 193f f912 773f
00000340: 34e5 093e a628 0dbe fb8a b13e 10be f3be
00000350: b787 1bbf d2f8 703e 2941 15bf a2f9 88bf
00000360: c983 8a3e 8113 00bf c778 fb3d b9a5 3f3e
00000370: d254 7dbe 8417 aa3d cf35 0abd 8766 7bbd
00000380: bc3e 323e cedd 013f 8bea 2fbf bfce 1d3f
00000390: 9388 603e 996a b5be eaa4 133e b85f 8bbd
000003a0: fd07 a8be 8754 0bbd 068b 1f3e 308a 30bf
000003b0: 63a3 913e 9f02 563a a67f 97be 6f08 b23e
000003c0: f6cb 5f3e 4582 cc3d d2cd 2a3d 1edb 8a3e
000003d0: 5523 d13e a45c 09be d413 90be 7412 bebe
000003e0: 98f2 0c3d 8b36 203e 684e b23e 8863 613d
000003f0: e47c a63e 2935 db3e cbbe a2bd 8847 1dbf
0.08940438 -0.0032268888 -0.14498727 -0.10367948 0.019545427 0.12561686 -0.113381326 0.04463963
0.0020803574 -0.14821418 -0.30000114 0.060106695 0.17974894 0.15816268 0.0091977725 -0.056098178
0.11334386 0.120755345 -0.962299 -0.66224265 -0.31617513 0.006670946 -0.009185641 0.22734134
0.60679114 0.64217144 0.40246218 -0.16782297 -0.25499454 -0.07816645 0.13567005 0.0737271
-0.22557028 0.31186184 0.18499185 -0.06847733 0.22097413 0.063523695 -0.20001006 0.24464883
0.08262094 -0.09775177 2.6178708e-05 0.18914236 -0.16908668 0.20330161 -0.4725274 -0.7809829
0.36333248 -0.161925 -0.21621971 0.35128343 0.2745552 0.11548027 -0.09914776 0.15908736
0.11422044 -0.035837498 0.34168193 0.43703535 0.0041418993 -0.5301486 -0.4001144 0.25321317
0.17860727 0.12603779 -0.19944276 0.24118729 0.4647243 -0.19794089 -0.5339697 -0.2875464
0.3000273 0.20405495 -0.13500208 0.11188456 0.18681149 0.19081442 -0.25913134 -0.37938708
-0.2354684 -0.07008978 0.43628615 -0.21935572 -0.077584445 0.26607478 -0.065940306 0.597502
0.01956645 0.07088015 -0.62921226 0.12749688 -0.040702384 -0.52451783 -0.09654359 -0.14449137
-0.5097055 -0.48786756 -0.45438224 -0.44474974 0.20140992 0.16595931 -0.30960634 0.23291798
0.4883237 0.035437312 0.08097612 0.23205973 0.40489814 -0.063537225 -0.21392465 0.17751576
0.22917727 -0.34874356 0.17470308 -0.7145622 -0.3971245 0.06995203 0.48368344 -0.022927487
0.13774875 0.77277803 0.119586796 0.003113346 -0.40112352 0.14173956 -0.83385825 -0.8198399
-0.17409179 -0.4250227 0.09324362 0.0983737 0.5992844 0.045997657 0.88862896 0.36265716
0.31771627 -0.15824752 0.43437272 0.045064807 -0.24680963 -0.21175206 -0.3377732 -0.23736453
0.14518362 0.34048757 -0.09431658 0.36258933 0.30934128 -0.3216291 0.07418307 -0.3764513
-0.41298744 -0.20174707 0.18519679 0.046597596 0.17511965 0.1861446 -0.13409978 0.12392472
-0.19585833 -0.22473182 0.06563605 0.005707344 -0.14941363 -0.04770533 -0.12188255 -0.06197945
0.15672025 -0.23348232 -0.09199266 0.53477275 0.2656431 -0.027649308 0.18969375 0.21110173
0.04844281 0.4370351 0.3436162 0.214813 -0.24112709 0.0013731447 -0.19409758 -0.68344504
-0.16207428 0.33784524 -0.81499624 -0.22354805 0.21805379 -0.53909326 -0.15450005 -0.003472504
-0.2533943 0.24092996 0.11174508 -0.12513505 0.09728076 0.5674797 -0.50107926 0.100580916
-0.06278262 -0.027886614 0.09073534 0.7591173 -0.062495977 0.4274813 0.60012865 0.96513325
0.1346634 -0.13785037 0.34676346 -0.47605944 -0.6075396 0.23532417 -0.5830255 -1.0701182
0.2705367 -0.5002976 0.12278896 0.18715562 -0.24739388 0.083052665 -0.033742722 -0.061377075
0.17406744 0.5072907 -0.6871726 0.61643595 0.21927099 -0.3543289 0.14418378 -0.06805366
-0.32818595 -0.03401616 0.15580377 -0.6896086 0.28444967 0.0008163843 -0.29589576 0.3477206
0.21855149 0.099857844 0.04170019 0.27120298 0.4084727 -0.13414246 -0.28140128 -0.37123454
0.034411043 0.15645806 0.34825444 0.05502656 0.3251716 0.42813995 -0.07946547 -0.61437273

bias f4 [10]
00000000: 7aeb 86bc 200d bcbc e756 dbbc cd94 4fbf
00000010: 329b ccbe 737e 2bbd d52f 003f 5331 823e
00000020: 2580 2abd d48e 07be
-0.016469706 -0.022955477 -0.026774837 -0.81086427 -0.39962155 -0.04186864 0.50072986 0.25428256
-0.041626114 -0.13238078

weight f4 [16, 10, 3, 3]
00000000: 5501 1bbe 2c7c f1bc e529 c43c bd2f 2abd
00000010: c374 81bd 5ab2 e7bd 0a86 1dbc 58f1 b5bb
00000020: 561d 36be 5dce 243e b4c8 2abe 38f1 763c
00000030: d068 cf3b e871 1cbe 3d4a ab3d 768d adbd
00000040: 32e0 9dbb aaea c83c e84b 35bc 8f81 e93d
00000050: 8f66 c13d 2ca1 5dbe 8879 493d b24d c73d
00000060: e902 423d 8063 6e3d 499a ebbb 84b0 9c3e
00000070: 5d78 a83d 81e5 c73d ab8d 493e 63dd b53e
00000080: ecc5 873e 167e 6dbd b9b5 543e 48b3 8b3e
00000090: 6cc0 94be 0e8e a03d 998e c73e 2b41 1dbe
000000a0: c9bb 82be 599f 56be 689f cbbd 83de bfbd
000000b0: c14f 3cbe f9f3 073d ad10 43bd b3f7 0b3d
000000c0: 0062 4ebd 0b9d 45be cdff 10bd ee3d 413d
000000d0: d32c b83c c25b 5e3d 8ab9 8f3e 71e6 81be
000000e0: 7cdc 233e 7d5e e8bd a8c2 0bbf c6bf acbe
000000f0: 53bb 0cbe 03ea 563c e9ed 4bbe 723a 283e
00000100: 28c1 c43e 929f 493f aeaf 123d cd28 003e
00000110: e1a7 763e 97c2 d73e ee89 993e a0ec a93d
00000120: 8511 573e 4d9d 58bd 8bc2 ccbd 5a44 ed3d
00000130: fed3 c7bd 0b06 febd d82a aa3d 899a 653d
00000140: 2953 9d3d 2ba5 33bc 9e11 253d e68a 0bbe
00000150: 9d0f 0a3d c905 063e 83ac 22bc 6753 173e
00000160: e13b 573e 262d cc3d f33f 67bc c778 46bd
00000170: 5620 853c 7acd 70bd 8238 16bd 31b9 ddbd
00000180: 58f3 e7bd 4bcb 97be 0af5 e8bd d8fc 7bbe
00000190: fcce 44be f104 73be 8f95 91be 8302 88be
000001a0: d832 99be 7c10 babe 6a02 70be 31f1 75bd
000001b0: 4f7e 753d 66db c4bb 6cd9 773d c661 573d
000001c0: 5ce4 87bd e7fd 6ebd 9c1c a0be b330 a4be
000001d0: 5c67 9f3d 8051 a8be 5b94 9f3d 9a30 1abd
000001e0: ca7f 41be cae5 23be f9cf 49bd 129f 8dbb
000001f0: 00ef e73d 27bb cd3d 2107 a23e bb5b b53e
00000200: 950b 773e 339f 9abb ddc8 a8bb 1c6e 78be
00000210: b3c0 2b3b 855b 143e 82b7 543d 4330 513e
00000220: 9e07 653e dcfe ab3e 5f12 9d3e 94a5 ad3e
00000230: c510 853e a504 7b3e fc7e 1d3e 30f2 22be
00000240: 6971 203e d05f b23e 3e28 3a3e 7864 53bd
00000250: 8eb9 193e 2510 aebd de39 bdbe 0aeb 8fbd
00000260: cc68 9fbe ec78 513f 6275 8a3e 73b1 83bd
00000270: 69ea 0a3d 1b63 d6be 1939 62be bdee 36bb
00000280: e285 c43c 6a48 3bbc 6b2b ac3d 84e7 b53d
00000290: fb61 cd3d 1068 80bd 624b 92bc e4fe fa3c
000002a0: 6868 5e3d 9141 063e 4897 903d efaf 94bd
000002b0: 5002 d5bd 0fad 4abc ea75 03be 417a 1ebd
000002c0: 1154 f8bc f670 083e aeed eebd 8a26 9ebb
000002d0: ec73 fb3e 0cf1 0c3e 5bdb 793c 7335 933e
000002e0: c687 49bd bf7c a3bd 7c15 65bb bf08 383d
000002f0: 652a cabd 7f6d 90be ecc2 7bbd c0ca 3e3d
00000300: b2db 82be 5775 0fbe e48a 803d 9d78 3bbe
00000310: cf1a 033e bf1e 4dbd 97c8 1dbe 1e66 37be
00000320: 4d92 3cbe 274a d7be bb78 c6be 2084 8cbe
00000330: 90db b8bc ed7c f0bd 05f8 8dbd 49de de3d
00000340: beff 50be 9f94 343e 1321 1c3e 2c2f d9be
00000350: 1525 6f3d 1822 1b3e 4332 a6be 429f ff3a
00000360: fbe9 463e 4177 763e e125 21bd a872 ad3d
00000370: 3f82 18be 2c74 7bbd 646b 6fbd 03dd 873b
00000380: a601 b03c edb5 9b3e d5a7 80bc 9dfe c5bd
00000390: cf16 a03d 122c c539 7a3b 4e3e e276 a63d
000003a0: 4d39 823e bdfe 6f3e d09f 263c f6f5 16be
000003b0: 3994 7f3c 9cc0 d33d 7da8 243b b8ec 00bd
000003c0: d142 4cbe ea1c c6ba 80ff 053e 137e fb3c
000003d0: 4364 69be ffed 033e ea83 15be fe9f b0bd
000003e0: ab34 703e b5be 29be 257a 903e 5e36 5e3e
000003f0: 3f01 07be 8917 29be 69de 2e3e 3d90 eabd
-0.15137227 -0.029478155 0.023945758 -0.041549433 -0.06321099 -0.11313315 -0.009614477 -0.005552452
-0.17784628 0.16094346 -0.16678125 0.0150721595 0.0063296333 -0.15277827 0.08363769 -0.08474247
-0.004817986 0.024525959 -0.011065461 0.114016645 0.094433896 -0.21643513 0.049188167 0.09731616
0.047366057 0.05820036 -0.007190023 0.3060342 0.082260825 0.09760571 0.19682948 0.35520467
0.2651819 -0.057981573 0.20772447 0.27285218 -0.29053056 0.07839595 0.3897598 -0.15356891
-0.25533894 -0.20959224 -0.09942514 -0.093686126 -0.18389799 0.033191655 -0.047623325 0.03417177
-0.05038643 -0.19298188 -0.0354002 0.0471782 0.022482311 0.054286726 0.28071243 -0.25371125
0.16002077 -0.11346147 -0.54593897 -0.33740062 -0.13743334 0.013117316 -0.19914974 0.16428545
0.38428617 0.7875911 0.035812072 0.12515564 0.24087478 0.42140648 0.29988045 0.08297086
0.21002777 -0.05288439 -0.099980436 0.11585303 -0.09757231 -0.12403496 0.08308953 0.05605558
0.07681877 -0.010964672 0.040300004 -0.13627204 0.033706296 0.13088144 -0.009928825 0.14777909
0.21018936 0.09969549 -0.014114368 -0.048455026 0.01625077 -0.058789708 -0.036674984 -0.10826338
-0.11325711 -0.29647288 -0.113748625 -0.24608171 -0.19219583 -0.23732354 -0.28434417 -0.26564416
-0.29921603 -0.36340702 -0.23438421 -0.06004447 0.05993491 -0.0060075996 0.060510084 0.05258348
-0.06635353 -0.05834761 -0.31271827 -0.32068405 0.07783386 -0.3287468 0.077919684 -0.037644006
-0.18896404 -0.16005626 -0.049270604 -0.004321941 0.113248825 0.10045462 0.31646064 0.35421547
0.24125512 -0.004718685 -0.005150898 -0.24260753 0.0026207387 0.14488037 0.05193282 0.20428567
0.22366187 0.3359288 0.3067808 0.3391539 0.25989357 0.2451349 0.15380472 -0.159127
0.15668263 0.34838724 0.18179414 -0.051609486 0.1501219 -0.08499173 -0.36958212 -0.07027252
-0.3113464 0.8182514 0.2704268 -0.0643033 0.033914957 -0.41872486 -0.22092094 -0.0027913295
0.023989622 -0.011430839 0.08406719 0.08882049 0.10028454 -0.06269848 -0.017858211 0.03063912
0.05429879 0.13110949 0.070601046 -0.07260119 -0.10400832 -0.012370362 -0.1283795 -0.03869081
-0.030313523 0.13324341 -0.116664276 -0.0048263716 0.4911188 0.13763827 0.015250052 0.28751716
-0.04920175 -0.07982778 -0.0034955433 0.044930216 -0.09871367 -0.2820854 -0.06146519 0.046580076
-0.2555824 -0.14009605 0.06276491 -0.18307729 0.12803195 -0.05007815 -0.1540855 -0.17910048
-0.18415184 -0.4204876 -0.38763985 -0.27444553 -0.022565633 -0.11742578 -0.069320716 0.10882241
-0.20410058 0.1763482 0.15246992 -0.42418802 0.058384974 0.15149724 -0.32460222 0.0019502419
0.19425194 0.2406893 -0.039342765 0.084691346 -0.14893435 -0.061390087 -0.058452025 0.0041462197
0.021485161 0.30412236 -0.015705029 -0.09667704 0.078168504 0.00037607603 0.20139876 0.08128144
0.25434342 0.23437019 0.010169938 -0.14742264 0.015599304 0.10339472 0.002512484 -0.031475753
-0.19947363 -0.0015114818 0.13085747 0.030699765 -0.22792153 0.12883757 -0.14601102 -0.08624266
0.23457591 -0.16576655 0.2821819 0.21700427 -0.13184069 -0.16512884 0.1707703 -0.114532925

bias f4 [16]
00000000: 3337 c9bd e6e6 6b3e ccb9 25bd 2fde 013f
00000010: f8c5 b73e b600 8ebc 68f2 963e 93aa 1a3e
00000020: 0e23 b83e 2f6f 363d a8c7 a03e 532e 303d
00000030: b038 2abe aeb4 bb3d 5648 183e b70d 873e
-0.098249815 0.230373 -0.040460393 0.5072965 0.35893226 -0.017334323 0.29481816 0.15104131
0.35964245 0.044539627 0.31402326 0.04301293 -0.16623187 0.09165321 0.14871344 0.2637765

weight f4 [32, 16, 3, 3]
00000000: 9dfd 583b a03e c33c 84b3 f3bc 9a09 0fbc
00000010: 7f5b c9bc dd55 11bd 0d1d ebbc 67f0 b2bc
00000020: ac0a 8cbd 549b 2cbd 6947 b23d 5cbb 1cbd
00000030: c94b 90bd 38b1 133d 8b60 333c 142b b63c
00000040: bd50 52bb 8c8c 2abd 6b61 4aba 4719 2c3d
00000050: fabe b2bd 643d 8bbc f438 dd3c aa72 84bd
00000060: f37e d5bb f8d5 88bb 4754 74bc 247b c5bb
00000070: a9b4 a5ba 6a28 42bd a849 9dba 89aa 793d
00000080: 7309 80bd 5222 9a3c cd4d 9a3c a3a9 fdbd
00000090: 8379 343d 0654 0fbd 8fa8 0e3a d399 b3ba
000000a0: 1068 c03b 86f6 36bd 41fd 233c 1421 0e3d
000000b0: 5f0e f9bd a559 be3c 17e1 cebd 96e5 823d
000000c0: 6654 28bc aa1b 20bb f6fc 723d 20df debb
000000d0: 6d26 f93c 8095 2c3d 3bb2 743c e0b4 d03c
000000e0: d4a0 a9bd 1435 00bd 4baf 4cbd 2fe8 b4bc
000000f0: 3b99 06bd 3542 83bd f977 423d 96cd 333c
00000100: 919a da3b e0fe d0bd cc2d 0fbd 6ee5 01be
00000110: 86e8 fabc 9b23 f5bd 95c9 b0bd ddec c73d
00000120: e31a 3a3c 7798 60bc 2e93 943c dba8 943d
00000130: eeb8 923c 45e2 da3c 6ced ab3c 02ad 953c
00000140: 4124 d4ba fa91 893d e86d 91bd af26 a13d
00000150: bc1b 4dbc 33cd f1bb 7ca9 2ebd 8e84 6fbd
00000160: ed2c 8ebc d591 e7bc 3050 333d ae09 863c
00000170: a40c ac3c 335b 273c be3f 5cbc 1920 00bd
00000180: 9dc2 70bd eec2 56bd 0ff9 bebc f8db 02bc
00000190: 09e6 87bd fbf6 de3d 7317 85bc 13f2 4ebc
000001a0: 28f2 023e fdea a13c 4a37 ad3d 3fde 273e
000001b0: ebd0 bc3d 4079 d1bc 9411 aebd 24c0 b3bd
000001c0: 333a 24be 91da 023d f32c 67bd 59d7 cbbd
000001d0: ac60 503e 8869 81bd 18d2 4b3d dbd0 be3d
000001e0: 5227 7abd 2519 2fbd dc83 643d 77e7 5bbc
000001f0: 99ca 44bd f80a 673d 9255 753d 197a e43c
00000200: f19a 603d dfe2 de3c f46e 023d da38 9a3d
00000210: 0355 8e3d 30a0 033e d49e 323e c827 0abc
00000220: 3003 bd3b 29ee 40bc 6e2c 573b 2ddb 8f3c
00000230: b562 953d b0f0 8bbc 2705 c73d b3c0 213d
00000240: abf0 9abc a6bd ab3d dc8c c0bc 39a5 3ebd
00000250: 976d ac3d ed5a a9bc 5a09 873c f08f 28bb
00000260: 0634 00b9 6820 38bd 5d38 c23c d342 8d3d
00000270: 45f3 5f3c bac2 183d 4ad0 293b 456f 4abb
00000280: 0425 313d 456c f7bb 7e4c f73c 5740 78b9
00000290: 9334 2f3d 3e4f 97bc 23f3 8f3c b59a 403d
000002a0: 1d7c 9dbd 38dc 55bc be2e 1f3d b375 2b3d
000002b0: 41bc 3739 04cd c13d 6abe 213d f956 fbba
000002c0: 4a15 243d d715 a7bc 830e 28bc e91b 1f3d
000002d0: a71e 62bc dd26 a43d 4317 2cbd 13e7 7cbc
000002e0: 4841 cb3d 43f4 cc3c 079c e4bd de33 563d
000002f0: 2e57 3b3d 188c b6bd d741 203d a061 23bd
00000300: 2678 a23c 9d50 c43d 21b6 953d fe89 3d3d
00000310: 6b7f 1b3d 4943 ab3d a02f c7bd 70f0 8d3c
00000320: b5fb 253d 0cb4 bdbc 7734 093d 83b6 acbc
00000330: aff4 3d3d 9a12 273d 2a59 5cbd d259 ebbc
00000340: 56fb 063e 9cd2 c6bc 2884 203e 297c 073d
00000350: 94eb 90bc 391b aa3d e89d 103c d35f d5bc
00000360: 2f78 4ebd c2e5 c83c a1d1 983c 9fc7 c8bd
00000370: 64d3 153d e683 bf3c f272 38bd 46cf 563d
00000380: 8fa0 cd3c 2991 1bbc d9ac bc3b 514a 2bbd
00000390: 6b50 5b3a 72fe 073d 588c c33d 971a d7bc
000003a0: 1e2e 1f3d 1f07 603d 4329 8bbb 150d c23c
000003b0: 61c3 513c a048 023a 2a7a 523c 8fc7 293c
000003c0: 7dcb 183c 9797 99bd dd17 983b 1e67 003c
000003d0: 7bfd 38bc 2ebc 55bd 7b72 313d 03bf dbbd
000003e0: c7ea febc 7e3f 263d 23a3 66bd 6ba1 8fbd
000003f0: f533 0e3e dc36 f13d ec12 4ebd 8572 e33d
0.003311015 0.023833573 -0.029748686 -0.008730317 -0.024579762 -0.035482276 -0.028700376 -0.021843148
-0.06837973 -0.04214032 0.08705027 -0.038264617 -0.07045705 0.03605768 0.010948311 0.022237338
-0.003209158 -0.041637942 -0.0007720205 0.042016294 -0.08727832 -0.016997047 0.027004696 -0.06467183
-0.0065153777 -0.0041758977 -0.014912671 -0.0060266424 -0.0012642342 -0.047401823 -0.0012000101 0.06095365
-0.06251802 0.018815193 0.018835926 -0.12385871 0.044061195 -0.03499224 0.00054419873 -0.0013702459
0.00587178 -0.044668697 0.010009111 0.034699515 -0.12160944 0.023236105 -0.10101526 0.06391446
-0.010274028 -0.0024430552 0.059323274 -0.006801501 0.03041383 0.04213476 0.014935072 0.025476873
-0.08282629 -0.03130062 -0.04997186 -0.02208337 -0.032860976 -0.06409112 0.047477696 0.0109743085
0.006671258 -0.102048635 -0.034955785 -0.12685177 -0.030628454 -0.11969682 -0.08632199 0.09761975
0.011358949 -0.013708225 0.018136587 0.07258769 0.017910447 0.026719222 0.020987235 0.018270973
-0.0016185121 0.06717296 -0.07101041 0.078687064 -0.012518819 -0.007379198 -0.0426421 -0.058476023
-0.017355407 -0.02826778 0.043777645 0.016362038 0.021002121 0.010214615 -0.013442932 -0.03128061
-0.058779348 -0.052431993 -0.02331212 -0.007987015 -0.066356726 0.108869515 -0.016246533 -0.012630957
0.12787688 0.019765371 0.08457811 0.16393374 0.092195354 -0.025570512 -0.084994465 -0.08776882
-0.16037826 0.031946722 -0.05643935 -0.09953184 0.20349377 -0.063189566 0.049760908 0.0931718
-0.061072655 -0.04274859 0.055789813 -0.013421885 -0.048044775 0.056406945 0.05989606 0.027890252
0.054835264 0.02720779 0.031844094 0.07530375 0.069498084 0.12854075 0.174434 -0.008432336
0.0057682022 -0.011775532 0.0032832879 0.017560566 0.072942175 -0.017082542 0.097177796 0.039490413
-0.018913588 0.08385782 -0.023504667 -0.046544287 0.0841934 -0.02067324 0.016483951 -0.002572056
-0.00012226411 -0.04495278 0.023708517 0.06897511 0.01366884 0.03729508 0.0025911503 -0.0030889076
0.04324819 -0.0075507485 0.030187842 -0.00023675092 0.042774748 -0.018470403 0.017571991 0.04702254
-0.07689688 -0.0130529925 0.038862936 0.041860294 0.0001752237 0.09462932 0.039488234 -0.00191757
0.040059365 -0.020396156 -0.010257366 0.038844977 -0.013801253 0.08015225 -0.04201437 -0.015435952
0.09924561 0.025018817 -0.11162572 0.05229556 0.045737438 -0.089134395 0.03912529 -0.039888024
0.019832682 0.09585688 0.07310129 0.046274178 0.037963312 0.08362443 -0.097258806 0.017326564
0.04052325 -0.023157142 0.0334973 -0.021083122 0.046375927 0.040789224 -0.05379597 -0.028729353
0.13181815 -0.024270348 0.15675414 0.033077393 -0.017690457 0.083059736 0.00882671 -0.02604667
-0.050407585 0.02452362 0.018654646 -0.098037 0.03657855 0.023378324 -0.045031495 0.052443765
0.025100974 -0.009495058 0.0057579097 -0.04181892 0.000836617 0.033201642 0.09548253 -0.026257796
0.03886234 0.05469429 -0.004246862 0.023687879 0.01280293 0.00049699284 0.012846509 0.01036252
0.009325859 -0.074996166 0.0046415166 0.007837085 -0.011290903 -0.052181415 0.043322068 -0.10729792
-0.03111781 0.040587895 -0.056307923 -0.0701321 0.13887008 0.11778042 -0.050311014 0.11105827

bias f4 [32]
00000000: 373b b13e ff0e 9c3e dfee 203e 8afd f1be
00000010: 447b ac3e 86e7 493d 43e5 cabd 51ee b4bd
00000020: 4736 6a3e cdec cd3e e13d a33e 0cff 843d
00000030: be0f 6f3e e833 31bf d1fa aebe a3b2 85be
00000040: 5dbe 0c3f dcf2 ec3e 9539 973e bda3 f6bd
00000050: dc3f 2d3e f998 133e e0c3 183e 1fec 10bd
00000060: 2f68 48bc 1528 903e 3941 2c3e 0caf 6e3e
00000070: 3e37 bc3e 44c9 643e 3eaf 193f 4f16 893d
0.3461549 0.3048019 0.15716122 -0.47263747 0.33687794 0.049293064 -0.099070095 -0.08834518
0.22872268 0.40219727 0.31883147 0.06493959 0.23345849 -0.6921983 -0.34175733 -0.26112852
0.5497797 0.46279037 0.2953612 -0.12042949 0.16918892 0.14413823 0.1491847 -0.035381433
-0.012231871 0.2815558 0.16821755 0.23308963 0.36760896 0.22342402 0.60033023 0.06693708

weight f4 [2, 32, 1, 1]
00000000: 6110 193d c2df 633c 0d74 1dbf 1b23 393e
00000010: c373 11bf 5e9c f8bb 2f78 b4be f3fc 78bf
00000020: b3f4 1cbf c7bf 093e fb42 1abf 2c7a 183d
00000030: d792 fa3e dd9e 123f 7770 d43e f053 f83e
00000040: bf2d 2bbf 1db9 333f 1f0a 0bbe dab0 17bf
00000050: 9544 2dbf eec4 48bd cfd4 7cbc 9bcc 11bf
00000060: d419 773e 5d39 9bbc 8ab1 cabe e21e 303f
00000070: 42ab 873c fa06 e73b df63 ef3e 73b0 5fbf
00000080: cbc7 863d 593f 4bbc b26c 223f e546 42be
00000090: 9c15 133f ef40 f83b 5307 b33e b256 5a3f
000000a0: 2fec 253f f4b2 03be 37fd fd3e 39af 8b3d
000000b0: db06 3dbf f9a1 1dbf 3b9e e4be d4ee f3be
000000c0: 11fb 0f3f 61b5 65be b841 4b3e 1499 173f
000000d0: c05b 2b3f abdd babb 4f36 9c3c f395 183f
000000e0: f40f ecbe 5b5c db3b f7ea c73e 7e8a 26bf
000000f0: 1ee7 33bc 390a 00bb adee eebe 506d 5f3f
0.037369136 0.0139083285 -0.61505204 0.18079798 -0.56817263 -0.007587 -0.35247943 -0.9726097
-0.6131088 0.13452064 -0.60258454 0.037225887 0.48940155 0.57273656 0.41492054 0.4850154
-0.6686668 0.70204335 -0.1357808 -0.5925423 -0.6768277 -0.04901593 -0.015431597 -0.5695283
0.24130946 -0.018948251 -0.39588577 0.68797123 0.016561154 0.007050392 0.46755883 -0.87378615
0.06581076 -0.01240524 0.63447106 -0.18972357 0.5745485 0.0075761 0.34966525 0.85288537
0.6481351 -0.12861234 0.4960725 0.068205304 -0.73838586 -0.61575276 -0.4465197 -0.4764315
0.5624247 -0.22432472 0.19849288 0.59217954 0.66936874 -0.0057026944 0.019068865 0.59603804
-0.4610592 0.0066943592 0.3904645 -0.6505507 -0.010980396 -0.0019537343 -0.4666647 0.8727617

bias f4 [2]
00000000: b962 843b bf7d 34bd
0.004040089 -0.044065233

weight f4 [4, 32, 1, 1]
00000000: 1575 2cbd d012 dbbc af40 123c a6d8 c9bd
00000010: 49c8 6c3b efbb dbbd 71dc 3cbd 768b 87bc
00000020: c339 49bb c1ff 2ebe 21a8 f33a 7117 943c
00000030: 1df9 08bb b643 64bc 52bc 7bbb 06f8 d13a
00000040: 8767 3e3b 8a74 823b 8907 003d f187 1cbc
00000050: ff51 af3c 2f8c cd3d aba3 8f3d 9888 ea3b
00000060: dd24 88bc 68a4 463e b22c a1b8 1db4 a8bc
00000070: dc8b 18bd 6279 8dbd e05d d33a bd1d 41ba
00000080: a3eb 81bd c73b 053d 976e 223b 1587 cabd
00000090: 432c 79b8 8951 e63b d215 a13c b91b 873b
000000a0: 3ea1 df3b 6851 86bd e431 3fbb e492 4ebd
000000b0: 55b2 4c3c fe28 8abc ddf0 a13b e63e 85bb
000000c0: 5f54 803c d0b3 e3bb 6cf3 cebc e6cc aa3b
000000d0: ed09 3ebc c54c 353e 2ffa cfbc d20f c93d
000000e0: 19f2 ddbc a07f a23d a84a d43b 2634 6bbb
000000f0: 1f94 5dbe f1a1 b93d 7b8d cdbb 55a6 c1bc
00000100: 0b6a ed3d fe11 cbbc 4406 c0bc 20d5 003d
00000110: 7221 75bc c775 403d 695f 78bd debf 2abc
00000120: 2eff 103c 85bf cd3c 70e6 d9b8 b00f ee3d
00000130: 8f83 b33a 118c 223c 65ee 86bc 5f52 e1ba
00000140: 6f99 45bc 3354 5bbc 1c73 aa3d 5960 253d
00000150: a47f 303b 6cbf e1bd cfd9 4e3e fb44 b9bc
00000160: 68ff 1c3b 5228 aabc 1933 96bb 77ee 9eba
00000170: 09e2 853d f416 5ebb 288a 9bb8 01d1 4b3c
00000180: dcee f83d 873c 113d a396 41bd b2ec 0bbe
00000190: 0146 cb3b 0ef4 2a3e 0c29 17bc 429a 96bc
000001a0: 1b2b 7dba 7c0e ea3d 65f1 c4ba 7f2b d2bc
000001b0: 96c8 d33b b220 743c e69d 7bbc 9450 3f3c
000001c0: 4585 5abc 1b11 30bc e1cc d83c 0f75 e4bc
000001d0: 81bd b4bc 8165 223e fbef b53d 5ebb 0f3d
000001e0: a223 693c b639 dabd 4dad 94bc 6276 2f3c
000001f0: 7aee 56bd 6ea7 1d3e d6a8 91bb 1514 cebc
-0.042103846 -0.026742369 0.008926555 -0.098557755 0.0036130121 -0.10729205 -0.046108667 -0.016545992
-0.0030704595 -0.1708975 0.0018589535 0.018077584 -0.0020900436 -0.013932159 -0.0038411808 0.0016019351
0.0029053406 0.0039811777 0.031257186 -0.009553895 0.021401403 0.100365035 0.07013639 0.0071573965
-0.01661914 0.19398654 -7.6854034e-05 -0.020593697 -0.037242755 -0.069079176 0.0016125999 -0.0007366797
-0.06343772 0.03252771 0.0024785155 -0.09889046 -5.9407448e-05 0.0070287627 0.019663725 0.004123178
0.0068246415 -0.06558496 -0.0029174024 -0.050433055 0.01249369 -0.01686525 0.004942043 -0.004066336
0.015665231 -0.0069489256 -0.025262557 0.005212414 -0.011599046 0.17705067 -0.025387852 0.098174706
-0.02709298 0.07934499 0.0064786263 -0.0035889237 -0.21638535 0.09064091 -0.0062729693 -0.023638884
0.11592492 -0.024788853 -0.023440488 0.03145325 -0.014961587 0.04698732 -0.060637865 -0.010421721
0.008849902 0.025115738 -0.00010390289 0.11624086 0.0013695824 0.00992109 -0.016471097 -0.0017190686
-0.012060507 -0.013386774 0.083227366 0.040375087 0.0026931548 -0.11022839 0.20200275 -0.0226159
0.0023955945 -0.02077118 -0.004583728 -0.0012125511 0.065372534 -0.0033888193 -7.4167096e-05 0.012439967
0.12154934 0.035458114 -0.0472628 -0.13664511 0.0062034135 0.16694662 -0.009226095 -0.018384103
-0.00096576073 0.11428544 -0.0015025554 -0.025655506 0.0064631207 0.014900373 -0.01535747 0.011676926
-0.013337438 -0.010746266 0.026464881 -0.02788785 -0.022063019 0.15859033 0.08883663 0.035090797
0.014229687 -0.10655539 -0.018149043 0.010709377 -0.052473523 0.153959 -0.0044451756 -0.02515606

bias f4 [4]
00000000: 09a9 16ba 9ab3 06bd 9e4b 2dbe 34fc cebd
-0.0005747234 -0.032886125 -0.16923377 -0.10106698

weight f4 [10, 32, 1, 1]
00000000: 5d3c 133c 4b99 c9bd ac09 613b cc09 dabb
00000010: 5cb1 2ebb 1aa4 a1bc eeaa 6abe e42a ddbb
00000020: 3915 de3b 30d5 9dbd fbc7 cd3c fb5d fd3c
00000030: 3fe2 c63b c9f9 21bc c840 c63b a073 f4ba
00000040: eb66 6f3b 404c a8bb 2e50 883e 472b c53b
00000050: f02c 0a3c e6f9 29bc f49a c7bc 6047 0dbc
00000060: a514 86bb a2fc 883d 61c9 173d fd86 cb3a
00000070: 37c3 8f3c 5161 3dbd 371d 713c 9283 133a
00000080: fd76 e0bb d7f9 ce3c 7238 b5bb da6d 47be
00000090: eb7e 453c 9935 f03d a15c f13b 1c51 85bb
000000a0: 9ec6 c03a 419d 01bd 521c 373b dc80 29bc
000000b0: 9737 563b 6b41 2cbb 569f 1dbb 3f29 2fbb
000000c0: de55 d1ba cd4b 17bc 7d38 04bc d8fd 33bc
000000d0: dccd 873a 9236 7c3e ff31 6e3b 5765 023d
000000e0: 30ab 3dbc 4b39 e13c 57af ee3b a1f0 0f3b
000000f0: 0701 05be 74fe 863c 4430 b3bb a8dd cfbc
00000100: 844d eb3d 1b03 29be f1fc e7bb 49f2 753c
00000110: bb47 9cbc fb72 fdba 519d 5ebe 4abc b7bb
00000120: c99a 0fba b938 663c 91ac c13c f62a 893d
00000130: c87a 1b3c 971e b5ba 8175 d13a 4ddf 843a
00000140: 8f63 8d3b 736d 22bb 1752 793e 28eb 5fba
00000150: bd6a 463b 57c6 95bd eea3 0ab9 8216 d2bc
00000160: 6b36 043a be9d be3b 0094 483c b698 dc3b
00000170: 359a 713d d288 1abd 0209 a33b 464b 713c
00000180: 4f2f 63bd db66 423c 384e fd3b bfc2 3cbe
00000190: 63a6 243b e03e a23a 72e2 b7bc 644e 0abc
000001a0: b530 4c3c d62a ecbb b475 2e3c a1fc 0f3e
000001b0: d53d 8fb9 0d54 96b9 091c 063c 9a05 7cbb
000001c0: d39a afbb b96f dfba 26b0 023d d5ee 4b3d
000001d0: 41be 773c 4777 153e 5958 e1bb 92d4 8cba
000001e0: 5b03 45bc 7e9f 87bc 322e 2a3c 6c41 87ba
000001f0: 7248 5bbd e968 cfbd cc60 e3ba 7391 a2bb
00000200: 011a dd3d 35e7 4abe d0a1 d1bb a94b cebb
00000210: 259f 37bc 0744 723d 72c6 9ebe 9c86 9ebb
00000220: 211f 6fbb a7e0 9abc f60f 0e3d 6d94 debc
00000230: 1f57 853c 19ba e5bb 737f 4eba 34ff 04bb
00000240: 1ca3 fb3b dfa8 07bb 362c b93e 44cd 1bbd
00000250: afd1 82bb f430 4ab9 feed d0bd c6bd 36bb
00000260: 3c5f 893b 0bfa d83c 14ac 433d aca8 103c
00000270: 9470 c4ba 6fbe 0c3d abdd 553c 5eac 0bb9
00000280: 3278 f33c f49e 00bc 08c1 c5bb 7ae6 3cbe
00000290: 486c 21bc b691 003e 9f9b 31bb 67b8 a0bb
000002a0: 9fc9 ef3b a3cb 6d3c 2915 afbb eac1 e33d
000002b0: b428 123b e063 903b a43e 4dbc b5db b6b9
000002c0: 00d8 1bbc c998 75bb 852f 04bc d7af 1b3d
000002d0: 7d65 1a3c 5b58 193e c3ea 063b 5531 af3b
000002e0: a801 a63b 0cf2 cfbc a1f3 50b9 1f15 083b
000002f0: d090 9abd 04b1 b2bc 3162 eebb 96b5 0abb
00000300: ab67 893d 724c aebd a29d 25bc 2f12 76bc
00000310: f9cf b43b 1be3 f73d 6428 37be 1c85 093b
00000320: 40e0 d3bb 48fc cfbd 2a4c 733c 95ee fbbd
00000330: ab81 2f3c 0915 3ebc b4de 1ebc 2b91 273a
00000340: e8a4 3a3c 82ed 73bc 2576 593e 134d 7fbd
00000350: 8488 35bc 7fde bf3d 8614 a1bb c61a e73c
00000360: dad4 363b 5d24 ed3d 10d4 243d 2a2a 8e3b
00000370: 5039 81bd 0151 a13d c4c2 593c 61e8 afbc
00000380: d8d7 563d f6d8 e03c 4949 86bc 58c6 28be
00000390: acf9 f53a 6b36 163e bdd3 893a 6240 1fbb
000003a0: a5ba 04bc 205d 333d 200e 333b 0981 273d
000003b0: 1a52 1d3c 48bf 2439 f445 8bbc 45b9 493b
000003c0: de38 d3ba 4936 13bc f983 4a3c c8ea 29bc
000003d0: 2923 f5bb 60b9 2f3e bbc1 5d3d f443 473c
000003e0: dce6 b23b bcae 61bd ba0a c83b 9f92 fc3b
000003f0: d380 afbd a368 8c3c 5a17 10bc 08b5 69bc
0.00898656 -0.098436914 0.003433804 -0.006654 -0.0026656007 -0.01973157 -0.22916767 -0.0067494977
0.0067774323 -0.07706678 0.025119772 0.030928602 0.006069451 -0.009886214 0.006050203 -0.0018650182
0.003652985 -0.005136043 0.26623672 0.006017122 0.0084335655 -0.010374522 -0.02436588 -0.008622974
-0.0040918165 0.06688811 0.037057284 0.00155279 0.01754914 -0.046235386 0.014716438 0.00056272105
-0.006850122 0.025265617 -0.0055304104 -0.19475499 0.012054185 0.11728973 0.0073657786 -0.004068507
0.001470763 -0.03164411 0.0027940464 -0.010345664 0.0032686943 -0.002628411 -0.002405127 -0.0026727465
-0.0015971025 -0.009234381 -0.0080701085 -0.010985814 0.0010361033 0.24630192 0.0036345718 0.031834926
-0.011576459 0.02749314 0.0072840857 0.0021963494 -0.12988673 0.016478755 -0.0054684 -0.025374249
0.11489394 -0.16505091 -0.0070797135 0.015011379 -0.019077173 -0.0019336635 -0.21739699 -0.0056071626
-0.0005478082 0.01405161 0.023641856 0.06697647 0.009489723 -0.0013818321 0.0015980453 0.001013735
0.004314847 -0.0024784475 0.24347721 -0.0008541816 0.0030276023 -0.07313221 -0.00013221774 -0.025645498
0.00050435093 0.005817144 0.012242317 0.0067320717 0.058984954 -0.03772814 0.004975439 0.014727419
-0.05546504 0.011865343 0.0077302717 -0.18433665 0.0025123588 0.0012378357 -0.022446845 -0.008441541
0.012462785 -0.007207255 0.01064818 0.14061214 -0.00027321154 -0.00028672852 0.008185395 -0.0038455487
-0.0053590327 -0.0017046846 0.03190627 0.049788315 0.015121044 0.14596282 -0.006876987 -0.0010744503
-0.012024726 -0.016555544 0.01038699 -0.001031918 -0.053535886 -0.10127432 -0.0017347573 -0.0049611866
0.107959755 -0.19814761 -0.0063974634 -0.0062956405 -0.011207377 0.059146907 -0.31010777 -0.004837824
-0.003648706 -0.01890595 0.03468319 -0.027170384 0.016276894 -0.00701071 -0.0007877268 -0.0020293714
0.0076793563 -0.002070002 0.36166543 -0.038037553 -0.0039922814 -0.00019282458 -0.102016434 -0.002788411
0.004192261 0.026486417 0.04777153 0.008829277 -0.0014987164 0.0343613 0.013053338 -0.00013320285
0.0297204 -0.007850397 -0.006034974 -0.18447295 -0.009852476 0.12555584 -0.0027100814 -0.004904795
0.0073177363 0.014513883 -0.0053430987 0.111209705 0.0022302093 0.0044064373 -0.012527142 -0.0003487744
-0.009511948 -0.00374751 -0.00806797 0.03800949 0.009423611 0.14975111 0.0020586706 0.005346457
0.0050661154 -0.025383972 -0.00019927185 0.0020764542 -0.07547152 -0.021812923 -0.007274889 -0.0021165363
0.06709226 -0.085106745 -0.010108383 -0.015018984 0.0055179563 0.12103864 -0.17886502 0.002098388
-0.0064659417 -0.10155541 0.014849702 -0.12301365 0.010712068 -0.011601695 -0.009696651 0.0006392176
0.011391856 -0.014888169 0.21236475 -0.062329363 -0.011079911 0.0936861 -0.0049157767 0.028211009
0.0027897866 0.11579201 0.0402413 0.0043385224 -0.063097596 0.078767784 0.013291065 -0.021473112
0.05245194 0.027447205 -0.016392367 -0.16481912 0.0018766425 0.14669196 0.0010515373 -0.002429985
-0.00810114 0.043789983 0.0027321652 0.040894542 0.009602094 0.00015711517 -0.01700113 0.0030780595
-0.001611497 -0.008985111 0.012360566 -0.010370918 -0.007480998 0.17160559 0.054139834 0.012162197
0.0054596495 -0.05509828 0.0061047943 0.0077079083 -0.08569493 0.017139738 -0.00879463 -0.014264353

bias f4 [10]
00000000: 9214 7e3e b076 483e b688 1e3f 4e22 603e
00000010: 3ac8 db3e 6faa e13e 30a3 793e 2614 1d3f
00000020: 453c 153f 87cf 213f
0.24812534 0.19576526 0.61927354 0.21888086 0.42926198 0.44075343 0.24378657 0.6135887
0.5829509 0.63207287
