infer_models/PNet.pth (torch, 45599 bytes, 12 tensors)

weight f4 [10, 3, 3, 3]
000000 ea d1 7e be 28 be 66 3c 01 b7 3d 3f b9 13 10 be
       -0.24884763 0.014083423 0.74107367 -0.14070024
000010 49 69 26 be 4d 0c 87 3e 7f da 20 3f 81 8a a2 bd
       -0.162511 0.26376572 0.628334 -0.07936574
000020 ab f4 df 3c b1 6a fd be 42 f7 07 bf bc 6e 8c 3e
       0.027338346 -0.49495462 -0.5311166 0.27428234
000030 db 28 f7 be f5 62 32 bf 01 06 3b bd fb dc a5 3d
       -0.48273358 -0.69682246 -0.045660023 0.08098789
000040 7e 5e b4 be c9 20 66 be 7e ed 02 3f ad c6 65 3b
       -0.35228342 -0.22473444 0.51143634 0.0035061047
000050 2b 0a 64 be a6 af 27 3f 86 db 6c be 5c dd 44 3c
       -0.22269504 0.65502393 -0.23130617 0.012015667
000060 c5 8b a5 3e 14 13 59 be b0 8b 43 3d e6 7d e8 3c
       0.32333198 -0.21198684 0.04774064 0.028380346
000070 ff 7c f1 3e 8f a8 ff 3b 16 4b 74 bd b7 c7 a6 be
       0.47165677 0.007802076 -0.05964192 -0.32574245
000080 f5 14 4d be 53 a9 16 3e 8d 15 a9 3e 57 db 32 3e
       -0.20027526 0.1471303 0.33024254 0.17466484
000090 d5 85 9f 3e d6 f7 f0 3e c7 cd a8 3e c4 ea 93 be
       0.31156793 0.47064084 0.32969496 -0.2889005
0000a0 b7 36 81 bf 39 e0 01 bf 99 02 fd 3d fc 62 ab bd
       -1.0094823 -0.5073276 0.12354011 -0.08368489
0000b0 85 18 0d be 3d 5d f0 3b 2f 70 35 3e 31 b7 d3 3d
       -0.13778885 0.0073353336 0.17718576 0.10337675
0000c0 8e 87 91 be 55 d2 b2 be d8 3e 7c bd 2f 2b d6 3d
       -0.28423733 -0.34926096 -0.06158337 0.10457455
0000d0 67 1d a8 3e 51 c5 96 3e 21 bd cc 3d b3 da 0a bf
       0.32834932 0.29447415 0.09997011 -0.5423996
0000e0 97 0f 6f 3e d8 5d 46 be 1a db 8d 3e 2d 7e 0a be
       0.23345791 -0.19371736 0.27706224 -0.13524695
0000f0 8e 84 6f 3d 99 95 87 bd 2f d8 4a 3e 2b 96 1c 3f
       0.058476023 -0.0662033 0.1980903 0.6116664
000100 6b 71 43 bf 8b 7c 98 3e 95 20 9d be 37 f6 d4 3e
       -0.7634494 0.2978252 -0.3068892 0.41594097
000110 fd d8 63 be 7c d9 92 bd 6f b5 a8 bc 65 45 85 3d
       -0.22250743 -0.07170388 -0.020594327 0.065073766
000120 09 07 a2 3e 20 db 02 bf e4 51 ff 3e 56 3a 10 3d
       0.31645992 -0.5111561 0.49867165 0.035211883
000130 87 4b 74 3e 69 d2 97 be c4 09 cf 3d bf b5 28 be
       0.23856936 -0.29652718 0.101092845 -0.1647558
000140 f2 ec ff ba d0 26 51 3e 9d 44 61 bd 23 d5 03 be
       -0.0019525571 0.20424962 -0.054997075 -0.12874274
000150 73 9f 50 3e cf 67 89 bd fd cc 15 be ed 51 7b bd
       0.20373325 -0.06709253 -0.14628978 -0.061357427
000160 06 5a ca 3b f2 77 91 3b 36 1b 16 3e dd a1 98 3d
       0.0061752824 0.0044393474 0.14658818 0.07452748
000170 d0 0e e4 3b 05 a8 5d 3e 2a e2 09 bd e1 f4 57 be
       0.0069597736 0.21646126 -0.033662952 -0.21089508
000180 87 f5 f0 3d 8e 05 0a be 47 d9 db bd a0 63 b0 3e
       0.117655806 -0.13478681 -0.10734802 0.34451008
000190 e9 07 00 3e ff c8 1b bf 33 d6 13 3f 87 30 57 bc
       0.12503017 -0.6085357 0.5774872 -0.013134128
0001a0 94 24 11 bf 09 9d d6 3e ad 47 76 bd 31 0b 8b be
       -0.5669644 0.41916683 -0.06012695 -0.27156976
0001b0 98 8d 5b 3d 09 da 83 3e 99 a4 8c 3e ce 71 17 3d
       0.05360183 0.25752285 0.27469328 0.036973767
0001c0 f9 d7 2a 3e 46 51 6e 3e 82 f0 a5 be c7 42 f5 be
       0.1668395 0.23273191 -0.32410055 -0.4790251
0001d0 f1 63 d4 be f1 66 83 3d e7 14 6e 3e b9 18 7c 3e
       -0.414825 0.06416119 0.23250161 0.24618806
0001e0 e9 1a 50 3e 55 3c 4a 3e fe 3d ee 3d 9c f6 1b be
       0.20322765 0.19749577 0.11632918 -0.15230793
0001f0 59 bd cb be 4c 28 ab be ff 6d 8d 3e 88 73 7e 3e
       -0.39792898 -0.33429182 0.27622983 0.24848759
000200 ed 49 3e 3e b0 d9 b0 3c 39 fa 69 3e 7a 21 36 3e
       0.18582888 0.021588176 0.22849359 0.17786208
000210 b7 92 60 be b5 60 01 bf f3 e3 cf be b2 2b 59 bc
       -0.21930967 -0.5053819 -0.406036 -0.013255047
000220 e7 e3 c5 bd 44 f2 8e be c7 ea 6c 3e 28 51 c3 bd
       -0.096626095 -0.2791921 0.23136435 -0.09536964
000230 77 2b 59 be ba e3 0c be 5c 41 55 bd 91 18 95 be
       -0.21207987 -0.13758746 -0.052064285 -0.29120305
000240 75 52 01 3f 31 47 58 3f 70 b3 e0 3e 50 07 85 bc
       0.50516444 0.8448363 0.438869 -0.016238838
000250 e7 38 26 3f 15 9f a5 3d 16 d8 fb be a3 1e 2f be
       0.64930576 0.08086983 -0.49188298 -0.1710153
000260 0a 21 f2 be f2 84 39 bf ff 0f 2d bf 5e f5 92 be
       -0.47290832 -0.72468483 -0.67602533 -0.28702825
000270 3f de 08 bf 1e 3f 6b be fe 32 70 bd 68 ba e4 3e
       -0.5346412 -0.22973296 -0.05864238 0.44673467
000280 6b e7 5f 3f 44 cd 28 3f 31 07 25 be f5 7f de bd
       0.8746249 0.6593821 -0.16116025 -0.108642496
000290 3c 4a 07 bf e8 06 f1 3e ac d1 b9 3e fa 6a 13 be
       -0.5284765 0.47075582 0.3629278 -0.14396277
0002a0 bf 9f e5 3d aa 4c e4 3e f4 5e 3d be 30 28 08 3f
       0.1121211 0.4458974 -0.18493253 0.5318632
0002b0 2e 94 ff 3e e0 23 99 be ae 77 47 3f 18 a3 61 3e
       0.4991774 -0.29910183 0.7791699 0.22034872
0002c0 1d c4 b8 bd 76 41 22 3f c9 88 0f 3e a8 38 2d be
       -0.09021781 0.63381135 0.14017023 -0.16916144
0002d0 10 fd 0a bf 01 0d e3 bd 5a 42 2d 3f 9d 7a 6e bf
       -0.5429239 -0.11086465 0.6767937 -0.93155843
0002e0 56 8f 4f bf 6d 26 aa 3e cb 06 18 bf 45 e3 30 bf
       -0.8107809 0.33232442 -0.59385365 -0.69096786
0002f0 fc b4 c4 3e 7d 81 64 be 75 1c 2d be 2b 15 94 3d
       0.3841933 -0.22315021 -0.16905387 0.072306
000300 93 b1 40 3e aa 16 25 3d bf 1a cd bd 02 52 18 be
       0.18817739 0.040304817 -0.10014867 -0.14875033
000310 50 ae 35 3e 2b d2 f8 3d d8 44 ab be cd 22 af be
       0.17742276 0.12149461 -0.3345096 -0.34206238
000320 84 86 f9 bd 28 92 6f bd 2f b0 8c bd 25 ef 44 3e
       -0.1218386 -0.058488995 -0.06869542 0.19231851
000330 e9 42 90 3e 80 ea 85 3e ef 02 9f 3e bc a4 0f bf
       0.28176048 0.26155472 0.31056926 -0.5611074
000340 56 6a 2e bf 17 d4 ff be 74 d7 41 3e 40 34 dc 3d
       -0.68131006 -0.499665 0.18929845 0.107521534
000350 2d bd 81 3a 6c af 10 3f 2e e3 0e 3f 04 ca 87 3e
       0.0009898298 0.5651767 0.558154 0.26521313
000360 ed 31 8d be f8 45 8b 3d f0 a4 b6 3e 38 e4 b9 be
       -0.27577153 0.06800455 0.35672712 -0.3630693
000370 3d a6 0d bd f1 53 e9 3e ef da c4 3b 80 87 0c be
       -0.034582365 0.45571855 0.006007544 -0.13723564
000380 4d fa 9c bd 65 eb 0a bd c6 43 b8 3e ba d2 94 3d
       -0.076649286 -0.033915896 0.35989207 0.072667554
000390 6a 00 f4 bd 76 3c 14 bc 31 f8 59 3e c2 b5 28 be
       -0.119141415 -0.009047618 0.21286084 -0.16475585
0003a0 1c 16 ac be 2e 96 43 3e 2d ad 7e be 0f dd 2b 3e
       -0.33610618 0.19100258 -0.24870749 0.16783546
0003b0 f5 ed 66 3d 28 fd dd be 46 12 3e bd d4 6a 9a 3e
       0.056379277 -0.43357205 -0.046404146 0.30159628
0003c0 73 1e 43 be c2 9d 29 be 99 88 da 3e df 9c ef 3d
       -0.19054584 -0.16564086 0.4268234 0.11699843
0003d0 12 6e c0 be e0 98 8a be 5b 4f 81 bd 73 f5 ac be
       -0.37583977 -0.2706976 -0.06313964 -0.33781013
0003e0 4f d8 73 3e af 21 08 be 50 13 cf 3d 19 b3 59 3f
       0.23812984 -0.132941 0.101111054 0.85038906
0003f0 d0 07 5a 3e d7 b4 19 be b9 c9 e9 3d 42 c4 cc 3d
       0.21292043 -0.15010391 0.11415429 0.09998371

bias f4 [10]
000000 fc 61 11 bf 40 61 e7 ba aa d4 17 3d 70 d8 67 bb
       -0.5679014 -0.0017652884 0.037068047 -0.003537681
000010 ca e5 f5 bb 3f fa 1d 3d 2c f5 02 3f 3e 75 d9 3c
       -0.0075041996 0.03856873 0.5115535 0.026545163
000020 5e ec 93 3d 73 74 9c bc
       0.07222818 -0.019098496

weight f4 [16, 10, 3, 3]
000000 e4 a7 c7 3b fc 24 a2 bd 9a ca 69 be a5 ac 9f bd
       0.006093012 -0.079172105 -0.22831193 -0.07796601
000010 32 5f 24 be 20 ae d8 bc 69 ac ad 3b 5d f3 5e 3e
       -0.16051939 -0.026450217 0.005300094 0.21772523
000020 59 be a9 3e 2b 6d 15 3e 20 27 31 bd 14 72 82 3d
       0.33153036 0.14592426 -0.043250203 0.06369415
000030 74 81 43 be 68 35 c4 3d 60 ad 81 be ef 5c 17 bd
       -0.19092351 0.09580499 -0.25327587 -0.036953863
000040 d3 4b 3c be 61 a2 6d bd 3f 79 4d 3e 46 d8 2c 3e
       -0.183883 -0.058016185 0.20065783 0.16879377
000050 4c 80 23 3e 00 00 87 3d f4 c1 a5 3e 10 bb 83 3d
       0.1596691 0.06591797 0.32374537 0.06432164
000060 a9 09 cc 3d cd 47 6f 3d 6b 29 37 3d b0 c5 28 be
       0.0996278 0.058418084 0.044717234 -0.16481662
000070 5e 98 28 be 5b 1b 6c bd 6e 4d 89 3d eb 30 89 3d
       -0.16464373 -0.057643276 0.06704222 0.066987835
000080 ae 99 23 3e 16 96 26 3e 3c 39 30 3d 0c 4d bd bc
       0.15976593 0.1626819 0.043023333 -0.023108028
000090 70 78 74 3d 37 65 ca 3d 80 23 42 3e 52 d8 15 3d
       0.05968517 0.098825864 0.18958855 0.036583252
0000a0 21 60 e2 3d 41 66 11 bd b3 a5 82 bd 8a de d0 be
       0.110534914 -0.035497908 -0.06379261 -0.40794784
0000b0 ef 98 8f be 8c a4 40 be be fb 92 bc 58 e7 e1 3d
       -0.28046367 -0.1881277 -0.017942306 0.110304534
0000c0 93 d0 25 3d a7 ad b7 3b 28 8d 96 bc 4b e4 dc ba
       0.040482115 0.005605418 -0.018377855 -0.0016852705
0000d0 83 43 a7 3c 78 8d 0a 3d 57 c8 e9 3d 9c d5 63 3e
       0.020417934 0.03382632 0.11415165 0.22249454
0000e0 ff 0e f8 3e 04 17 47 3c 47 d6 a8 bc 40 f2 10 bd
       0.4844894 0.012151483 -0.020609988 -0.035387278
0000f0 16 d0 60 bc 49 62 48 be 71 fd b5 be b2 e6 67 bd
       -0.013721487 -0.19568743 -0.35544923 -0.056616493
000100 73 02 1e be e3 6e e3 bd b4 b4 ba be 9f 77 ac be
       -0.15430622 -0.11105134 -0.3646599 -0.33685014
000110 c1 0b db be d6 29 b7 be 1c 85 25 bf 90 ff 14 bf
       -0.42782405 -0.35774106 -0.64656234 -0.5820246
000120 ad cf af 3d 2b 95 cb bc f1 3b 93 3c eb ec c7 3d
       0.08584533 -0.024851402 0.017972918 0.097619854
000130 4b 99 af bd 13 c1 02 bc 98 99 cd bc 10 5f a3 bc
       -0.0857416 -0.007980603 -0.025097653 -0.01994279
000140 ac 06 07 3e 4e 6d 24 be c2 ee 1e bc e7 6b bb 3d
       0.13186139 -0.16057321 -0.009700479 0.0915144
000150 14 d4 84 bc c6 85 e0 bd 99 21 86 bb dc 76 d8 3d
       -0.016214408 -0.10963015 -0.0040933606 0.105695456
000160 ca 96 81 3e bb 1f eb 3b 95 2b 2d 3d 16 96 28 be
       0.25310355 0.0071754134 0.04227789 -0.16463503
000170 ee aa 01 be 35 ec 0e be 54 3d 45 bd 61 6f a6 3d
       -0.12662861 -0.13957293 -0.04815419 0.081267126
000180 79 23 11 3e ba 4f 86 be c0 fb 32 3e 2b f2 4f 3d
       0.14173688 -0.26232702 0.17478848 0.05076806
000190 99 2c 8b 3c 7c 71 32 3e 6e 34 4d 3e c8 3e d8 bc
       0.01698904 0.17426103 0.20039532 -0.026397124
0001a0 c3 38 fe 3d a0 e2 f3 3d c3 ca 23 bf 94 14 99 bd
       0.1241317 0.1190846 -0.63981265 -0.07474628
0001b0 86 39 5d 3c e9 b4 8d 3b 1e 1c 06 3e bf dc af 3c
       0.013502484 0.0043245447 0.13096663 0.021467565
0001c0 08 1c 37 3d 64 6c b8 3d 14 c6 11 3e 70 15 0e be
       0.044704467 0.09005049 0.14235717 -0.13875365
0001d0 73 09 17 3e 30 5f 10 bd d1 c7 0d 3d 7e 6f 7f 3d
       0.14749698 -0.035247028 0.034614388 0.062362187
0001e0 a4 41 4a 3d 0b e8 19 3d ec b5 9a 3d 76 1b 95 bd
       0.049379006 0.03757481 0.0755423 -0.072806284
0001f0 0d cf 19 be 1e d4 ec 3c d9 22 52 bd 94 ef 5f 3d
       -0.1502039 0.02890974 -0.051302765 0.05467184
000200 64 f0 5a 3d 3d d5 d5 bd ae 75 ea bd 28 45 65 bd
       0.05345191 -0.104410626 -0.11448227 -0.055974156
000210 bc 75 04 bf d0 07 89 bf ed 20 d9 be db b9 a5 bd
       -0.5174215 -1.0705509 -0.42407933 -0.0809209
000220 e1 7e 73 bd d0 97 37 3d 7c c7 c8 bc 0d 47 be bd
       -0.059447173 0.044822514 -0.024509184 -0.092908956
000230 82 3f 80 3c af a3 09 bc 61 59 b4 bc 0f 0a 13 3e
       0.015655283 -0.008400842 -0.022015275 0.14359306
000240 3a 72 9f 3c 34 fe f0 3c 21 31 82 3e 39 a3 5f 3e
       0.019463647 0.029418088 0.25428107 0.21839608
000250 0c f7 9f 3d 91 5d 36 3e 22 d7 c5 bd 5e db 00 bf
       0.07810792 0.1780913 -0.09660174 -0.5033473
000260 37 a0 fd be 3c 79 f5 3d e4 a0 b9 bd 4b 06 7d 3d
       -0.49536297 0.11986014 -0.090638906 0.06177358
000270 e6 14 bb 3d 54 dc 0b 3c 03 99 26 bc 3a 67 57 bd
       0.091348454 0.008536417 -0.010168317 -0.05258868
000280 11 a1 15 bd b1 b7 22 be 81 0c 9c bd 63 93 3b bc
       -0.036530558 -0.15890385 -0.076195724 -0.011448714
000290 1b e3 ab bb e4 17 19 3d 76 a4 9e bd b2 d5 a6 3d
       -0.005245579 0.0373763 -0.07746212 0.08146228
0002a0 3e 55 8b 3c 25 a2 04 bd 32 2d 21 bd 15 d6 c1 3d
       0.01700842 -0.032381196 -0.039349742 0.09464661
0002b0 8c 38 a8 3b f5 84 20 bd 84 8e 72 3d b7 d6 24 3e
       0.005133694 -0.039189298 0.059217945 0.16097532
0002c0 39 b6 c0 3d d9 f3 36 3e eb ac e7 bd 4f 00 a8 3c
       0.09409756 0.17866458 -0.11312278 0.02050796
0002d0 ba a9 89 3e a4 ee 2e 3e 74 83 60 3e 38 60 b2 3d
       0.26887304 0.17083222 0.21925145 0.087097585
0002e0 81 c3 24 3e 41 71 8b 3e 17 38 12 be 4a 45 b6 3d
       0.16090204 0.27234843 -0.14279209 0.088999346
0002f0 e6 e1 e4 3d a5 db cf bc 6a 0e 96 bb 61 e3 e6 3d
       0.11175899 -0.02537329 -0.004579355 0.11273838
000300 ed b6 07 3e 99 1a fb 3d 71 35 8c 3e 4f ca fb 3d
       0.13253374 0.122609325 0.27384523 0.12294447
000310 96 da ef 3d 1c 91 00 3e f5 07 41 3d 8d 52 90 3d
       0.11711614 0.12555355 0.04712673 0.07046995
000320 9f aa 98 bb 54 8e 58 3d 4d a4 1c 3d 23 1b a3 bd
       -0.0046590115 0.05287011 0.038242627 -0.0796416
000330 4b 07 8b bc 16 c9 b4 3d f6 13 52 bd c5 41 a5 3d
       -0.016971251 0.088274166 -0.051288567 0.08069185
000340 eb 0a 00 3e 8a c5 39 bd 86 78 d7 bd a9 fd 70 bd
       0.12504165 -0.045354404 -0.10521035 -0.05883566
000350 15 96 5c be 1d fb 3b bd cf 8f 44 bd 9f f3 86 be
       -0.21541627 -0.045893777 -0.04798871 -0.26357743
000360 17 91 90 3d 23 10 96 bd ea ee 0b 3e bb 0d 77 3d
       0.07058924 -0.073272966 0.13665357 0.06031583
000370 cb 5f 91 3d ae 91 2b 3e 6d b4 fb 3c 83 58 f8 3d
       0.07098349 0.16754791 0.030725682 0.12126257
000380 11 b9 aa bc b7 1f 5d be 79 36 09 3e 57 89 0a 3e
       -0.0208402 -0.2159413 0.13399686 0.13528953
000390 9a ab 31 bb cf 03 58 3e c3 d8 9e 3e a8 a7 d4 3c
       -0.002711034 0.21095203 0.3102475 0.025958851
0003a0 94 8b 87 3e be 52 34 3e e8 31 e3 be 95 d9 b5 3e
       0.26473677 0.17609689 -0.44374013 0.35517564
0003b0 61 e7 18 3f a4 bc e0 be b6 69 a1 3e 76 50 27 3f
       0.59728056 -0.4389392 0.31525964 0.6535715
0003c0 c6 ba dc be d1 de 68 3e 0e cd 1d 3e 79 94 21 be
       -0.43111247 0.22741248 0.15410253 -0.15779294
0003d0 38 99 92 3d 03 f4 3e bd d2 68 ab bd c3 ec 28 bd
       0.071581304 -0.046619426 -0.08369602 -0.04124142
0003e0 1f 96 0a 3d 48 56 e9 bb e4 06 51 3b 11 6f 9b 3c
       0.033834573 -0.007120881 0.0031894976 0.018973859
0003f0 24 63 83 be ee 48 1f bc 97 2e 6c be be 2a 8c be
       -0.25661576 -0.009721978 -0.23064648 -0.2737636

bias f4 [16]
000000 57 e9 f4 3e 81 28 c1 3e eb 80 62 3e 56 49 1d bf
       0.47834274 0.37726215 0.22119491 -0.61440027
000010 88 09 01 3f 3e 2a e7 3e 21 d4 15 3f 79 54 03 be
       0.5040517 0.45149416 0.5852681 -0.12825193
000020 c4 15 0e 3f 19 26 13 3d 27 5e 1e 3f 64 cd 87 3e
       0.5550196 0.035925005 0.61862415 0.26523888
000030 19 4d 19 3e 61 d5 6e 3e 06 44 8a 3d 7d b9 f9 3e
       0.14970817 0.23323585 0.06751256 0.4877433

weight f4 [32, 16, 3, 3]
000000 b9 35 9b bd 0a 57 f0 bc 04 e6 60 3d ae 22 3a 3d
       -0.07578606 -0.029338378 0.05490686 0.04544323
000010 8b 3a 1b 3c 10 38 e4 bd 31 7a 00 be 89 20 9c bd
       0.009474407 -0.111435056 -0.12546612 -0.07623393
000020 94 af 9a bd 5e a0 46 bd 20 9b 8e bd 1c 89 d8 3b
       -0.0755302 -0.04849278 -0.069631815 0.0066081416
000030 4a b7 8d bd 24 a3 90 3b de 56 58 bd 3f 3d 82 bd
       -0.06919725 0.004413979 -0.052817218 -0.06359338
000040 1e 88 76 bb 74 c9 d9 bd 44 7e fd bd 08 5b 66 bd
       -0.0037617753 -0.10634127 -0.12377599 -0.056239158
000050 8d 9f ff bd 39 36 9f 3b 85 99 d0 bd 9a dd aa bd
       -0.12481604 0.0048587588 -0.101855315 -0.083430484
000060 c6 3d c5 3d 4f bf 82 3d a9 07 7f bb 14 1f d0 3c
       0.09630923 0.063841455 -0.0038914478 0.025405444
000070 18 ed 60 bd ab 67 3f 3a bb 4d 86 bd 50 e5 2a be
       -0.05491361 0.00073015195 -0.06557795 -0.16689038
000080 4c 25 55 be c0 ac 7f bc 0f 28 d2 bd f7 04 7c be
       -0.20815009 -0.015605152 -0.10261547 -0.24611269
000090 55 bf a7 3d 0b 19 c2 3d 21 9d 26 3c 0c 50 f7 bd
       0.081907906 0.09477433 0.010169298 -0.120758146
0000a0 6c f0 59 be e7 c7 54 be 68 aa 09 bd 10 ee 37 bd
       -0.2128312 -0.20779382 -0.033609778 -0.04490477
0000b0 34 61 1e be 9f b0 d9 3b 4e f6 0d be f8 4e 11 be
       -0.15466768 0.0066433693 -0.13863489 -0.1419028
0000c0 ba 86 a7 bd a7 aa 18 bd 12 bc 1e 3c ba 8a 4c 3e
       -0.08179994 -0.03727212 0.009688394 0.19974795
0000d0 dd 43 20 3e b2 fb 83 bd 2e 09 98 bd bd 5c 9e 3d
       0.15650888 -0.064444914 -0.07423626 0.07732532
0000e0 3c 57 73 3e cd e3 2b bd 31 34 78 be 95 8f 4f be
       0.23763746 -0.041965295 -0.2423866 -0.20269616
0000f0 ba 6d 78 3e dd 60 65 3e e5 c6 44 3e 2d 22 ba bd
       0.24260607 0.22400232 0.19216497 -0.0908855
000100 7a b9 08 be 66 11 46 be a1 85 71 3d fa 3f d0 bd
       -0.13352004 -0.19342574 0.05896533 -0.101684526
000110 55 b6 ce bd 9d dc f0 bc 7f 15 47 bd 64 20 e0 3b
       -0.10093371 -0.029402072 -0.048604485 0.0068397988
000120 5b a7 cf 3c db 96 be 3d 3c da ba 3d e1 7a 0f be
       0.025348356 0.09306117 0.09123656 -0.14011718
000130 7b ae 0e be c7 f1 b6 3d ee eb 83 3d bb 57 b7 bd
       -0.13933747 0.08932834 0.064414844 -0.0895228
000140 97 8d 6c be 02 4e b8 bd 5e f7 25 bc fd 2d f4 3d
       -0.23100887 -0.08999254 -0.010129778 0.11922834
000150 fe e3 7c bc 21 55 19 be 43 5b f7 bd 30 5c 91 bd
       -0.015435217 -0.1497388 -0.12077954 -0.070976615
000160 c6 35 c7 bc 6b ac 1f 3d 4e 5c bf bc 88 9b ae bd
       -0.024317633 0.03898279 -0.023359444 -0.08525759
000170 91 5b a2 bc 96 6a 5e 3b ea 05 88 3d 62 4b 26 3e
       -0.019819053 0.0033938042 0.06641753 0.16239694
000180 dc 6e 59 3d 8f 4c 5e bd ff b0 5b be fd d8 43 bd
       0.05308424 -0.05427223 -0.21454237 -0.047814358
000190 56 17 4f be 10 20 63 be 3a f2 48 3e 82 92 79 3e
       -0.20223746 -0.221802 0.19623652 0.24372295
0001a0 bc 48 72 3e 43 3b f5 3d 85 78 98 3e b0 6e 87 3e
       0.23660558 0.11974194 0.2977945 0.26451635
0001b0 d0 9d 5c 3d 66 98 96 bc 53 f2 39 bc 78 7f 67 3c
       0.05386144 -0.018383216 -0.0113492785 0.014129512
0001c0 c9 6a a5 bd 2d 44 c4 bd 0a d6 75 bd ed 8d 0b be
       -0.08077008 -0.09583316 -0.060018577 -0.13628359
0001d0 34 76 5c be 33 23 0b 3d 70 32 00 be 9d e3 fc 3c
       -0.21529466 0.033969115 -0.1251924 0.030870253
0001e0 3a 07 31 39 34 23 08 be d9 dc e7 bd 77 20 e8 3d
       0.00016882728 -0.13294679 -0.1132142 0.11334317
0001f0 89 db 83 3d 14 87 07 3e 41 1a f4 3d f4 a3 c0 3d
       0.064383574 0.13235122 0.1191907 0.094062716
000200 0c 9d 29 bd a9 37 5b be 56 a3 6f bd a8 04 c1 bd
       -0.041409537 -0.21407951 -0.05850538 -0.09424716
000210 09 c1 1c bd 0b d4 81 bd 61 11 af 3b 70 13 dc bd
       -0.03827003 -0.06339272 0.005342648 -0.10745895
000220 93 f6 0e be 77 a8 e2 bd 5e 0e 23 be 58 13 fa bd
       -0.13961248 -0.11067288 -0.1592345 -0.12210721
000230 a7 43 1f be b9 ac b7 bd 1a bc 35 bd f7 45 a3 bd
       -0.15553151 -0.08968491 -0.04436884 -0.07972329
000240 b3 52 6e bd 52 c6 1f bd 21 22 2a 3d ca 6a 00 3b
       -0.058184337 -0.039007492 0.041536454 0.0019594901
000250 7f d9 97 bc 3a b6 98 3b 56 33 1c bb 67 c6 ee bc
       -0.018536327 0.004660395 -0.002383431 -0.02914734
000260 10 08 5d bc a6 62 73 3d bc 69 d3 bc 2a b5 5c bb
       -0.013490692 0.05942025 -0.025807254 -0.0033677318
000270 15 67 2e 3d 37 85 59 bc 96 38 ac bd 89 0c bb 3d
       0.042578775 -0.01327639 -0.084092304 0.0913325
000280 e2 bf 8e bd c1 e7 02 be 6a 26 9e bc 88 30 87 bb
       -0.069701925 -0.1278372 -0.019305427 -0.0041256584
000290 c8 ca d5 bd b4 71 2f bd 09 8d 86 bc 8f be 31 bd
       -0.10439068 -0.042833045 -0.016424673 -0.04339462
0002a0 60 c1 4e bc b4 b7 6d 3c ff 0b 6f bd 63 db b4 3c
       -0.012619346 0.01450913 -0.05836105 0.022077268
0002b0 e7 fb 93 3d fa f9 c4 bd da 96 81 bd 50 17 f5 3c
       0.07225781 -0.09617992 -0.06327601 0.029918343
0002c0 67 e3 81 bd e9 03 50 bd a1 46 2c bc b0 65 d2 bd
       -0.06342202 -0.05078498 -0.010514886 -0.102733016
0002d0 57 2a 31 3d 25 c4 97 bd 66 c5 a8 bd 12 bd a8 3d
       0.04325327 -0.074104585 -0.08240776 0.08239187
0002e0 80 bb 09 bd f7 86 d8 bd f1 28 1b 3d 35 e5 4c 3d
       -0.03362608 -0.105726175 0.03788084 0.050023276
0002f0 f4 07 92 bd 49 f2 e3 3d bc 8b 23 3e 90 f8 19 3d
       -0.07130423 0.111301966 0.15971273 0.037590563
000300 84 bd 99 3b 7d 6e 1b 3e 71 76 c6 3d 6b 73 a1 bb
       0.0046917815 0.15178867 0.0969056 -0.004927089
000310 83 72 e9 3d cb b4 aa 3d b4 6e 78 bd 83 9a fc bd
       0.113987945 0.08335265 -0.06065245 -0.12334158
000320 3f c5 14 be 45 33 19 bd 33 88 42 be 6d 3e 2b be
       -0.14528368 -0.03740241 -0.18997268 -0.16723032
000330 e6 93 61 bd 5b 4d 35 be 2f 03 d5 bd db f3 5b 3d
       -0.055072688 -0.1770529 -0.10400998 0.053699356
000340 43 bd c9 bc aa 02 c1 bd 7c 29 6b bc e4 a7 bd 3c
       -0.02462638 -0.09424336 -0.014353152 0.023151346
000350 82 1c 94 bd db 99 3c bc a2 57 63 3c c7 e6 45 bd
       -0.07232 -0.011511291 0.013875874 -0.04831579
000360 16 7f c3 bd 52 b7 8f bd a6 99 7e 3c 8a 94 bb bc
       -0.09545724 -0.070173874 0.015539562 -0.022897977
000370 84 6f e1 bb 34 9f 5a 3c 9b b9 85 bd f0 e2 9e bc
       -0.006879749 0.013343621 -0.06529542 -0.019395322
000380 5e d0 ed 3c 46 c4 49 bc 1d c8 b3 bd d9 f6 09 be
       0.029030021 -0.012314862 -0.08778403 -0.13473071
000390 eb 8c 48 3d 51 9a f7 bc f5 5c a9 bd df a3 2f 3d
       0.048962515 -0.030224951 -0.08269683 0.04288089
0003a0 9e 7e ab bd 1e 10 c2 bd 62 39 ed 3c da 15 a6 bd
       -0.0837376 -0.0947573 0.028958026 -0.081096366
0003b0 a6 72 09 3d 60 ca ef bb 70 3e 49 bd 9a 82 e6 3c
       0.033556603 -0.007317826 -0.04913181 0.028138448
0003c0 a2 ea 02 bd 50 22 84 3c cd 55 83 bd 28 bc 7b bd
       -0.031962045 0.016129643 -0.064128496 -0.061458737
0003d0 28 3f 7e bd d0 a5 30 3e 49 73 32 bd c5 65 8f bd
       -0.06207195 0.17250752 -0.043566976 -0.07001833
0003e0 7b 72 59 3e 74 f5 5b 3c 5c 3c bf bd c2 45 c6 3d
       0.21235077 0.01342522 -0.093376845 0.09681274
0003f0 65 33 42 3d d1 b7 1a bd 67 2a 54 3c ea 44 0a 3d
       0.047412295 -0.037772957 0.012949563 0.033757128

bias f4 [32]
000000 ce 65 9f 3e 84 cb 5d bd 95 df 11 3f 53 11 91 3d
       0.31132358 -0.054149166 0.56981784 0.070833825
000010 b9 a8 e5 3d d1 58 da 3d 35 5f d1 3e 65 a3 5f bd
       0.11213822 0.10661472 0.4089295 -0.054599185
000020 82 d6 05 3f 0c 4d 83 3e 8b 3b f4 be 5f f5 0f bd
       0.5228044 0.2564472 -0.47701678 -0.035146113
000030 f5 ee fb 3e 70 d8 c2 3e f9 00 9b be 0f be 11 be
       0.49205747 0.38055754 -0.3027418 -0.14232658
000040 6a 0a 82 3e ce a9 30 3f d4 d7 98 3e b5 a6 a5 be
       0.2539857 0.690091 0.29852164 -0.3235375
000050 e3 78 82 3e 26 20 7b 3e 15 c4 c4 bc 4f 1e 32 3f
       0.25482854 0.24523982 -0.02401928 0.695775
000060 e2 67 fb 3c 3e 78 4b 3d 43 c5 f2 be 97 36 a9 be
       0.030689184 0.04967522 -0.47416124 -0.3304946
000070 f2 19 41 3e 2e 3d 82 3e 42 52 17 3f f4 f5 7b 3d
       0.18857554 0.254373 0.5910989 0.061513856

weight f4 [2, 32, 1, 1]
000000 f8 b9 4b bf d0 09 2b be 94 6f 3c bf ae e4 5e bf
       -0.7958064 -0.16702962 -0.73607755 -0.8706769
000010 b6 f4 1e 3c 14 39 7d be c7 bc 0d bf a8 49 26 bf
       0.009701898 -0.24728805 -0.55366176 -0.6495614
000020 32 f1 2d bf 2f f9 15 bf cf e4 14 3f 4a 08 4e bf
       -0.6794616 -0.5858335 0.58161634 -0.804814
000030 da 20 3a bf 89 27 50 bf e6 cf 44 3f 79 84 29 3f
       -0.7270638 -0.81310326 0.7687973 0.6621776
000040 b2 ac 4b bf e9 f7 36 bf b6 ba fd bd 0e a9 4c bd
       -0.7956039 -0.7147203 -0.12389128 -0.04996591
000050 ad 49 a8 3d 5f 1e 25 3e 9d 67 b0 3f b2 6f 1f 3f
       0.082171775 0.16124867 1.378162 0.6227981
000060 d7 71 48 be 04 32 81 3d 0e 67 20 3f f4 f3 76 bf
       -0.19574676 0.06308368 0.6265725 -0.9646599
000070 0a f4 d1 be e6 52 45 3c 0c 10 53 bf 70 96 53 bf
       -0.410065 0.01204369 -0.8244636 -0.82651424
000080 42 c3 4a 3f eb 27 2b 3e 75 81 36 3f 19 d1 5c 3f
       0.7920419 0.16714446 0.71291286 0.8625656
000090 fc 5c e7 bb a0 5a 80 3e 76 4e 13 3f ba 9f 26 3f
       -0.007060645 0.2506914 0.57541597 0.65087473
0000a0 15 56 31 3f 2b c4 14 3f 9f f7 05 bf 88 6c 4b 3f
       0.69271976 0.5811183 -0.52330965 0.7946248
0000b0 e8 e6 39 3f 98 cc 4b 3f 39 4d 49 bf 24 50 0d bf
       0.7261796 0.7960906 -0.7863346 -0.5520041
0000c0 9b 23 4b 3f bd aa 44 3f 8c ba ed 3d 21 fa 4d 3d
       0.79351205 0.76823026 0.116078466 0.05028737
0000d0 59 77 b7 bd e9 0a 0e be 38 25 dc be 7d 88 25 bf
       -0.08958311 -0.1387135 -0.42997146 -0.6466139
0000e0 34 db 42 3e 52 e3 7a bd eb ca 1e bf 47 68 74 3f
       0.19028932 -0.061251946 -0.6202838 0.95471615
0000f0 c9 d8 d4 3e 4f 6d 94 3d 59 e0 4f 3f f0 bb 59 3f
       0.41571644 0.072474115 0.812017 0.85052395

bias f4 [2]
000000 9c 69 67 be 44 da 15 3e
       -0.2259888 0.14634043

weight f4 [4, 32, 1, 1]
000000 c0 93 c9 3c 37 82 0c bd ae 87 a1 3c 91 9d ff 3c
       0.024606586 -0.03430387 0.019718017 0.031203063
000010 ba 93 bb bd 77 69 28 3d 92 f5 a4 3c b2 4f 27 39
       -0.09159036 0.041116204 0.020136628 0.0001595605
000020 01 c1 e6 b8 ec b8 06 3d b6 88 e7 bb 6e 77 19 3d
       -0.000110032044 0.0328912 -0.0070658578 0.037467413
000030 c1 22 45 bb 40 bf b4 3b 70 4a a8 bb 51 fe 99 3b
       -0.003008053 0.005515963 -0.0051358268 0.0046995063
000040 29 f8 90 3b dd 15 41 3c b7 fa 11 be 4c c7 28 3e
       0.0044241142 0.011784998 -0.14255796 0.16482276
000050 ec f7 57 3d 7d 76 1b bd ac 4a 1e 3c 74 a2 b9 3b
       0.05272667 -0.037954796 0.009661358 0.005665118
000060 59 bc 14 be 50 e1 2b be 02 24 10 bc 58 db 01 bd
       -0.14524974 -0.16785169 -0.008797647 -0.031703323
000070 19 3a 4c bd 0e a3 91 be 55 47 f4 3c 0b 77 5c 3b
       -0.049860094 -0.28444713 0.02981917 0.003364029
000080 62 1e e5 3c 61 dc 88 3d 78 3a a2 3b 96 00 bb 3d
       0.02796859 0.06682659 0.0049508177 0.09130971
000090 d4 e4 09 be 15 44 56 be ff 28 ec bb 3f ca aa bc
       -0.13466197 -0.20924409 -0.0072070356 -0.020848392
0000a0 d7 5a a4 3c 48 8d fb 3b 00 23 21 b9 42 19 79 3c
       0.020062847 0.007676754 -0.00015367195 0.015203776
0000b0 c2 00 0d 3c a8 b1 96 3c 24 49 85 bc 1a fa fc bc
       0.008606138 0.01839526 -0.016270228 -0.030880976
0000c0 9a 40 88 3c b4 50 5c 3c 7b 6d b6 bd 3f 3b ea bc
       0.016632367 0.0134469755 -0.089076005 -0.028592704
0000d0 39 a0 4f 3e 37 08 62 bd 02 2d f4 3b 5b 65 fa bb
       0.20275964 -0.055183616 0.0074516544 -0.007641477
0000e0 51 9d 2f 3d d7 87 4f be e7 3d c3 bb 8d 43 5d 3c
       0.042874638 -0.20266663 -0.005958307 0.013504875
0000f0 7d a8 cc 3d b8 1e 86 bd 33 35 50 bd 33 ec b8 3c
       0.09993074 -0.06548828 -0.050831985 0.022573566
000100 72 6b be 3c 28 1b 51 be 8f a2 90 3c 0b 3d 42 bd
       0.023244593 -0.20420516 0.017655639 -0.047421496
000110 e2 8e 30 3e b8 9d 08 3e 33 3c b9 3d 07 51 2f 3c
       0.17242005 0.13341415 0.09044685 0.010700471
000120 b0 85 18 bb 57 4f 92 bd 91 62 0e 3c 89 d6 c6 ba
       -0.0023273043 -0.07144039 0.008690492 -0.0015170138
000130 ae bd 93 bc ae 92 8d 3c 5f 49 ca 3b fa 60 85 3c
       -0.018034782 0.017281856 0.0061732973 0.016281594
000140 be 48 db 3b a1 94 42 bb 74 17 2f 3d 89 e3 be 3c
       0.006692021 -0.002969064 0.042746976 0.023301857
000150 88 61 a7 bd 87 e0 7f 3e 2a 57 0f bc a5 d5 66 3c
       -0.081728995 0.24987994 -0.008748809 0.014089023
000160 f7 77 cb bc a9 23 08 3e d5 e2 d5 3b 32 de 02 bd
       -0.024837477 0.13294853 0.0065272846 -0.031950183
000170 92 4e 6d 3b 55 b8 a7 bd e7 36 39 bc 9a 7d a6 bb
       0.0036210162 -0.081894554 -0.011304594 -0.005080891
000180 57 49 a6 bc fd 5e 00 bc 85 9e 2e bc 79 bd 02 3d
       -0.020298643 -0.007835147 -0.010657911 0.031918976
000190 75 0c a8 3d 30 f5 0d be 32 0a 29 3b 4d f2 83 bc
       0.08205501 -0.13863063 0.002579343 -0.016106749
0001a0 0c 90 06 3c 4a 49 c6 bd 46 22 19 3c cf 32 d3 bc
       0.008213054 -0.096819475 0.00934655 -0.025781063
0001b0 34 5b 89 bc a4 ec 8c bc 81 2d a2 3b dc 8f a2 3c
       -0.016767122 -0.017202683 0.004949272 0.019843988
0001c0 38 3b 26 bc 07 fc 37 bc b7 e4 20 bc 27 34 90 bd
       -0.010145955 -0.011229522 -0.009820155 -0.07041197
0001d0 11 ba 87 3e b9 41 42 3e 07 41 31 bc 38 0f ba bb
       0.26509145 0.18970384 -0.010818726 -0.0056780837
0001e0 0c 4e b2 3d b2 a5 7b 3d 56 eb 0e bc ac 53 4b bc
       0.087062925 0.061437316 -0.008723101 -0.012410086
0001f0 fa 99 d0 3d 99 09 00 3e c0 59 b1 bc 06 34 8c bb
       0.10185619 0.12503661 -0.021649241 -0.0042786626

bias f4 [4]
000000 d2 77 30 3e f7 de b6 3b 6d 44 94 bd 75 e0 98 bd
       0.17233208 0.0055807787 -0.07239614 -0.07464687

weight f4 [10, 32, 1, 1]
000000 73 c8 a1 3c 6e f8 a1 be 03 d6 ae 3b 23 f0 17 3b
       0.019748902 -0.3163485 0.005335571 0.0023183904
000010 48 31 d0 bd 22 b1 4f 3d 58 78 69 3e 65 41 13 3c
       -0.1016565 0.050706036 0.22799814 0.008987759
000020 19 fc 81 bc c6 17 50 3c fa ae 49 3c 36 a1 f1 3b
       -0.01586728 0.0127009805 0.012309784 0.007373954
000030 85 8c eb 3b 95 c3 9d 3c a0 64 55 bc f0 5c b9 bb
       0.007188382 0.0192583 -0.013024479 -0.005656831
000040 15 94 94 b9 ba 9f 89 3b 96 ae 54 bd 7c fc a0 3e
       -0.0002833909 0.004199949 -0.05192431 0.3144263
000050 5d 72 08 3c 22 72 08 bd bf e6 30 3b d4 38 44 3b
       0.008328048 -0.03331197 0.0026993004 0.0029941099
000060 ba ab 80 be 4c 3f b2 bb 2d 2d c2 3a 30 3d 95 bc
       -0.25131017 -0.0054396745 0.0014814489 -0.018217653
000070 70 0a c2 bc d8 98 30 bd 5c a1 c0 3b 30 67 90 bc
       -0.023686618 -0.043114513 0.0058786105 -0.017627329
000080 2c c8 dd 3b f8 5e 16 3d cb cc 2a bb 25 ea 22 3e
       0.006768247 0.036711663 -0.0026062008 0.15909632
000090 26 be 9a bd 41 67 ef bd 23 52 2e bc 25 24 8d bb
       -0.07555799 -0.11689616 -0.0106397 -0.0043072873
0000a0 c3 da 0e ba b2 0e 46 bb 8a 6b e8 b8 d3 ad 04 3c
       -0.0005449468 -0.0030221161 -0.00011082653 0.008098084
0000b0 09 e0 4d bb 0d e0 04 3c 57 da 3f ba f3 79 37 bb
       -0.0031414053 0.0081100585 -0.0007318607 -0.0027996271
0000c0 c9 fe 97 bc 9b 60 5f 3b f1 3c 93 be 9c dd 2b bc
       -0.018554108 0.003408468 -0.28757432 -0.0104898475
0000d0 0f d9 37 3e 32 5b de bc 7a 0c 59 bb 65 d6 53 ba
       0.17953895 -0.027143095 -0.003311901 -0.00080809585
0000e0 c3 6c b6 3c c7 ef 91 3d fa 58 41 bb 8e 81 30 bc
       0.022268659 0.07125812 -0.0029502497 -0.010773076
0000f0 e2 12 79 3d 92 07 da bc ab 6d 4f 3c 79 7a c9 ba
       0.060809024 -0.026614938 0.012660424 -0.0015371583
000100 c4 73 2f 3c 91 6b 96 be 35 fc 33 3c 0d 95 86 bc
       0.010708753 -0.29378942 0.010985424 -0.016428495
000110 fa 1f 89 bb e8 fd b3 3d 0c b8 43 3e 2c 64 9a bb
       -0.00418472 0.08788663 0.19113177 -0.0047116484
000120 12 a3 29 bc d3 27 ee bc 44 1d 8c 39 21 06 de bb
       -0.01035382 -0.029071724 0.00026724685 -0.006775633
000130 39 c3 86 3b ae 2f 4b 3b a1 2c d2 bb 82 24 e0 bb
       0.004112628 0.003100376 -0.0064140116 -0.0068402896
000140 81 29 ff 39 bc e7 32 bc d3 fd 74 bc e8 73 a4 3e
       0.00048668313 -0.010919508 -0.014953095 0.3211968
000150 85 8d c2 3a 75 8f bf 3d 33 c4 a3 ba c9 82 04 3c
       0.0014843201 0.09353534 -0.0012494385 0.008087822
000160 97 99 90 be f9 36 02 3d e5 f4 d8 3a c5 48 24 bc
       -0.2824218 0.031790707 0.0016552476 -0.010027115
000170 7f 59 5d bc e8 e7 26 3d 86 f5 b1 3a 79 db 14 bc
       -0.013510107 0.040748507 0.00135772 -0.0090855295
000180 d2 97 78 3d d7 d3 a0 bc 4c 24 b0 3b 13 20 11 3e
       0.060691662 -0.019632263 0.0053754207 0.14172392
000190 9e 8e bd bb e3 bc 69 3d 5e f6 87 3c c7 85 8a 3b
       -0.0057848236 0.057064902 0.01659697 0.0042273733
0001a0 59 5f f1 bb 6a 3c 88 3c ee b0 61 3b 13 1f 6a bc
       -0.0073661027 0.01663037 0.0034437734 -0.014289635
0001b0 6e 04 b9 b9 d0 27 73 3d 09 3a f5 3a d3 37 46 bc
       -0.0003528925 0.05936414 0.0018709312 -0.0120982705
0001c0 ef 50 61 bc e8 5d 01 bb 0b 12 be be 19 76 59 3b
       -0.013752206 -0.001973981 -0.3712314 0.0033181964
0001d0 3a dc ff 3d 90 16 29 bd 6c aa b9 ba 93 18 9c 3b
       0.12493177 -0.041281283 -0.001416517 0.0047636717
0001e0 d3 5b ec bb 41 ef 41 bc 4b a1 bb b9 87 90 c2 bc
       -0.0072130947 -0.011836828 -0.00035787592 -0.023750557
0001f0 78 d7 c5 bc 7c 7b 3b ba 74 eb 76 3c 07 d0 fc bb
       -0.024150595 -0.00071518845 0.015070785 -0.0077152285
000200 70 76 5a bc 1f 5e cd be 42 09 e8 3a d2 dd ee 3b
       -0.013333902 -0.4011087 0.0017702954 0.0072896266
000210 3f 29 12 be 23 46 1f bd c8 42 99 3e c7 4c a5 bb
       -0.14273547 -0.038885247 0.29933763 -0.005044553
000220 89 4d ae bc fd 51 71 bc 24 b9 5e 3c 4e 9d ee b9
       -0.021277206 -0.01472902 0.013593946 -0.000455121
000230 d9 92 31 3c 39 43 61 bc 56 4a 2c bc 85 3f 4e bc
       0.010838234 -0.013748937 -0.01051577 -0.012588386
000240 b1 b9 a5 bb 13 3f ae bb 5e fd 30 3c 62 8b eb 3e
       -0.0050575365 -0.0053175776 0.010802595 0.46004778
000250 27 92 48 3d 39 58 d3 ba 50 93 8a ba 24 8f 71 b9
       0.048967507 -0.0016124315 -0.0010572467 -0.00023036875
000260 26 cb c3 be 7a 51 78 3d 60 a7 55 3a 52 11 af bb
       -0.38240927 0.060624577 0.0008150246 -0.005342641
000270 8b 5d bb 3c a5 ac d8 3d 8f 07 80 ba 6c 29 80 bc
       0.022871753 0.10579804 -0.0009767878 -0.015644751
000280 ee 50 0e 3d af 1c cd bb 98 d7 07 3b 16 6a 21 3e
       0.03474515 -0.006259523 0.002072787 0.15763125
000290 cf 8f a6 b9 5a a1 33 3c e4 3b fb bb 1f a8 13 3b
       -0.00031769133 0.010963762 -0.0076670516 0.0022530628
0002a0 a2 4f a7 bb 0a 51 a8 bc 4b 6f df bb 8e a0 21 bc
       -0.0051059285 -0.020546455 -0.006818687 -0.009864939
0002b0 4b 84 af bc ff e2 cc 3c 42 4c 7e bb 0c 49 99 ba
       -0.021425387 0.025010584 -0.0038802777 -0.0011694743
0002c0 82 a3 e8 bb 0c db 03 bc eb 64 a9 be e1 df a3 bc
       -0.00709957 -0.00804783 -0.33084807 -0.020004215
0002d0 2f 9a 14 3e 75 4a 03 3d 17 a5 e3 ba 02 94 13 3b
       0.14511941 0.03205343 -0.0017367926 0.002251864
0002e0 bd 29 4d 3b 96 c7 86 3d f5 8f b2 3a 51 26 98 bc
       0.0031305396 0.06581037 0.0013623225 -0.018572958
0002f0 3f 6f 07 3d 64 25 39 3d c0 97 e3 3b 78 d6 7d bb
       0.033065077 0.045201674 0.0069455802 -0.003873257
000300 25 a0 24 bd ac 89 73 be 52 01 14 bb 66 b9 b5 3c
       -0.04019179 -0.23782986 -0.0022583795 0.022183131
000310 db 0a 39 be 60 2e 09 be 63 7e 46 3e bb 8d 22 ba
       -0.18070547 -0.13396597 0.1938415 -0.0006200929
000320 43 12 ae bb f6 2e 53 bc 98 2e 23 3c 29 a6 08 3d
       -0.0053122356 -0.012889614 0.009959839 0.033361588
000330 64 c9 1b 3c fd a0 00 bd 8b c0 c1 bc 5d dd 46 3c
       0.0095084645 -0.03140353 -0.023651382 0.012137738
000340 ba 4b f7 bb b7 a7 48 3c 7a 87 13 3d da cd 92 3e
       -0.007546869 0.012247018 0.036017872 0.28672677
000350 56 2b 85 3d 21 a9 a9 bb 5e b4 3d 3b 68 42 35 bc
       0.06502406 -0.0051776324 0.0028946619 -0.011063196
000360 1c 63 57 be 98 7f b7 3d 79 10 d2 ba b3 2d fa 39
       -0.21033901 0.089598835 -0.0016026638 0.00047717764
000370 e0 62 95 3d db 23 84 bd 2e b2 4f 3a cb 6d 0b bc
       0.072942495 -0.064521514 0.0007922974 -0.008510063
000380 32 b6 c6 ba e6 0e e9 3b 09 ae a0 bb 12 3f 0d 3e
       -0.00151605 0.0071123717 -0.004903559 0.1379359
000390 1b 67 8b 3c a9 7d 65 bd 0c 72 65 ba 04 a7 a7 3b
       0.017016938 -0.056028042 -0.0008752651 0.0051163454
0003a0 08 a7 4f 3b fd e5 47 bd bc b5 73 38 b2 e3 68 bc
       0.0031685252 -0.04880332 5.8104968e-05 -0.014214443
0003b0 9a da fd ba 72 3d 72 ba db 9b 02 bc f0 e8 97 3c
       -0.0019367517 -0.00092407234 -0.007971729 0.01854369
0003c0 a9 99 bd bc 42 6f 73 3b 1c 52 84 be 14 e6 8f bc
       -0.02314456 0.0037145172 -0.25843894 -0.017565764
0003d0 8c 9b 1d 3e 08 77 97 3d ff 8d 54 bb c5 44 7a 3b
       0.15391368 0.0739575 -0.003243327 0.0038187962
0003e0 b3 e5 28 3d 8c 7b cc 3d 80 fa b8 bb 97 f6 c7 3b
       0.041234683 0.09984502 -0.0056450963 0.006102394
0003f0 cf 62 80 3d ed 0c 84 3d 1b 9e 19 3b 10 cb 2b bc
       0.06268846 0.06447778 0.0023440185 -0.010485426

bias f4 [10]
000000 2f ed ad 3e 0b a9 92 3e 46 ee 30 3f b3 16 90 3e
       0.3397002 0.28644595 0.69113576 0.28142318
000010 64 28 00 3f 1e 95 01 3f da 10 b9 3e a6 6c 2d 3f
       0.5006163 0.5061816 0.3614567 0.6774391
000020 46 3d 2e 3f 9d d7 2c 3f
       0.68062246 0.675165
