infer_models/PNet.pth (torch, 35190 bytes, 12 tensors)

weight f4 [10, 3, 3, 3]
00000000: 4a8c 9e3e 7444 1a3e 30cd c9be 1190 e53e
00000010: bbf8 84be c475 59be f427 343f 733a a43e
00000020: 19fe 57be af71 c2be e43d a93c 7df7 dcbe
00000030: 0dfa 463d 17a2 e1be cfb7 87be 2f80 0f3c
00000040: a301 dabe 1d59 50bd 8423 05bf 75ce 343f
00000050: bd56 a73e d0bd 4ebe 77b1 8a3e aa53 3f3f
00000060: 8f1d 1dbf 2592 2fbe 9b9b a53d 612b 53be
00000070: 9248 8abe da33 693c e863 623e 9e25 7bbc
00000080: 666f 8cbe c2ae c83e 8628 9e3e e745 94bd
00000090: ae50 833e 1b40 3ebe 3f4b 54be 3943 923e
000000a0: 2778 11bb a8a6 0bbe 6e13 5abc 1e8f 363e
000000b0: 4d40 14be 5de5 8c3e 2249 1dbe 8185 38bf
000000c0: 32a6 b43e 68a3 d83d dd93 95be a63d 3dbc
000000d0: 8e90 733e e495 363d 331b 0fbd 803b 9dbd
000000e0: 8116 17bd ecd8 cb3d 63d6 5e3d c1b3 91ba
000000f0: 82bc 333b 0def b63d 05eb b4bd 1666 5bbe
00000100: 7d05 c2be 4b71 24be 3ca7 903d 547d 913d
00000110: d389 c33d c0ca e93d e1da f83d eeae fd3d
00000120: f3a9 43bf 410b 1fbf 2f83 f2be cd3b 523d
00000130: 794c 023e 7bb2 6b3e 54f5 c73e be57 1e3f
00000140: ecc4 143f 86a7 9d3d 95a6 bf3d 98e5 8abe
00000150: 14b3 823e 5dc7 a43b 9de8 60be 8e6b 2bbd
00000160: ad55 94be 0f43 d6be 30e8 0a3f 16ec 143f
00000170: cdaa c63e 9899 b13e e5f8 3d3f 58f9 ea3e
00000180: f950 603e b474 ae3e 2235 8a3e e56c 0fbf
00000190: 4ec5 3abf 6e11 a1bd e85e 28bf 9f89 04bf
000001a0: ee53 95be 3865 39bc 9eba 2cbe 2627 433e
000001b0: b1db 6cbe 9298 54be c9e1 713e 0488 16bf
000001c0: bbba a6be c283 e13e 6d71 3abe 4bca e53d
000001d0: df48 1a3f 794a fcbe 6bc8 833d cb96 b83d
000001e0: 09b1 aebe 9db2 0d3e 66da 893e a02f a9bd
000001f0: 04c7 123e f919 b73e 468f 363f e44d 123e
00000200: 55c7 b1be a3fb 6b3f 49fa 3c3e b6b7 39bf
00000210: 6c71 813e 66a6 87be 84b9 78bf 129d 163e
00000220: 6b15 c1be c1c2 0b3e 025a 8c3d 6c96 87be
00000230: 066d 2a3e c21c d6bd 24dc 4c3d acee aa3d
00000240: c517 3a3f 4786 9dbe 567d 083f c461 493e
00000250: 0e46 9fbe 306f a03e 15b4 30be b2c5 febe
00000260: 367a d3be 077a c8bd 4eb7 42bf b3a7 0e3e
00000270: 4fef 4b3e 915a 97be e1ca 1b3e b17c a33e
00000280: e2b3 8f3e f577 873e 27e0 8bbd 3d68 803e
00000290: 6868 893e 9ddf f9bd 89a1 ad3e 0f5b ba3e
000002a0: e605 1abe 5c05 01bf aab3 a6be 67dc 2d3e
000002b0: a377 613e 06a4 ff3d 2f34 d1bd b981 483e
000002c0: 4711 4f3e 7e16 c7be 2445 e0be 61fd 16be
000002d0: 8d01 bb3e f640 843e e8f9 67bd 20c4 533e
000002e0: cd1e fd3d 5421 883e 902a ccbe 0aa9 cbbe
000002f0: 349e 91be 7e4d 3dbe 3b14 55bd 884e dd3d
00000300: 2e5c 8ebe 4894 2abe 3fb8 8d3e bca6 b5bd
00000310: 575b 6c3e f945 4d3e 99fd ccbb 6581 f73d
00000320: e183 7d3d 82c0 5ebe 1228 833d de4e 493e
00000330: 52e4 c1be 27ac ffbc c7b3 0f3e c971 11bf
00000340: c2b5 1dbd f497 bc3e d86a dfbe f94b 953b
00000350: e254 e43e 9a15 27be ec74 943d 14d0 803e
00000360: 879f b73e 7129 e73e 7137 a2be 8c68 d33e
00000370: 6e90 eb3d 5f82 c5be 6e35 abbd 721d b2be
00000380: deac debd 303e 813c 8580 273e 6291 fcbd
00000390: ed52 6f3e 8b24 8a3e a2b1 81be c033 11bc
000003a0: a25d 3ebe 3470 c7be 8dea babd 27c2 8c3e
000003b0: b31b a53e d92d 4e3e 28d9 033e f1c7 8cbd
000003c0: 895b cfbc 0135 9bbe 189c acbe 8f53 febd
000003d0: 0d33 c83e eb2d 81bd 0a29 16be 0dfc febe
000003e0: 64f0 8e3c 12ac 5f3d bdcd b43e 9e07 4d3d
000003f0: 76e9 853e 51db 163f a44c 1f3e 4d78 1dbe
0.30966407 0.15065175 -0.39414358 0.44836476 -0.25971016 -0.2123633 0.70373464 0.32075843
-0.21093024 -0.3797736 0.020659395 -0.4315757 0.04857831 -0.44068977 -0.26507422 0.008758589
-0.42579374 -0.050866235 -0.5200732 0.7062753 0.32683364 -0.20189595 0.2708852 0.74737036
-0.6137323 -0.17145593 0.0808632 -0.20622016 -0.27008492 0.014233554 0.22108424 -0.015328793
-0.2742874 0.3919583 0.30890292 -0.07239895 0.2564749 -0.18579142 -0.20731829 0.28566912
-0.002219686 -0.13637793 -0.013310296 0.17828032 -0.14477654 0.2751874 -0.15359929 -0.7207871
0.35283047 0.10578042 -0.29214373 -0.011550343 0.23785612 0.04457654 -0.03493805 -0.07677364
-0.036886696 0.09953484 0.054403674 -0.0011116193 0.0027425592 0.08932314 -0.08833889 -0.21425661
-0.37894812 -0.16058843 0.070631474 0.071039826 0.09547772 0.114156246 0.12151123 0.12386881
-0.76431197 -0.6212655 -0.4736571 0.05132656 0.12724485 0.23017304 0.39054358 0.61852634
0.5811298 0.07697968 0.09357945 -0.2712829 0.2552725 0.005028649 -0.21963735 -0.04185062
-0.28971615 -0.41848037 0.5426054 0.5817274 0.38802186 0.34687495 0.7420791 0.4589336
0.21905889 0.34073412 0.26993662 -0.56025535 -0.72957313 -0.078646526 -0.65769815 -0.51772493
-0.29165596 -0.011315636 -0.16868064 0.19057903 -0.2313068 -0.20761326 0.23621286 -0.58801293
-0.3256434 0.44045836 -0.18207331 0.11220225 0.6026744 -0.49275568 0.06434711 0.090131365
-0.34119442 0.13837667 0.26924437 -0.08261037 0.14333731 0.35762003 0.7131237 0.14287525
-0.3472239 0.9218084 0.18454851 -0.72545946 0.25281847 -0.2649414 -0.97158074 0.14708355
-0.37711653 0.13648511 0.06853105 -0.2648195 0.16643152 -0.10454704 0.05001463 0.08346304
0.7269252 -0.30766508 0.5331625 0.19666201 -0.31108135 0.3133483 -0.17256196 -0.49760205
-0.41304177 -0.097889 -0.7606095 0.1393116 0.19915508 -0.29561284 0.15214111 0.3193107
0.28066927 0.26458707 -0.06829863 0.25079527 0.26837468 -0.12200854 0.33912304 0.36397597
-0.15041313 -0.503988 -0.32558948 0.16978608 0.22018294 0.12482457 -0.10215031 0.19580735
0.20221435 -0.38884348 -0.4380275 -0.14745094 0.3652462 0.2583081 -0.056634814 0.20680285
0.123593904 0.26587927 -0.39876223 -0.39777404 -0.28441012 -0.18486592 -0.052021246 0.10805994
-0.27804703 -0.16658127 0.2767963 -0.08869693 0.23081718 0.20046224 -0.006255817 0.12085227
0.061893348 -0.21753123 0.06404127 0.19658992 -0.37869507 -0.031210018 0.14033423 -0.5681425
-0.038503416 0.3683468 -0.43636203 0.004556176 0.4459601 -0.16316834 0.072488636 0.2515875
0.35863897 0.45148805 -0.31682923 0.412907 0.11502157 -0.38576028 -0.083598 -0.3478809
-0.108728155 0.015776724 0.1635762 -0.12332417 0.23371477 0.26981005 -0.25330836 -0.008862436
-0.18590406 -0.38952792 -0.09126768 0.27491876 0.32247695 0.20134677 0.12875807 -0.06874073
-0.025312202 -0.30313876 -0.3371284 -0.12418281 0.3910145 -0.06307586 -0.14664093 -0.49801674
0.017448612 0.05460746 0.35313216 0.050056092 0.2615468 0.589284 0.1555658 -0.15377922

bias f4 [10]
00000000: 5430 a6be b465 5c3c 8aa5 2abc f1e4 343f
00000010: d5d1 503c c6be ccbc 1a1d 33bd 6d59 0bbd
00000020: 53f5 b83c 6049 4fba
-0.32458746 0.013451982 -0.010415444 0.70661837 0.01274534 -0.024993312 -0.043728925 -0.03402083
0.022577917 -0.0007907357

weight f4 [16, 10, 3, 3]
00000000: ded1 e53c 29f6 efbd bfce 8a3d d002 f9bc
00000010: d554 e1bd 7ffe acbd ace9 2cbd 9af1 9a3e
00000020: 693a 203e 9726 4cbe 82dd 213a 7720 da3e
00000030: 921b cc3d bc2f 85be d594 6f3d 7b27 a8bc
00000040: ce2d 013d 1319 543c 32f0 e43d 99a5 613e
00000050: d69a 23be e6a1 0dbd 73a5 0cbe 7ab9 3cbe
00000060: 1cc4 d0bd c260 af3d 79e4 e0bd 86f7 e63e
00000070: f310 d53e 1a86 143f 3096 b9bd bbd1 27bf
00000080: ee9d 63be 1bf3 aebd 15c9 08be 3008 a4bd
00000090: b144 843e 5f40 493e b024 313e a777 ccbd
000000a0: 9433 7dbd 0ec2 243e 2252 8cbc beb1 583d
000000b0: 3cde 243e 33f2 553d d8aa 3ebe cea1 173e
000000c0: cbf9 d6bb 3d38 bdbe ba1e fb3d 33ea f93c
000000d0: fb6f d3bb 5d2f d53d 9d16 3a3b d9ba 9c3e
000000e0: 1472 ba3b 438e 4dbd 8d0e a8bd eed6 46be
000000f0: 74b9 80bd 49ad 67bd 93a6 fdbd 51af d83e
00000100: 7f83 13be 6534 3d3d 42bb 623d a6ae 40be
00000110: b89a 5c3e ade1 f43b 3c0f c43c 9528 e53b
00000120: 1ce6 753d a271 643c edf3 b93e eae4 353d
00000130: e709 bb3d d379 533e ef2c 203d eef6 c73d
00000140: 61f6 2bbc b8fa 83bd c2f5 913e e23e 02be
00000150: 2d64 08be 50cf 4dbd 2f2c 67be aba3 1b3c
00000160: 0f86 8d3d c4fe bcbd d231 243d ef99 8b3e
00000170: d17c ba3d ab9b 30be a5d3 a9bd e878 3cbd
00000180: 3fd6 4bbe a8a7 0e3d aee9 863d 5710 16be
00000190: b777 7cbd cd74 f8be 3dec 2dbd 5d8e 20bd
000001a0: 50bd 513e 0703 f4bc b186 81bd 3360 1d3e
000001b0: bfbb 3fbc dd40 89be 8ca7 21bf 1308 fbbc
000001c0: 1e42 4fbd 9a14 b9be 14b6 fd3b 4e08 803b
000001d0: 9164 7dbe f5cf 373e c826 cabd 3e3a 39bf
000001e0: bcf7 d13d a5f1 433e ff20 573d 61f6 5fbe
000001f0: a0c2 593e 683e 1b3e b410 3e3d 1430 353c
00000200: fd9b 393d dba4 c53d 9e62 2ebb b6e3 eb3c
00000210: 0319 d3bd 4c14 3cbe e221 483c 13bc 32bd
00000220: 7d96 cabd 5c97 f4bd da52 af3c 9a9a 813d
00000230: 649e 3f3c 6ab2 b43d 7166 ac3d 0613 9a3d
00000240: 88ad f0bd 03c2 17be 7f31 9cbe 674f 4ebd
00000250: 4e33 6dbc 1053 8bbd c3d3 30bc 30af 80bd
00000260: ab2c 983c 3cfc e03d 3607 1b3d d8d8 5bb9
00000270: ff19 f33c e6a3 883d f968 c03d 80b8 17bd
00000280: 5838 b039 f8eb 8a3d 13ab 793e d3ed 3fbd
00000290: c1f4 d93d 2a05 073e ed10 903d 2ccb 113c
000002a0: c0ae a9bc 5168 03bc e203 67bd b705 853c
000002b0: edd3 05be 325b 79be 76bb bebd 868c 723c
000002c0: 3ba5 03be f556 b23b 6f28 06bd 3970 04bd
000002d0: b090 283d 0399 38bd 0d27 0dbe 6ed8 83be
000002e0: b53d 47bd 1f9b 1bbe 9608 09bd 5f98 da3d
000002f0: 6f59 133e 6117 ec3c 5c76 143d cea4 a43d
00000300: 4623 29be c0a7 71bd 8bd4 5c3e e5ab 27be
00000310: 2d4b 303d 43c6 a73d 548b 823d 4068 fdbe
00000320: 71be 1f3d cdae 183e 7b64 20be a1a7 fd3d
00000330: 7174 3bbe 2c88 04be 36ba 86be 3dcd e5bd
00000340: 4e9b 10be 95b5 5bbc 7950 e8bd da66 273e
00000350: 9e07 163e bc4a 56be 6e07 b9bd 449d 073e
00000360: 0337 bfbe cb58 16be f7c4 373e faca 21be
00000370: bbe4 c3bd a87c dbbd 6c7e 15be 7f7c d13c
00000380: 1fec bb3d fb54 6d3d 42a9 e73c 148f b63c
00000390: df96 233d fda2 fc3d abcb afba 7255 0a3e
000003a0: bb09 113e a875 2c3e 9425 09be fd8b 8ebe
000003b0: ee3e 10be c34c 26be d3d1 bebc 37e5 5fbd
000003c0: aa70 7cbe e909 c4bd ac16 77be e36b 513c
000003d0: c597 173e c610 0cbe a300 a3bd 4010 523e
000003e0: cdd6 363d 6faf c83c 09ff ba3d 267a cd3d
000003f0: 8e47 09be 2f17 00be e12d 86bd b26f f53d
0.028054174 -0.11716873 0.06777715 -0.030396849 -0.110025086 -0.08446979 -0.042215034 0.30262452
0.15647282 -0.19936596 0.000617467 0.42602894 0.09966196 -0.2601298 0.058491547 -0.020526638
0.031537823 0.012945431 0.11178626 0.22035827 -0.15977034 -0.034578227 -0.13734989 -0.18430129
-0.10193655 0.08563377 -0.10981078 0.4511072 0.41614494 0.5801712 -0.09061849 -0.655544
-0.22228214 -0.085424624 -0.13357957 -0.08009374 0.25833657 0.19653462 0.17299151 -0.099837594
-0.061816767 0.16089651 -0.017129008 0.052903883 0.161004 0.052232932 -0.18619859 0.14807817
-0.0065605394 -0.3695697 0.1226172 0.030507183 -0.006452558 0.104094245 0.0028394826 0.30611303
0.0056898687 -0.0501845 -0.082059 -0.19417927 -0.062853724 -0.056561742 -0.12385287 0.42321256
-0.1440563 0.046192545 0.055354364 -0.18816623 0.21543396 0.0074731917 0.023933046 0.006993363
0.060033903 0.013943108 0.36318913 0.044407763 0.09132748 0.20651941 0.039105352 0.09763895
-0.010495753 -0.06444305 0.2850781 -0.127193 -0.13319464 -0.050246537 -0.22575448 0.009499471
0.06910335 -0.0922828 0.040086575 0.2726588 0.09105838 -0.17246883 -0.08292321 -0.046013743
-0.19905947 0.03482786 0.065875396 -0.1465467 -0.061637606 -0.48526612 -0.042461623 -0.03919827
0.20482373 -0.0297866 -0.063245185 0.15368728 -0.011702477 -0.268073 -0.6314628 -0.030643499
-0.050600164 -0.3614853 0.0077426527 0.00390724 -0.24745394 0.17950423 -0.09870678 -0.72354496
0.1025233 0.19135149 0.052521702 -0.2187133 0.2126565 0.15160525 0.046402648 0.011058826
0.045314778 0.09650584 -0.0026609073 0.028795104 -0.10307505 -0.18367118 0.01221511 -0.043636393
-0.098919846 -0.11942932 0.021401811 0.06328316 0.011695478 0.08823092 0.08417977 0.0752316
-0.117518485 -0.14820103 -0.30506513 -0.050368693 -0.014477564 -0.06802952 -0.010792675 -0.06283414
0.018575987 0.1098561 0.037848674 -0.00020966248 0.029675482 0.06671886 0.09395022 -0.037041187
0.00033611315 0.06783289 0.24381666 -0.046857666 0.10642386 0.13185564 0.07034478 0.008898538
-0.02071321 -0.008020476 -0.056400187 0.016238077 -0.13069125 -0.24351195 -0.09313099 0.014804011
-0.12855999 0.005442495 -0.032753404 -0.032333586 0.04115361 -0.0450678 -0.13784428 -0.2575106
-0.048642833 -0.15195893 -0.033455454 0.10673594 0.14389585 0.028819742 0.03624569 0.080392465
-0.16517362 -0.05899787 0.21565454 -0.16374166 0.043040443 0.08192112 0.06374231 -0.494936
0.03899998 0.14910431 -0.1566333 0.12385488 -0.18306138 -0.1294257 -0.26313943 -0.11220787
-0.14121744 -0.013409992 -0.11343474 0.16347829 0.14651343 -0.20926946 -0.0903462 0.13243586
-0.37346658 -0.1468231 0.1794623 -0.15800086 -0.09565111 -0.10717136 -0.14599007 0.02557206
0.09175896 0.05794237 0.02827895 0.022285022 0.039938804 0.12335775 -0.0013412138 0.13509157
0.14163868 0.16841757 -0.13393241 -0.27841178 -0.14086506 -0.1624022 -0.023293411 -0.054661956
-0.24652353 -0.09572203 -0.24129742 0.01278207 0.14803989 -0.13678274 -0.07959106 0.20514011
0.044638444 0.024497716 0.09130675 0.100330636 -0.13406202 -0.12508844 -0.065517195 0.11984195

bias f4 [16]
00000000: be38 d9be 83ef 953f b3c4 303f 7c69 cd3e
00000010: ec6b 7cbe 35f9 213f b47f 6e3d 6c27 e63e
00000020: 5f35 ce3e c8ee 1c3f 9c88 b73e 4b97 873e
00000030: 0452 cb3e e831 623e ce0a 9a3d 7834 b03e
-0.42426103 1.1713718 0.6905014 0.4011954 -0.24650544 0.63270885 0.058227256 0.44951952
0.40275094 0.6130185 0.35846412 0.26482615 0.3971101 0.2208935 0.07521592 0.3441503

weight f4 [32, 16, 3, 3]
00000000: 6ae6 61bd 1dd6 83bc effb 3a3c 3503 b5bb
00000010: 3ea5 14bb c595 d6bb 5f2f 383c 155b 403b
00000020: eb07 833c 8f5f 39bd 9199 973c 17af 8dbb
00000030: e9e1 83bc 5036 3bbd b836 aabc a153 f2bc
00000040: ffec 40bb d236 40bc 4d59 023d 941d 7abc
00000050: 3ed7 343c 1657 1d3d a837 bdbc 3abc f63b
00000060: 2326 d53c 6fca a1bc b95a 033d 4170 703c
00000070: cc05 c8bc ea55 d2bc a969 18bd 59b1 40bc
00000080: 5873 443c 6fa4 8fbd 0f2d 85bd 544f 683b
00000090: e74f 83bd 1830 14bd 3acb 7fbc 58f8 2dbc
000000a0: fc27 b2bc d1ec 663b 6783 1a3d 428f 82bb
000000b0: 2449 713c 12ee 8f3d 301d e93b 7c99 293c
000000c0: 7e0e 503d 47a6 873a 6f8a 8cbc e165 8c3d
000000d0: eaa1 5c3d 975e 01bd 8945 1a3c 847a 603b
000000e0: 3170 673b ae64 81bc adcf 013d 0985 873c
000000f0: 9926 2fbd 8322 663c fb57 28bc 00bc b53c
00000100: 6c88 873c e8da 7bbb 6ca9 823d 095e 943c
00000110: ae67 b1bc 91be 9c3d ebc9 81bb 7647 12bd
00000120: 93b9 f83c 042d 983c ff8c 56bc dfe1 2bbd
00000130: 9b0f b13c a1e4 c8bc 06fc 6bbd 98ac 173d
00000140: 0382 803b 7533 df3c 83e9 7e3d e70d b93b
00000150: 9bd1 753a e1b6 7b3c d5fc 3fbc 79d6 413d
00000160: 1afd 4abd a4cc dbbb d344 6e3c c5c8 c4bb
00000170: d91f 56bc 0633 f6bc bb23 7f3c b9db 123c
00000180: 112f 633d 67f3 acbb 2f22 ffbb da12 34bd
00000190: 10f7 383d ac07 093b c550 50bd 56b5 da3c
000001a0: 0365 6c3c 7eff b5bd 4445 0ebd ce34 243b
000001b0: cd39 f73c dee4 7d3d bb0a 593d 3691 a03c
000001c0: ab86 6a3d 935f 2d3d 2419 3d3d 8d7d 6f3d
000001d0: 507a e23c 4a23 28be 219c 023d ba0d 4fbd
000001e0: fb78 70bd fb15 603c ca43 eebc afe1 f8bd
000001f0: d7cc 28bd 991d a1bd 1b3b f73b 7f2c 3ebb
00000200: af2c 61bc 1e13 153c 579b 76bc dddd fb3b
00000210: f729 1ebd a09f 123b 3883 db3c ca06 b73c
00000220: 867a 9d39 329a 803c 4a1b ecbc e3aa c0bc
00000230: 4fd0 6fbc c292 f5bc 39e9 c2bc 57db 573c
00000240: 7d27 2abe 8fd4 03be 68f6 c9bc 32d7 bebd
00000250: 0f86 52be 9ac1 3cbe 3421 f43c cc1f 233b
00000260: 8658 8f3d 03c7 b73e d087 603e 2ff3 f53b
00000270: 473d 2ebe e63a 84be 2b0a 4cbe 6e83 0c3e
00000280: eed9 d23d 8cd5 593d fc9d 043e 43e9 7b3d
00000290: 6b2b e9bd 80a7 6a3d c447 6e3e 25b2 093e
000002a0: 9c1c 58be 8ce4 6bbd a742 cebd b330 093e
000002b0: 14b5 3d3c 9e92 e43b 7461 303e 03a7 cc3d
000002c0: 1010 cc3d 5af7 7cbd bc7d 0cbe 8d03 10be
000002d0: 12cc 42be c5bf bfbd 72e7 a6bd 9819 073e
000002e0: 72f2 8d3c add5 a63d 2d57 9abd ae31 8eba
000002f0: 0757 f83d 2cb9 363a 072b 843e 4110 593e
00000300: da89 47be 784e 8fbe 7cdd 05be ff91 f23d
00000310: 86d7 8d3d 1d18 2cbc 129f e1bd 310a 85bd
00000320: 8f1f 58bd 08c8 24be dde4 adbd 87f9 8ebd
00000330: 58d5 9d3c cc15 0a3c 351a 163b e7ba b5bb
00000340: d967 49bc 0b0f 483c ef0b 933e c481 c43e
00000350: 1b78 fe3d 7d83 2e3e c75e 233d 6b09 75bd
00000360: 0339 853a 617f 76bc e83b 3e3d 0b65 00be
00000370: c8ec 29bd 9bc7 b9bd c85c adbd 2611 5abd
00000380: b49b 93bd 5a88 b73c 5468 823d 3674 1f3e
00000390: cd44 b8be 52ad afbe f9e0 7abe 7a94 513e
000003a0: 17aa 5b3d e55c 80bd e2e0 5bbe f48f 35bd
000003b0: 51eb f8bc f6a4 2fbe 01cc 10be dd90 06be
000003c0: 3985 64bd cbf3 b0bc dbff 0dbd 31c1 54bc
000003d0: abef abbe a45f b5be a173 8cbb 6e99 14be
000003e0: 9725 a4bc 50f1 10bc 54c4 e6bc e912 f23d
000003f0: f9b2 73bd 0fce 49be d4f5 96be 6860 0f3e
-0.05515138 -0.016093308 0.011412605 -0.005524064 -0.00226815 -0.0065486156 0.011241763 0.0029351164
0.015994987 -0.045257147 0.018505843 -0.004323851 -0.016098933 -0.045706093 -0.020778045 -0.029580893
-0.0029438136 -0.01173182 0.031823445 -0.015265841 0.011037646 0.03841313 -0.023097828 0.0075297626
0.026019162 -0.019749848 0.03206894 0.014675201 -0.024416827 -0.025675733 -0.03721014 -0.011761033
0.011990391 -0.07013785 -0.06502735 0.0035447674 -0.064117245 -0.03617868 -0.015612418 -0.010618292
-0.021747582 0.0035236368 0.03772297 -0.003984363 0.014726911 0.0702783 0.007114075 0.010351535
0.05079507 0.0010349237 -0.017155854 0.06855369 0.05386535 -0.03158435 0.009415993 0.0034252713
0.0035314674 -0.015795078 0.031692196 0.016542928 -0.04276142 0.014046314 -0.010274882 0.022184372
0.016544543 -0.003843004 0.06379971 0.018111246 -0.021655884 0.07653535 -0.003960838 -0.03571268
0.030361926 0.018576153 -0.0130951395 -0.041963454 0.021613887 -0.024523081 -0.057613395 0.037029833
0.0039217486 0.027246216 0.062234413 0.0056474092 0.0009377242 0.015363426 -0.011717995 0.047323678
-0.049557783 -0.0067077447 0.014542776 -0.006005379 -0.0130691165 -0.030053627 0.015572484 0.008963519
0.055464808 -0.0052780393 -0.0077860574 -0.04396329 0.045157492 0.0020909114 -0.050858278 0.026697796
0.01442838 -0.08886622 -0.034734026 0.0025055888 0.030178929 0.061985843 0.05298875 0.019600492
0.057257336 0.042327475 0.046166554 0.058469344 0.027646214 -0.16419712 0.031887177 -0.0505502
-0.058709126 0.013677116 -0.029085059 -0.12152421 -0.041210975 -0.078669734 0.0075448877 -0.002901822
-0.013743564 0.009098796 -0.015051684 0.0076863603 -0.03861424 0.0022372976 0.026795968 0.022342104
0.0003003666 0.015698526 -0.028821606 -0.023518985 -0.014637067 -0.029977206 -0.02379285 0.013174853
-0.16616626 -0.12874053 -0.024653628 -0.09318389 -0.20558952 -0.18433228 0.029800989 0.0024890779
0.069993064 0.3589402 0.21926808 0.0075057964 -0.17015563 -0.25826186 -0.19925754 0.13722011
0.10295473 0.05318217 0.12950891 0.061501753 -0.113852344 0.057288647 0.23269564 0.13446863
-0.21104664 -0.057591006 -0.10071307 0.13397484 0.011578817 0.006975486 0.17224675 0.099927925
0.09964001 -0.06175933 -0.13719839 -0.14063855 -0.19023159 -0.09362749 -0.081496134 0.13193357
0.017327521 0.08146224 -0.07536159 -0.0010848546 0.12125974 0.0006970342 0.25814077 0.21197607
-0.1948618 -0.27989554 -0.13072771 0.11844253 0.069258735 -0.010503796 -0.110166684 -0.064960845
-0.05276447 -0.16091931 -0.08490918 -0.06981187 0.01926677 0.008428048 0.0022903804 -0.005545962
-0.012292826 0.012210618 0.28720042 0.38380253 0.12425252 0.17042346 0.03988531 -0.059823435
0.0010164086 -0.015045018 0.04644385 -0.12538545 -0.041485578 -0.09071275 -0.08464962 -0.05323901
-0.072074324 0.022403885 0.06367555 0.15571675 -0.3598999 -0.3431192 -0.24499883 0.20466796
0.053629007 -0.06267718 -0.21472505 -0.044326738 -0.030385645 -0.17152771 -0.14140321 -0.13141198
-0.055791114 -0.021600625 -0.03466783 -0.012985514 -0.3358129 -0.3542453 -0.004286245 -0.14511654
-0.020037455 -0.008846596 -0.028169788 0.11820013 -0.059496854 -0.19707511 -0.29484427 0.1400162

bias f4 [32]
00000000: 0f91 c13e 1a63 e7bc 8cae 3b3e db88 cc3e
00000010: 7e7e 013e fe07 2c3e 92eb 3ebd 37d1 bd3e
00000020: 301e c03e c044 d63d bafe 84bf 8c97 74bd
00000030: f53a 68bd b90e 593e 373f fb3e 2976 4a3f
00000040: 81ca 433e 253c 3d3e 5570 1d3f e4f5 21be
00000050: 1229 713b e3cb 513e e187 513e 0178 663f
00000060: b435 bfbe 3842 233e 39d4 adbd e89f fd3b
00000070: 5d2f 1cbe a136 be3d b375 9b3d d9d1 0e3f
0.37805983 -0.028245497 0.18328303 0.39948162 0.12645909 0.16799924 -0.046611376 0.3707368
0.3752303 0.10462332 -1.0390236 -0.05971484 -0.05669685 0.21197022 0.49071667 0.7908655
0.19120218 0.18479975 0.6149953 -0.15816456 0.0036798161 0.20487933 0.2046199 0.9002686
-0.3734566 0.15943229 -0.08487744 0.0077400096 -0.15252443 0.092877634 0.07590809 0.5578895

weight f4 [2, 32, 1, 1]
00000000: 5993 d7bd 88f7 67bf 9798 9f3c 3285 54bf
00000010: 7090 31bf 9ead 00bf 9347 49bf 6e2b 7ebd
00000020: 5c30 f8be fa10 6bbf 0827 473f bec5 463f
00000030: bf19 753d de33 b0be a8a6 c7bb 63c9 293f
00000040: e6bc 3fbf 63a4 313d 965d 37bf dd86 31bf
00000050: 0437 ea3d 232d debd b700 3d3f 6daa 53bf
00000060: 5d7e 233f 85bd 95be 9db8 dabe 2efb 3fbf
00000070: accd d8be d372 12bf 278b 4ebf e2a5 2fbf
00000080: b1fe d53d e35b 693f 9d78 a0bc e89a 553f
00000090: 3ddb 323f 0bed ff3e 5b39 4c3f 3c33 753d
000000a0: 1677 f43e 98a2 643f b576 46bf 92d4 42bf
000000b0: 2bd8 83bd 3d55 b03e e85a fb3c 9517 2abf
000000c0: 6403 433f b52f 3bbd f0e9 353f 8303 323f
000000d0: d66f ddbd b7ea 0a3e 2e64 30bf 22c2 593f
000000e0: 3302 99bf ec1e 8e3e 0cb9 da3e eb2b 2e3f
000000f0: ead9 d63e fe54 123f 4574 463f 7e6e 303f
-0.10526151 -0.9061208 0.01948194 -0.8301574 -0.6936102 -0.5026492 -0.7862484 -0.062053137
-0.48474395 -0.9182278 0.7779393 0.7764548 0.059839007 -0.34414572 -0.006092865 0.66322917
-0.7489761 0.043369662 -0.71627176 -0.6934641 0.11436275 -0.10848453 0.73829216 -0.82681924
0.6386469 -0.29246154 -0.42718974 -0.74992645 -0.42344415 -0.5720646 -0.8068108 -0.6861249
0.10448969 0.91155833 -0.019588763 0.83439493 0.6986578 0.49985537 0.7977502 0.059863314
0.47747105 0.893106 -0.7752488 -0.76105607 -0.06437715 0.34440032 0.030682996 -0.66442233
0.7617705 -0.045699794 0.71060085 0.6953661 -0.10812347 0.13566099 -0.6890286 0.8506185
-1.1953796 0.27757967 0.42719305 0.68035764 0.4196313 0.5716094 0.77521163 0.689186

bias f4 [2]
00000000: b679 92be 6007 b63e
-0.28608483 0.35552502

weight f4 [4, 32, 1, 1]
00000000: 9703 95be dc0a 8a3c bd81 98bd 406d 5f3c
00000010: f999 80bc 7484 e0bc 7058 3a3c 94a0 c1bc
00000020: 058b dabc 789a e339 0a9a da3b e5ca 43bc
00000030: dc06 62bd 2bc3 813c 574d 25be 8fae a6bc
00000040: a95d 883b 6335 833b 9b88 163c df94 a3bb
00000050: 0038 7b3e 124f 27bc 4ec8 13bd dd49 843b
00000060: c91d 82bc 1310 fc3b cb95 80bc c2e3 a8ba
00000070: b9da 1fbd 7e2f f03d 5890 c43b e9cb b0bb
00000080: a7ca 1bbe 4c6b f1ba 3409 263c 814b 1ebd
00000090: 31e9 833c eb53 f13d 4bd1 e63c a9e8 52bd
000000a0: a6dd b03d 5b01 a83b f7e2 32bb d6a9 f6bc
000000b0: 2730 d83d c7d1 86bb 3547 5bbe 5aa1 f0bb
000000c0: d8d7 96bc ab3e a33d b63c 3f3b 479a f53b
000000d0: 80a3 ee3d 4d4d a0bd 8a22 05bc f9b1 53bd
000000e0: 93aa f1bb bf37 e23c 17b1 bfbd 95d6 fdbb
000000f0: 6247 873c 25fb 2e3e d113 203c 620b 823c
00000100: 2bc3 19bc eb75 36bc ab70 c0bc fcb2 ae3c
00000110: 90f6 cdbc ff5b 87bc ec0f a63c 2ef7 88bd
00000120: 8183 bebc bd65 8f3c fc56 c93b 20c2 3b3d
00000130: 866b 333c 3ec1 793d 57b7 cc3d f610 26ba
00000140: d9d8 83bc 00a2 88be 358d 163c f5cd 6dbc
00000150: 2830 1bbd 1d34 743e 343b e83a 2888 48bc
00000160: 019e 3b3c a3cb e33d 2324 c03d c2e7 a83c
00000170: 7548 1dbd 5852 d3bd 325b 053a 9014 89bc
00000180: 4376 2e3e c295 f7bc 934c ab3d e653 dabc
00000190: 6144 6aba d950 833d ec23 65bc f7c6 25bd
000001a0: 65dd cb3d d363 9ebc b562 823c 7ee8 a03c
000001b0: ac64 673e 463f 94bb dc86 32be d67e 293b
000001c0: a4c2 193c b8ec 29be b35a 1abc 0a13 f4bc
000001d0: c8b6 e3bd 1277 513e 926d b13c 5bb9 71bc
000001e0: 0036 913c 9144 aa3c dfd4 8dbc 061e 17bc
000001f0: d514 523c e676 753d f616 89bc 483a 7fbb
-0.291043 0.016850881 -0.074466206 0.013636887 -0.01569842 -0.027406909 0.011373624 -0.02363614
-0.026677618 0.00043411902 0.006671195 -0.011950229 -0.055182323 0.015840134 -0.16142784 -0.020346908
0.004161556 0.004004167 0.009187843 -0.004992112 0.24533081 -0.010211723 -0.036079697 0.0040371255
-0.015883343 0.007692346 -0.015696427 -0.001288526 -0.03902695 0.117278084 0.0059986524 -0.0053954017
-0.15214024 -0.0018418818 0.01013403 -0.038646225 0.016102405 0.11783584 0.02817597 -0.051491413
0.08636026 0.0051271147 -0.0027295926 -0.030110281 0.10556059 -0.004114363 -0.21413882 -0.0073434534
-0.01841347 0.07970937 0.0029180474 0.007495198 0.11652279 -0.07827244 -0.008125911 -0.0516834
-0.0073750704 0.027614472 -0.09359949 -0.0077465274 0.01651353 0.17087992 0.00977035 0.015874568
-0.009384911 -0.011136512 -0.023491224 0.02132558 -0.025141984 -0.01652336 0.020271264 -0.06687771
-0.023256065 0.017504567 0.0061444025 0.04583943 0.010950929 0.060975306 0.09995907 -0.0006334925
-0.016094612 -0.26686096 0.00918894 -0.014514436 -0.037887722 0.23848005 0.0017717839 -0.012239493
0.011451245 0.11122825 0.093818925 0.020618323 -0.03839918 -0.1031844 0.00050871365 -0.016733438
0.17037301 -0.030222777 0.08364215 -0.026651334 -0.0008936581 0.06411905 -0.013985615 -0.04047295
0.09954337 -0.01933471 0.015916208 0.01964211 0.22596997 -0.0045241443 -0.17434257 0.0025862954
0.009384785 -0.16594207 -0.009421038 -0.029794235 -0.11118847 0.20455578 0.021658693 -0.014753665
0.017725945 0.020784648 -0.017313419 -0.009223467 0.01282235 0.059927844 -0.016734581 -0.003894465

bias f4 [4]
00000000: b2df ec3d a9f2 07bd a39e 07bd 41e8 68bc
0.11566104 -0.033190403 -0.033110272 -0.01421553

weight f4 [10, 32, 1, 1]
00000000: 82ed a5bd db51 b63b 8300 45be 73c8 c43a
00000010: 97cb f7bb 8a36 68bc 96ac 5a3c a718 313e
00000020: 879d c7bc 869c 473a 1f23 183c 182d 13bc
00000030: 8e12 0fbb ba71 a43e 779c a9bb c349 b7bc
00000040: 432d 04bc 6c29 173d 3e50 3aba 008f de3a
00000050: c155 8f3d 0747 1fbd 2068 8138 f8f6 9fbb
00000060: 8c6a b4bb 3468 8f3c 69a4 963b ac77 ba3b
00000070: 3dc9 a8be d4a1 2a3c 060a cd3b 68dd 0bbb
00000080: 009f f1bc 3354 f5bb 421f c73c 60a3 b1bc
00000090: dcc7 bd3c 15a4 363d 01f5 ed3b 2bcb cfbb
000000a0: cf12 223d 034e 1abc b3c4 abbb f3a8 38bb
000000b0: d8d1 413e d450 05bc 4a48 b0be 0de5 d8bb
000000c0: 348d 74bc 34d4 033c 8626 823b 92e4 88bc
000000d0: 0101 de3c ad4b d2bb 6f2c abba 4277 fc3b
000000e0: 0104 0239 f465 52bb f2de b7bd 6d68 ccbb
000000f0: 7927 fbb9 aeab 5d3e ffd1 77bb 0726 493b
00000100: 8459 393d bc9f 9fbb 551d 81be eca7 8b3c
00000110: 9ef7 a0bc 1462 89bc 25fa 003c 7a15 313e
00000120: 09ed 57bc 9447 6d3b 12f5 bfba d411 3dba
00000130: f7c5 ec3b 3c72 863e b5cc 253d 85d8 0d3b
00000140: 95fa f1ba 0902 46bd 7e0a 05bc 4f08 933c
00000150: 5b8e b93b e903 b63d 904a 873a 6327 44bb
00000160: fcc2 453b 7396 463d e64e 703d 5689 803c
00000170: 1095 89be 0ae3 6abd 9634 a03a 04ff 80bb
00000180: c918 3dbc cc8b 6bbb ecdb 22bc 6feb 3c3c
00000190: 1c97 b7bb 665f d2bc 82f6 7a3d 6f88 9a3c
000001a0: 998c 0fbd 83c3 3bbb 4214 0ebc c3a3 b2ba
000001b0: 5ce9 bf3d 5364 bc3c 3848 a9be 1d4c 93b9
000001c0: 1ece 86bc a830 6a3d 4a62 2c3b 606d 40bb
000001d0: 4592 fabb 1472 4ebd b45d 5cbb 36c6 37b9
000001e0: 6d30 a1bb 5044 c53d 33dd 6abc a461 e53b
000001f0: c8d3 a1bc a1dc 3c3e f073 3dbc bea5 1dbc
00000200: f764 5a3d 9cc3 a8bb d8cd a6be 4db9 79bc
00000210: a2e1 1fbb 389c c53c e4c7 95bc b873 983e
00000220: e198 093d cdd4 ddbb 2294 033b ce37 7bbc
00000230: f0ae 873d e62d e43e bae3 853c 58ab ddbb
00000240: 2611 9a38 575a 343d 66a5 79bc e6ac 043d
00000250: 208e 423c 5122 43bb add4 1a3c 403d 12bb
00000260: 5e29 8f3a bcfb cabc 1540 e8bb fad6 ab3b
00000270: e5c3 eabe aedb 47bc 12bc 493c 4464 673b
00000280: 9659 df3c 2c38 80bc 78cb d9bc bcd0 153c
00000290: 35ca b6bb fcb2 b33c 1134 0b3d 29bd 143c
000002a0: b4a0 ca3c 9a27 81bb aca4 e7bb b3c6 913a
000002b0: f697 2b3e cc7e 24bb d820 9abe 748a 18bb
000002c0: 7fca 1abb d58d f33b 6820 ba3a 17bf 0bbd
000002d0: b3bb dfbc a27f ba3b 4003 54b8 af09 e73b
000002e0: a7fe e93b d8a9 c73d c031 8c3a 546e 4abb
000002f0: b838 1dbb 9820 163e c211 8fbc 5bc6 2bbc
00000300: ec9c c3bd 2e50 ebba 0a4c 1ebe 195f 08bd
00000310: 626d 993c c7f1 883d 7bbd 3bbd 015c 143e
00000320: 49c7 4f3d a421 a4bb c635 9f3c 1083 5cbc
00000330: ff09 e73d c9a2 903e 7b09 29bc 1cca 16bd
00000340: 77a0 f7bb b6f9 b8bc 1305 ac3b f7f1 6fbc
00000350: 3dc5 b93d f94b 603c 77e8 743b f749 7c3b
00000360: 7b82 863b faa9 abbd 018d 96bd f125 eebb
00000370: 0d09 98be 8c16 1c3d 64b3 9e3c a629 823c
00000380: dcac b93d 2986 bcbc ab37 2d3d 4335 a7bb
00000390: 2304 4c3b 347f 193d 31da 86bb 703f 013b
000003a0: 76b4 083d d2de cdbb 8934 2f3b 5d56 e23b
000003b0: 1d33 4c3e d24d cc3b 6aa4 90be 86d4 44bb
000003c0: 306d a0bc aad0 aabd 6844 b63b 67fe e539
000003d0: d5b8 aabd 4187 7f3d 16ae b53b f84d 143c
000003e0: 0704 853c b29a 2f3d 04cb e2bc a254 f4bb
000003f0: 44f0 203a f1e3 173e 599d 0abc cf8d 2b3b
-0.08101942 0.005563957 -0.19238476 0.0015013352 -0.0075621116 -0.014173159 0.013346812 0.1729456
-0.024367107 0.00076145714 0.009285717 -0.008982919 -0.0021831128 0.32118016 -0.0051761228 -0.02237404
-0.008067432 0.036904737 -0.0007107294 0.0016979873 0.06998778 -0.038886096 6.170594e-05 -0.004881736
-0.0055058654 0.017505743 0.004597236 0.0056905355 -0.32966033 0.010414559 0.0062572984 -0.0021341685
-0.029494762 -0.007486844 0.024306897 -0.021684349 0.02316659 0.044590075 0.0072618728 -0.006341358
0.03956872 -0.0094180135 -0.0052419542 -0.0028176873 0.18927705 -0.008136947 -0.34430152 -0.006619102
-0.014926244 0.008046199 0.0039718775 -0.016710553 0.027100088 -0.0064177127 -0.0013059507 0.0077046463
0.00012399258 -0.0032104226 -0.0897807 -0.0062380345 -0.0004790386 0.21647522 -0.0037814376 0.0030692832
0.045251384 -0.0048713367 -0.2521769 0.017047845 -0.019649323 -0.0167704 0.007872139 0.17293349
-0.013179072 0.0036205994 -0.001464518 -0.00072124344 0.0072257477 0.2625903 0.040478427 0.0021643948
-0.001846152 -0.048341785 -0.008120177 0.017948298 0.005662722 0.088874646 0.0010321904 -0.0029930703
0.0030176034 0.048483323 0.058668993 0.015690487 -0.26871538 -0.057345428 0.0012222703 -0.00393665
-0.011541554 -0.003594148 -0.009940129 0.011530741 -0.0056027304 -0.025680255 0.061270244 0.018863885
-0.035046194 -0.002865047 -0.008671822 -0.0013629127 0.09370682 0.022997057 -0.3306291 -0.00028094734
-0.016455706 0.05717531 0.0026303702 -0.0029362068 -0.007646831 -0.050401762 -0.0033625187 -0.0001752608
-0.004919103 0.0963217 -0.014334965 0.007000165 -0.019754305 0.18443538 -0.011563286 -0.009622036
0.053318944 -0.0051502716 -0.3257892 -0.015241933 -0.0024395962 0.024122342 -0.018283792 0.29775786
0.033593062 -0.0067697526 0.0020077308 -0.015333129 0.066251636 0.44566268 0.01634394 -0.0067648105
7.3464864e-05 0.044031467 -0.015237188 0.03239145 0.011874706 -0.0029775093 0.00945012 -0.002231434
0.0010922363 -0.02477824 -0.0070877173 0.005244133 -0.4585258 -0.012198372 0.012312906 0.0035307566
0.027264398 -0.015651785 -0.02658628 0.009144004 -0.005578304 0.021935932 0.0339852 0.009078302
0.024734832 -0.0039414885 -0.007069191 0.0011121839 0.16757187 -0.002509999 -0.30103183 -0.0023275884
-0.0023619232 0.007432679 0.0014200332 -0.034117784 -0.027311182 0.0056914845 -5.0547766e-05 0.007050715
0.0071409526 0.09749192 0.0010695979 -0.0030888515 -0.0023990106 0.14660871 -0.017464522 -0.010484303
-0.09551415 -0.0017952973 -0.15458694 -0.033293817 0.018728916 0.0668674 -0.045835 0.14488222
0.050727163 -0.005008893 0.01943482 -0.013458982 0.112812035 0.28249195 -0.010317202 -0.03681384
-0.0075569707 -0.022580009 0.0052496283 -0.014645091 0.09070823 0.013689988 0.0037370005 0.0038496235
0.00410491 -0.0838203 -0.07351113 -0.0072677066 -0.29694405 0.03810744 0.01937265 0.015889
0.090661734 -0.023013191 0.042289417 -0.005102785 0.0031130395 0.037474826 -0.004115366 0.001972165
0.033375226 -0.0062826658 0.0026734194 0.006907268 0.19941373 0.006234863 -0.28250438 -0.00300339
-0.019583315 -0.08340581 0.005562354 0.00043867828 -0.08336035 0.062384848 0.0055444343 0.009051792
0.016237272 0.04287214 -0.027684696 -0.007456378 0.0006139318 0.14833046 -0.008460366 0.0026177054

bias f4 [10]
00000000: 7cf5 863e edf8 873e 0ddd 233f 1ad4 923e
00000010: fb5d c63e 2bc4 ff3e 0a22 843e 409d 303f
00000020: fb5e 193f bffc 353f
0.26359165 0.26557103 0.6400917 0.28677446 0.38743576 0.49954352 0.2580722 0.68989944
0.59910554 0.71088785
