infer_models/RNet.pth (torch, 424165 bytes, 14 tensors)

weight f4 [28, 3, 3, 3]
-0.25255522 -0.14323288 -0.083297305 0.11682221 0.12956916 0.019299693 0.019916201 0.032017127
0.046010938 -0.2385758 -0.23172858 -0.10272407 0.15577658 0.0036875189 0.06041557 0.1867455
0.12914851 0.13272956 -0.57379997 -0.48257816 -0.36648148 0.091331616 0.0063188835 0.06798095
0.3842397 0.31609794 0.5216163 -0.12773675 0.11679167 0.33568084 -0.0646124 -0.42055455
-0.26043126 0.26030466 0.24348389 0.044235013 -0.1259941 0.0506233 0.44196457 -0.13254224
-0.4880849 -0.40980622 0.2822203 0.19313583 -0.00023683431 -0.04917307 0.07135704 0.39678252
-0.00467382 -0.4971324 -0.3972329 0.29139015 0.19350782 -0.00592912 -0.13400853 -0.25237265
-0.16957319 0.092325725 0.100414895 -0.12794167 0.0054688663 0.30800235 0.020608261 -0.13400757
-0.14994219 -0.1607319 0.16710284 0.19259456 -0.03952818 0.02735307 0.300243 0.114930965
-0.04088452 -0.23761107 -0.42834914 0.23652539 0.14448278 -0.26151186 0.14282472 0.28560802
-0.0068336106 0.10114249 0.21601191 0.19489975 -0.2486019 -0.08900292 0.020470235 -0.026295356
-0.15608619 -0.13460857 0.1925615 0.23907198 0.18869539 -0.36211 0.007979103 0.28187144
-0.13461958 -0.29329932 -0.12840492 0.3824769 0.4306071 0.34303617 -0.25607744 -0.054425254
0.16037661 -0.40183705 -0.3309552 -0.28142992 -0.0747238 -0.04813922 0.09456329 0.1331185
-0.1861492 0.0238062 0.2838133 -0.14701837 -0.1763253 -0.07714678 -0.013754408 0.1366326
0.1402717 -0.16011581 0.112378344 0.26040766 -0.12123718 -0.11354647 -0.21660976 -0.05035988
0.24400117 -0.013016275 -0.20589565 0.20347604 0.11707224 -0.1598665 -0.0068350197 0.3426033
0.22898544 0.14052324 0.1429582 0.18097202 0.16793783 0.12808181 0.10732568 0.011541587
-0.1732614 -0.31372568 -0.24305776 -0.44243485 -0.4421929 -0.44959822 -0.37184492 -0.41196153
-0.4236106 -0.032865334 0.05288312 0.056885123 0.11855882 0.30512586 0.3746715 0.17851536
0.3096799 0.28147414 0.11271803 0.13534792 0.17599611 0.12219774 0.17123431 0.13093781
0.07163947 0.052668374 0.07748304 0.27215484 0.27424264 0.24915269 0.27985063 0.18755522
0.24882066 0.2484255 0.2276768 0.2300126 -0.3417255 -0.4279192 -0.35478213 -0.34523594
-0.35266966 -0.32232338 -0.3002557 -0.2815638 -0.27249017 0.083606966 0.05798553 -0.038674913
-0.17539105 0.09112553 0.07873525 0.107915275 -0.18848325 -0.06593459 0.12914088 0.102174856
-0.01680565 -0.1510024 0.06767451 0.04748432 0.095424965 -0.22609164 -0.12482884 -0.0697019
-0.06980946 -0.12849933 -0.2114914 0.09274788 0.10338596 0.23700981 -0.013349393 0.15842806
0.39744872 0.22295457 -0.15151796 -0.30371955 -0.422955 -0.12847406 0.019748349 0.25154477
0.153362 0.41632012 0.21132901 -0.023510082 -0.34439296 -0.4608055 -0.13607973 -0.038327303
0.061439652 0.24012056 0.28260508 0.10725533 0.009184791 -0.34093198 -0.48738825 -0.07052027
0.052551128 0.21194191 0.25684488 0.11536548 0.29190373 -0.19463299 0.029684678 0.2203803
-0.13004236 -0.06946744 0.014199368 -0.16717051 0.10376062 0.25437915 -0.22211285 0.041311994
00000000: eb4e 81be a4ab 12be c797 aabd 7c40 ef3d
00000010: c7ad 043e 641a 9e3c 4d27 a33c 6424 033d
00000020: f775 3c3d 374d 74be 424a 6dbe ff60 d2bd
00000030: e583 1f3e 4daa 713b 5176 773d 363a 3f3e
00000040: 823f 043e 42ea 073e 8ee4 12bf 7c14 f7be
00000050: 76a3 bbbe 120c bb3d a30e cf3b 9939 8b3d
00000060: 11bb c43e 97d7 a13e a588 053f 6ccd 02be
00000070: 7930 ef3d 5cde ab3e 8253 84bd ed52 d7be
00000080: 3f57 85be a746 853e d753 793e c62f 353d
00000090: 9904 01be 615a 4f3d 2e49 e23e 27b9 07be
000000a0: 44e6 f9be 1fd2 d1be 2e7f 903e 66c5 453e
000000b0: ba56 78b9 b369 49bd a423 923d 1427 cb3e
000000c0: d826 99bb 2388 febe 1c62 cbbe 1731 953e
000000d0: ea26 463e 1049 c2bb 8839 09be fd36 81be
000000e0: 98a4 2dbe 4515 bd3d 53a6 cd3d 2403 03be
000000f0: 2d34 b33b 7cb2 9d3e a8d2 a83c 4839 09be
00000100: 728a 19be e796 24be 021d 2b3e 8237 453e
00000110: 4de8 21bd 8c13 e03c 73b9 993e ed60 eb3d
00000120: 8776 27bd 5150 73be 9450 dbbe b633 723e
00000130: 4bf3 133e e2e4 85be a540 123e 373b 923e
00000140: 7bec dfbb cb23 cf3d 3a32 5d3e cd93 473e
00000150: 7f91 7ebe 2a47 b6bd 32b1 a73c 5c69 d7bc
00000160: 0fd5 1fbe d4d6 09be d82e 453e 49cf 743e
00000170: 5d39 413e 7b66 b9be c9ba 023c 7451 903e
00000180: b7d9 09be 542b 96be 947c 03be 03d4 c33e
00000190: 8978 dc3e 70a2 af3e 951c 83be 04ed 5ebd
000001a0: c439 243e 96bd cdbe f672 a9be 9517 90be
000001b0: cb08 99bd a12d 45bd 66aa c13d 3750 083e
000001c0: e59d 3ebe 3805 c33c fa4f 913e fc8b 16be
000001d0: 9f8e 34be 22ff 9dbd 2b5a 61bc 6be9 0b3e
000001e0: 62a3 0f3e 66f5 23be 9e26 e63d 2754 853e
000001f0: 334b f8bd 0d8b e8bd f3ce 5dbe 2946 4ebd
00000200: 71db 793e 3742 55bc 4fd6 52be 065c 503e
00000210: 92c3 ef3d 0bb4 23be 4df8 dfbb b369 af3e
00000220: 297b 6a3e 53e5 0f3e a263 123e bb50 393e
00000230: e5f7 2b3e e127 033e 91cd db3d ed18 3d3c
00000240: 706b 31be a7a0 a0be 22e4 78be d286 e2be
00000250: 1c67 e2be bd31 e6be 7562 bebe 9fec d2be
00000260: 7de3 d8be cd9d 06bd f89b 583d 6000 693d
00000270: f7ce f23d 7539 9c3e f1d4 bf3e bbcc 363e
00000280: 5d8e 9e3e 611d 903e b6d8 e63d a598 0a3e
00000290: 5338 343e cf42 fa3d 0c58 2f3e 9014 063e
000002a0: b7b7 923d cbba 573d 6eaf 9e3d e157 8b3e
000002b0: 8869 8c3e e221 7f3e 9548 8f3e 7a0e 403e
000002c0: d8ca 7e3e 4163 7e3e 1b24 693e 6c88 6b3e
000002d0: a5f6 aebe 3a18 dbbe 01a6 b5be c4c2 b0be
000002e0: 1e91 b4be 9207 a5be 1dbb 99be 2129 90be
000002f0: d583 8bbe 213a ab3d 3c82 6d3d 9669 1ebd
00000300: b699 33be 06a0 ba3d f23f a13d af02 dd3d
00000310: c101 41be b708 87bd 823d 043e 0d41 d13d
00000320: 01ac 89bc 60a0 1abe ef98 8a3d eb7e 423d
00000330: 2a6e c33d 9184 67be 43a6 ffbd dfbf 8ebd
00000340: 43f8 8ebd 5495 03be 3491 58be 9af2 bd3d
00000350: 05bc d33d b3b2 723e 6ab7 5abc f73a 223e
00000360: 667e cb3e 344e 643e 8627 1bbe 2181 9bbe
00000370: 8f8d d8be b48e 03be 4ac7 a13c 7aca 803e
00000380: ee0a 1d3e e927 d53e a266 583e 3798 c0bc
00000390: 4654 b0be b3ee ebbe 7c58 0bbe 17fd 1cbd
000003a0: 25a8 7b3d 2ae2 753e 9db1 903e afa8 db3d
000003b0: ce7b 163c a38e aebe f48a f9be ee6c 90bd
000003c0: da3f 573d 4d07 593e 2c81 833e bd44 ec3d
000003d0: 6874 953e df4d 47be 482d f33c 60ab 613e
000003e0: d329 05be f244 8ebd 77a4 683c bf2e 2bbe
000003f0: 7380 d43d fc3d 823e 8d71 63be c436 293d

bias f4 [28]
0.025909666 -0.045698047 -0.34043136 -0.074618764 -0.053094797 -0.31954515 0.84441257 -0.05055052
-0.044235528 -0.18040565 -0.06641563 -0.21660392 -0.072356604 -0.17893168 -0.052544992 -0.23122713
-0.0043652845 -0.06022828 -0.059078738 -0.22822498 -0.1854512 -0.020519143 0.03876821 -0.012201809
-0.045785777 -0.021450954 -0.07668958 -0.03730693
00000000: 8240 d43c e02d 3bbd 054d aebe b9d1 98bd
00000010: ee79 59bd 6c9b a3be 6c2b 583f 100e 4fbd
00000020: 5030 35bd 42bc 38be eb04 88bd 6bcd 5dbe
00000030: b32f 94bd de39 37be 6b39 57bd cec6 6cbe
00000040: a90a 8fbb eeb1 76bd 8cfc 71bd cfb3 69be
00000050: ebe6 3dbe c317 a8bc 6acb 1e3d 19ea 47bc
00000060: de89 3bbd e9b9 afbc 6d0f 9dbd 27cf 18bd

weight f4 [48, 28, 3, 3]
-0.033639614 -0.15923005 0.02182205 -0.08090544 -0.078157485 -0.029862884 -0.029137868 -0.024353512
-0.02483954 0.040813122 0.03462545 0.09123044 -0.045264482 -0.0742659 -0.0082153 -0.054580186
0.04971076 -0.00290143 -0.08418969 -0.08304221 0.10110861 -0.051019378 -0.044244308 0.04090539
-0.005077643 -0.00909594 0.035458744 -0.04614556 -0.012381284 0.044145513 -0.04742544 -0.048467923
-0.024130471 -0.0038394963 -0.024115378 0.08008249 0.00728879 -0.023269063 -0.036091596 -0.01964326
-0.058785785 -0.029881971 -0.024588019 -0.006660162 -0.027576817 0.00041947156 0.00054216717 0.032607008
-0.002225466 -0.017909124 -0.016597053 -0.012473719 -0.037339352 -0.043950103 0.034824084 -0.06079653
0.06258109 0.017082773 -0.07090933 0.029970353 0.013871892 -0.02932295 0.017517885 -0.041844796
-0.011572863 -0.022955786 -0.057826385 -0.017969588 -0.05432992 -0.084913015 -0.07116184 -0.06647014
-0.02134173 0.061371222 0.02226527 -0.08574199 -0.008212144 -0.01451804 0.011010916 0.008738076
-0.014348467 -0.04666706 0.058131956 0.070160046 -0.025066486 0.009031142 -0.023254449 -0.010420929
-0.0061337473 -0.020258678 0.048791617 0.040329434 0.045102715 -0.01596549 -0.035995476 -0.006342344
0.03139678 0.000700602 0.061788823 0.010165519 0.014037674 0.042675152 -0.058749747 -0.012444268
-0.04521164 -0.011811642 -0.030729035 -0.02364571 -0.07666459 0.055228274 0.03756276 -0.015273951
0.03279095 -0.07278592 0.0147385225 -0.021443462 0.0033883688 -0.03826154 -0.017612772 -0.028263157
-0.04519961 -0.017166425 -0.046158046 0.014208743 -0.04754764 -0.09070524 0.09720884 -0.018258365
0.0085453335 -0.002619072 -0.05528779 -0.019654522 -0.08390353 -0.0074817664 -0.034656372 -0.009682554
-0.030602379 -0.01915863 -0.1422622 -0.038615163 -0.028853862 -0.14420761 -0.013010703 -0.024862595
-0.00054253364 -0.0013683395 -0.0019929523 -0.00083811226 -0.0007410832 -0.0014984304 -0.0018962488 -0.0011686427
-0.0003940385 0.07736649 -0.018104648 -0.007341938 0.025748212 -0.0108345905 -0.021114096 0.0066883015
-0.011587081 -0.03218344 0.0020343985 -0.044963993 0.027471703 -0.067650825 0.02850639 -0.017412327
-0.019928118 -0.04461348 -0.018906265 -0.031681865 -0.07757818 0.009057044 -0.02883174 -0.02408245
-0.019724037 0.004287171 0.006345074 0.009536753 0.22411315 -0.11953181 -0.062478628 0.054989144
-0.06283423 -0.10532405 0.044043917 -0.008422191 -0.055186465 -0.01868862 0.08909209 0.23612113
-0.020815069 -0.015900124 0.05423374 0.014952929 0.09176215 -0.0007356531 -0.020631436 -0.035989545
-0.048461985 -0.02790616 -0.025131768 -0.05464125 -0.01978173 -0.017060935 -0.03477278 -0.0044298335
-0.0048363623 -0.0027687533 -0.0044273804 -0.0041917684 -0.0032441951 -0.0042445087 -0.0048415572 -0.0041574384
-0.04608182 -0.06191194 0.13814637 -0.050197568 -0.059206024 -0.039815426 -0.01568195 0.01218607
-0.0513853 0.34037772 -0.014716219 -0.028946197 0.04978865 0.038411483 -0.02070528 0.026271207
0.1072682 -0.020473948 -0.048516326 0.00248387 0.10246547 -0.0364354 -0.027998026 0.01094793
0.012574284 0.020567412 0.026106702 0.027775638 0.030183896 0.089646846 -0.035039615 -0.055391077
-0.0032757178 -0.0529077 -0.026715023 -0.036841705 -0.18487033 -0.14130813 -0.09700657 -0.08115308
00000000: b1c9 09bd 340d 23be 28c4 b23c c0b1 a5bd
00000010: 0811 a0bd 02a3 f4bc 8ab2 eebc 0481 c7bc
00000020: 4a7c cbbc a92b 273d 6ad3 0d3d 06d7 ba3d
00000030: 4067 39bd b818 98bd 7799 06bc 798f 5fbd
00000040: 839d 4b3d eb25 3ebb a56b acbd 0912 aabd
00000050: 0812 cf3d b2f9 50bd 8539 35bd 698c 273d
00000060: 5b62 a6bb 2307 15bc 303d 113d 2003 3dbd
00000070: deda 4abc edd1 343d 2e41 42bd 4d86 46bd
00000080: 44ad c5bc 0fa0 7bbb 9d8d c5bc 4a02 a43d
00000090: cdd6 ee3b c39e bebc c8d4 13bd e7ea a0bc
000000a0: 5dc9 70bd 09cb f4bc d06c c9bc 7d3d dabb
000000b0: c7e8 e1bc 85ec db39 3920 0e3a ed8e 053d
000000c0: 20d9 11bb 28b6 92bc 8bf6 87bc 925e 4cbc
000000d0: 26f1 18bd 0605 34bd b3a3 0e3d c805 79bd
000000e0: 842a 803d 2cf1 8b3c e938 91bd 6384 f53c
000000f0: ef46 633c af36 f0bc ab81 8f3c 7365 2bbd
00000100: 1b9c 3dbc c60d bcbc 5cdb 6cbd f534 93bc
00000110: 0d89 5ebd e0e6 adbd 4cbd 91bd 7f21 88bd
00000120: dad4 aebc 6460 7b3d a865 b63c 7f99 afbd
00000130: 3a8c 06bc 13dd 6dbc 2167 343c 262a 0f3c
00000140: d515 6bbc f625 3fbd c61b 6e3d 12b0 8f3d
00000150: 3b58 cdbc 5bf7 133c 1d80 bebc 8bbc 2abc
00000160: 9afd c8bb 87f5 a5bc b8d9 473d 7a30 253d
00000170: a0bd 383d 0fca 82bc fe6f 13bd 70d3 cfbb
00000180: e999 003d 9ba8 373a 4716 7d3d 478d 263c
00000190: 46fe 653c 24cc 2e3d 93a3 70bd 0be3 4bbc
000001a0: d72f 39bd 9e85 41bc 75bb fbbc a6b4 c1bc
000001b0: 5302 9dbd 0b37 623d 69db 193d 983f 7abc
000001c0: ce4f 063d c910 95bd d879 713c 33aa afbc
000001d0: 650f 5e3b 22b8 1cbd a948 90bc 2388 e7bc
000001e0: 3a23 39bd 9aa0 8cbc 3810 3dbd cacb 683c
000001f0: 50c1 42bd abc3 b9bd 6e15 c73d 9192 95bc
00000200: ba01 0c3c bda4 2bbb 7375 62bd 8502 a1bc
00000210: 9dd5 abbd 9b29 f5bb d7f3 0dbd 93a3 1ebc
00000220: d7b1 fabc 8ff2 9cbc 2fad 11be ef2a 1ebd
00000230: ef5e ecbc 29ab 13be d82a 55bc a4ac cbbc
00000240: d138 0eba db59 b3ba 319c 02bb c3b4 5bba
00000250: 4045 42ba fb66 c4ba 8d8b f8ba 242d 99ba
00000260: f496 ceb9 5372 9e3d 3350 94bc a494 f0bb
00000270: eaed d23c 9183 31bc 78f7 acbc 8a29 db3b
00000280: bdd7 3dbc c8d2 03bd 8b53 053b 2a2c 38bd
00000290: 560c e13c 848c 8abd 3c86 e93c 4ca4 8ebc
000002a0: 4b40 a3bc a0bc 36bd 50e1 9abc d8c4 01bd
000002b0: 4fe1 9ebd ff63 143c 8b30 ecbc 8f48 c5bc
000002c0: 4e94 a1bc 667b 8c3b 57ea cf3b 0b40 1c3c
000002d0: eb7d 653e 18cd f4bd 97e9 7fbd 4c3c 613d
000002e0: 3caf 80bd 23b4 d7bd 6567 343d 3bfd 09bc
000002f0: 340b 62bd e018 99bc ea75 b63d bdc9 713e
00000300: 5d84 aabc fa40 82bc 3324 5e3d 21fd 743c
00000310: cbed bb3d d8d8 40ba 4203 a9bc c669 13bd
00000320: 1380 46bd 769b e4bc 23e1 cdbc 81cf 5fbd
00000330: 4b0d a2bc 60c3 8bbc e76d 0ebd 2328 91bb
00000340: 597a 9ebb f973 35bb 8f13 91bb 1a5b 89bb
00000350: 909c 54bb 8515 8bbb eda5 9ebb 1f3b 88bb
00000360: 4ac0 3cbd 6097 7dbd 3e76 0d3e f79b 4dbd
00000370: 0482 72bd 8015 23bd 6f77 80bc 15a8 473c
00000380: 6479 52bd fd45 ae3e 4c1c 71bc 9320 edbc
00000390: 2fef 4b3d 5c55 1d3d 1f9e a9bc b736 d73c
000003a0: 6eaf db3d fbb8 a7bc 0eb9 46bd 6cc8 223b
000003b0: 6bd9 d13d 493d 15bd 1e5c e5bc f25e 333c
000003c0: 5f04 4e3c fd7c a83c b9dd d53c bc89 e33c
000003d0: 3844 f73c c498 b73d b385 0fbd c1e1 62bd
000003e0: 6dad 56bb bfb5 58bd 77d9 dabc 54e7 16bd
000003f0: a64e 3dbe 14b3 10be 61ab c6bd 9633 a6bd

bias f4 [48]
-0.28394127 -0.17178762 -0.03102006 -0.09500398 0.0034132095 -0.12515959 -0.1237818 0.031136919
-0.09137798 -0.23630472 -0.13677117 0.06818518 -0.27498406 -0.026299153 -0.052231863 -0.23837739
-0.101667345 -0.16444075 -0.38412791 -0.020569686 -0.1718722 -0.06725681 -0.033736784 -0.16358785
-0.4203338 0.07088041 -0.0075257625 -0.06940657 -0.21176124 -0.09351985 -0.08721608 -0.08989782
-0.17774531 -0.10841827 -0.41096666 0.017190797 -0.12279028 0.0033871275 -0.2610779 -0.031082759
-0.32480347 0.10736653 0.039148573 0.23780394 -0.025755828 0.03406738 -0.06870992 0.29834467
00000000: c060 91be 18e9 2fbe c81d febc 7291 c2bd
00000010: 27b0 5f3b d629 00be 5081 fdbd da12 ff3c
00000020: 6124 bbbd ddf9 71be be0d 0cbe aca4 8b3d
00000030: b6ca 8cbe 5271 d7bc 14f1 55bd 3419 74be
00000040: f836 d0bd 2863 28be 6aac c4be c281 a8bc
00000050: 44ff 2fbe f0bd 89bd 952f 0abd 9383 27be
00000060: fe35 d7be c029 913d ac9a f6bb 0825 8ebd
00000070: f0d7 58be 5687 bfbd 589e b2bd 591c b8bd
00000080: de02 36be 660a debd 396a d2be b7d3 8c3c
00000090: 7879 fbbd 92fa 5d3b 01ac 85be 45a1 febc
000000a0: a44c a6be fce2 db3d 415a 203d e082 733e
000000b0: e3fd d2bc 3d8a 0b3d c9b7 8cbd a2c0 983e

weight f4 [64, 48, 2, 2]
-0.0056125014 0.09510644 0.035169896 0.019115847 0.0628887 0.02360022 -0.03154457 -0.12986317
0.13073055 -0.04019514 0.033604905 -0.051556043 -0.031841498 0.05258199 -0.1513069 0.243347
0.015165801 -0.25045487 0.006429575 0.08228276 -0.021005178 -0.010591434 -0.010324084 -0.022339413
-0.04499265 0.30335885 -0.10820163 0.17985913 0.011276998 -0.14333107 0.0077411523 -0.031611864
0.12474743 -0.07206963 0.062464636 -0.180586 -0.04334119 -0.04978123 -0.02573732 -0.084370494
0.0032909263 -0.06341416 0.0021212762 -0.09539184 -0.07484837 -0.13900946 0.067674115 -0.012143746
0.011011703 -0.029058175 -0.026190622 0.012343169 0.022087535 -0.051746402 -0.027764888 -0.048750553
0.2214887 -0.10939424 0.15833339 0.13251361 0.024655974 -0.122444645 0.0005542469 0.015774768
0.0948837 0.09243561 -0.08267679 -0.05230599 -0.011988529 -0.035354264 -0.06943116 -0.02173688
-0.005014228 -0.0750823 0.066722326 -0.02961595 -0.07730304 -0.14020462 -0.005387234 0.0026489526
0.058120932 -0.010658991 0.058416855 0.04164214 -0.08354051 -0.064999804 -0.032335598 0.032142688
0.0109380195 -0.17957598 -0.012466832 -0.11271941 0.08642735 -0.06262614 -0.09389036 0.023887936
-0.027982514 0.040490426 0.018749699 -0.11032577 -0.026922043 0.23988396 -0.14546585 0.021757564
-0.09051504 -0.11594165 0.04612785 0.026903573 0.07456589 -0.18642186 0.055057544 -0.047845844
-0.077888325 0.19678055 -0.20052326 0.17024015 0.032931622 -0.06438803 0.062117938 -0.13336271
-0.020718206 -0.046727195 0.03812162 0.0612881 -0.19324514 0.1657086 -0.0676543 -0.019415183
-0.09471963 -0.12760419 0.04723217 0.084888 -0.13038109 -0.034634918 -0.025956368 0.05351982
-0.08257149 0.056787245 -0.15522708 -4.6034915e-05 0.14536165 -0.024360146 -0.030316757 -0.13729005
-0.005952529 0.23899977 -0.21274455 -0.11671061 0.13541852 -0.21018371 0.09345123 -0.036065985
-0.09629631 -0.063628726 0.0322381 0.03107372 -0.008434364 -0.020923926 -0.090859644 -0.084182
-0.0034156772 -0.19312026 0.082089365 -0.05014046 0.18162945 -0.035496764 -0.004802873 0.012746589
0.029916607 0.04937461 0.11814382 0.12742624 0.06892304 -0.1304518 0.08660986 -0.1319065
-0.065799326 0.016687654 -0.021856286 -0.07615493 0.09731515 0.06604863 0.09565986 0.06468427
-0.1107183 -0.031484272 0.04396647 0.0017117445 0.13407804 -0.09846633 0.06940103 -0.067443356
0.0352034 0.06483371 0.0461742 0.0048327656 -0.09770958 -0.02773521 0.014805465 -0.031893607
-0.059905604 -0.13477266 0.061573453 -0.042580117 -0.020784782 -0.03870692 0.2901477 -0.15707703
-0.12474689 -0.09126378 0.1632166 0.10012151 -0.040030375 -0.025932102 0.17496003 -0.051346637
0.06804408 0.066126995 0.14351456 0.034456123 0.08276959 0.057278268 0.00802284 -0.043290496
0.020817164 0.049142707 -0.06462003 -0.034510832 0.0643172 -0.041001268 0.008390372 -0.13930489
-0.12409743 -0.0889604 0.025465442 -0.07973936 -0.025859611 -0.043430164 -0.07392559 -0.05179061
-0.005081499 0.031491686 0.09351197 -0.11776986 -0.040380854 -0.08516876 -0.084264286 0.019939277
-0.16573925 0.030162834 0.014926747 0.09387751 -0.06682611 -0.038924098 -0.05308513 0.029136736
00000000: 13e9 b7bb 2ac7 c23d 4f0e 103d d698 9c3c
00000010: cacb 803d 4055 c13c e134 01bd dafa 04be
00000020: 3bde 053e a9a3 24bd 4ca5 093d 6e2c 53bd
00000030: 3b6c 02bd 3660 573d 32f0 1abe f52f 793e
00000040: fb79 783c 9f3b 80be 2faf d23b dd83 a83d
00000050: 0d13 acbc b287 2dbc 5926 29bc 2501 b7bc
00000060: 374a 38bd da51 9b3e d198 ddbd fe2c 383e
00000070: 28c3 383c 61c5 12be 7ea9 fd3b 717b 01bd
00000080: 957b ff3d 3e99 93bd ebda 7f3d 89eb 38be
00000090: 8886 31bd 67e7 4bbd 12d7 d2bc 70ca acbd
000000a0: 95ac 573b 48df 81bd 1c05 0b3b cc5c c3bd
000000b0: 1a4a 99bd 7f58 0ebe ba98 8a3d 90f6 46bc
000000c0: 6e6a 343c 690b eebc b78d d6bc 013b 4a3c
000000d0: ebf0 b43c 09f4 53bd 3173 e3bc a9ae 47bd
000000e0: efcd 623e 160a e0bd 2622 223e a6b1 073e
000000f0: 53fb c93c 42c4 fabd e14a 113a 163a 813c
00000100: 6352 c23d e24e bd3d 7352 a9bd ce3e 56bd
00000110: 896b 44bc a2cf 10bd ed31 8ebd 8b11 b2bc
00000120: 654e a4bb c0c4 99bd b7a5 883d 269d f2bc
00000130: 0e51 9ebd cd91 0fbe 6587 b0bb 0d9a 2d3b
00000140: 3710 6e3d 0ca3 2ebc 8346 6f3d f390 2a3d
00000150: 4917 abbd 9e1e 85bd 5572 04bd 0da8 033d
00000160: 6135 333c c4e2 37be af41 4cbc 6fd9 e6bd
00000170: d300 b13d 2242 80bd 9749 c0bd a2b0 c33c
00000180: 963b e5bc 4ad9 253d f898 993c 7af2 e1bd
00000190: 9e8b dcbc 24a4 753e 00f5 14be eb3c b23c
000001a0: f35f b9bd d172 edbd 8ef0 3c3d e264 dc3c
000001b0: 00b6 983d 5fe5 3ebe 0584 613d 01fa 43bd
000001c0: ea83 9fbd d780 493e f855 4dbe 6f53 2e3e
000001d0: 4fe3 063d dfdd 83bd 616f 7e3d 3c90 08be
000001e0: 3ab9 a9bc 0465 3fbd 6a25 1c3d 3b09 7b3d
000001f0: 0ee2 45be 84af 293e 568e 8abd 970c 9fbc
00000200: 5efc c1bd acaa 02be 8576 413d c2d9 ad3d
00000210: 9f82 05be 58dd 0dbd 73a2 d4bc 9937 5b3d
00000220: 3e1b a9bd be99 683d d9f3 1ebe 9d15 41b8
00000230: afd9 143e ee8e c7bc d95a f8bc c395 0cbe
00000240: 6f0d c3bb 5bbc 743e b5d9 59be f905 efbd
00000250: 27ab 0a3e 663a 57be 5c63 bf3d edb9 13bd
00000260: 0037 c5bd c74f 82bd 190c 043d 508e fe3c
00000270: 4930 0abc a768 abbc 9f14 babd 9d67 acbd
00000280: 8ed9 5fbb 51c1 45be 781e a83d 1560 4dbd
00000290: 12fd 393e 0e65 11bd 6b61 9dbb 12d7 503c
000002a0: ac13 f53c 083d 4a3d 63f5 f13d 067c 023e
000002b0: 8627 8d3d 2895 05be 8360 b13d 7f12 07be
000002c0: ccc1 86bd 8cb4 883c f40b b3bc 1ef7 9bbd
000002d0: 2a4d c73d 8144 873d 51e9 c33d 3079 843d
000002e0: 47c0 e2bd a7f5 00bd 2f16 343d 9d5c e03a
000002f0: c14b 093e b7a8 c9bd 2122 8e3d be1f 8abd
00000300: 7131 103d 89c7 843d 2821 3d3d 2d5c 9e3b
00000310: f61b c8bd f334 e3bc 9f92 723c dfa2 02bd
00000320: 945f 75bd d801 0abe 7234 7c3d 7d68 2ebd
00000330: d944 aabc 268b 1ebd 3d8e 943e cdd8 20be
00000340: 4c7b ffbd 81e8 babd 4122 273e 820c cd3d
00000350: e4f6 23bd 8f6f d4bc b928 333e da50 52bd
00000360: b25a 8b3d 976d 873d 7bf5 123e dd21 0d3d
00000370: 1a83 a93d 9e9c 6a3d 3b72 033c 6051 31bd
00000380: c288 aa3c dd49 493d 8257 84bd 3b5b 0dbd
00000390: bcb8 833d f2f0 27bd c577 093c f1a5 0ebe
000003a0: cb26 febd df30 b6bd e79c d03c 644e a3bd
000003b0: 89d7 d3bc d4e3 31bd 4d66 97bd 6422 54bd
000003c0: b482 a6bb 6dfd 003d 3483 bf3d 5331 f1bd
000003d0: 6566 25bd f56c aebd c192 acbd b257 a33c
000003e0: 8db7 29be 0c18 f73c 518f 743c da42 c03d
000003f0: 21dc 88bd e06e 1fbd cb6f 59bd 2ab0 ee3c

bias f4 [64]
-0.06665598 -0.053946573 0.10517492 -0.033594124 -0.17925753 0.18860517 -0.23934108 -0.2703558
-0.0030801918 0.32403588 0.17521147 0.21946885 -0.18011144 0.023820702 0.09790632 -0.11456121
0.15254122 0.09319312 -0.032766264 0.2596636 -0.060574815 -0.02383312 0.095927306 -0.09819147
-0.15982364 -0.030598952 -0.036106743 -0.041985784 0.055084847 0.31056055 0.30973616 0.10634671
-0.082976766 0.15361626 0.03951565 -0.14680637 0.13062091 -0.18757959 -0.103200756 -0.0047347345
0.11318699 0.19992693 0.18382886 -0.042354487 -0.09602019 0.21634409 -0.14551012 0.0016335204
-0.07181396 -0.063198105 0.19870293 -0.3356982 0.019111691 0.49480847 0.10206944 -0.03425737
0.22895339 0.307901 0.13971527 0.18729413 -0.0042981324 -0.0069403015 0.08639504 0.13601744
00000000: ee82 88bd 15f7 5cbd f365 d73d fe99 09bd
00000010: 498f 37be b721 413e d415 75be 136c 8abe
00000020: 0bdd 49bb 08e8 a53e a36a 333e 71bc 603e
00000030: 226f 38be a223 c33c 1c83 c83d 119f eabd
00000040: c433 1c3e 09dc be3d eb35 06bd a1f2 843e
00000050: 4c1d 78bd ad3d c3bc 8975 c43d 9c18 c9bd
00000060: cfa8 23be a7aa fabc aae4 13bd 49f9 2bbd
00000070: a6a0 613d cb01 9f3e bd95 9e3e 4ecc d93d
00000080: b9ef a9bd 954d 1d3e 2adb 213d 6954 16be
00000090: 7dc1 053e dd14 40be eb5a d3bd d525 9bbb
000000a0: 95ce e73d a5b9 4c3e a23d 3c3e e67b 2dbd
000000b0: 3ca6 c4bd 4e89 5d3e 9b00 15be d91b d63a
000000c0: 3313 93bd 026e 81bd c878 4b3e a2e0 abbe
000000d0: 1f90 9c3c 8957 fd3e c809 d13d 7551 0cbd
000000e0: c272 6a3e 33a5 9d3e 8511 0f3e 08ca 3f3e
000000f0: 59d7 8cbb 786b e3bb e2ef b03d 2848 0b3e

weight f4 [128, 576]
-4.1511772e-05 -3.277291e-05 2.4591931e-05 1.5341599e-05 -6.323132e-05 -2.9478157e-05 -4.8433412e-05 -6.597042e-05
-3.770714e-05 8.062178e-05 6.3225954e-05 6.149088e-05 3.24999e-05 -2.720335e-06 -3.9399506e-06 2.0761898e-05
5.0056344e-05 0.00012487057 -1.1998482e-05 -3.2751075e-05 -3.065079e-05 -1.533798e-05 1.4993502e-05 7.398632e-06
1.0285774e-05 4.3972603e-05 6.631027e-05 3.3872213e-05 0.0001659912 -1.4079014e-05 2.7262558e-05 2.1967897e-05
-2.0451245e-05 -3.7407951e-06 3.4547732e-06 6.6531034e-06 2.8859158e-06 5.6652687e-05 7.610202e-05 7.5478914e-05
6.858551e-05 7.727183e-05 9.38247e-05 0.00011982254 5.0615137e-05 4.3868982e-05 5.0270006e-05 2.7552473e-05
5.5262743e-05 5.285609e-05 4.4132812e-05 3.8767306e-05 5.4876377e-06 -1.9555116e-06 0.000104524726 -7.310911e-06
2.7936218e-05 0.00011076756 3.8103644e-05 1.4309732e-05 6.0047216e-05 3.684446e-05 4.90817e-05 2.0197494e-05
7.2807748e-06 6.3208296e-05 2.8108554e-05 5.5646274e-07 7.18539e-05 -5.6918184e-06 -1.3108423e-06 5.0533832e-05
-3.404012e-05 -2.7336424e-05 -2.9706043e-05 -7.82496e-07 -1.4195621e-05 1.0159064e-05 2.0049652e-05 -3.4691766e-07
-1.6229731e-05 2.7956026e-05 -2.560833e-05 5.4138844e-05 -4.9244947e-05 -1.0672002e-05 2.0495878e-05 -5.751625e-05
-5.3984433e-05 -9.917047e-06 6.895966e-05 8.069562e-06 -6.0411254e-05 0.00014690205 0.00010251219 6.3003616e-05
0.0001913961 0.00016177213 9.362153e-05 -3.238475e-07 2.1784821e-05 4.098156e-05 -1.0341484e-05 -1.7665721e-05
-1.3905938e-05 -8.0339014e-05 -5.744246e-05 3.296534e-06 1.1830282e-05 1.474561e-05 -6.350568e-05 4.5244957e-05
4.7130532e-05 -1.6198723e-05 6.404025e-05 6.830419e-05 -2.847843e-06 1.5683941e-05 4.7240574e-05 3.5866993e-05
-2.7806466e-06 7.427627e-05 5.9021644e-05 1.1638118e-05 4.2973275e-05 6.935496e-05 7.631275e-05 0.00010484746
3.1423086e-05 2.179418e-05 4.9751896e-05 4.4611985e-05 3.68891e-05 4.9161787e-05 8.730291e-05 5.9119462e-05
-1.01209525e-05 1.5573083e-05 7.289644e-05 3.1183612e-05 5.1471725e-05 3.7783648e-05 5.7508514e-05 3.8038885e-05
-1.1429647e-05 -1.312762e-05 -1.6845748e-05 5.7777356e-06 3.811098e-05 5.3902928e-05 5.260862e-05 4.366972e-05
3.0839117e-05 -1.3755524e-06 1.259259e-05 4.8164016e-05 3.74236e-05 1.3313086e-05 2.180225e-06 6.406407e-05
5.9416383e-05 7.224489e-05 3.974368e-05 3.110055e-05 9.135743e-06 1.3117259e-05 -1.431478e-05 3.2868204e-05
2.2650987e-05 2.2968186e-05 4.392238e-05 4.3411845e-05 0.0001333395 4.371141e-05 2.9276838e-05 3.799119e-05
6.0350426e-06 8.197957e-05 2.2855787e-05 -1.4526162e-05 6.0075505e-05 2.4341043e-05 6.577333e-06 3.630795e-05
5.2934127e-05 5.9578993e-05 6.556501e-05 5.9051137e-05 5.5525e-05 0.00010336836 6.285677e-05 4.4686203e-05
9.100245e-05 9.562403e-05 5.648093e-05 6.1609135e-05 6.237714e-05 -2.709624e-06 -2.5598667e-06 1.3552397e-05
1.7653461e-05 3.901331e-05 7.215972e-05 2.3772858e-05 4.7188205e-05 1.705357e-05 3.712976e-05 2.4875524e-05
-2.5614498e-05 3.6023093e-06 2.02941e-05 4.4514916e-05 2.3557448e-05 1.2097332e-05 6.4905886e-05 6.387157e-05
2.8413979e-05 -3.6349826e-05 -3.2982723e-06 6.516604e-05 -4.286876e-06 3.8808997e-05 0.00012124797 4.1177125e-05
3.2229378e-05 -1.0745928e-05 2.563379e-05 -2.6835229e-05 1.8952423e-06 -9.887302e-07 -2.369399e-05 3.254426e-06
6.0475622e-06 8.92195e-06 1.2818209e-05 4.4845992e-06 4.1482176e-06 5.0393857e-05 1.9994712e-05 7.0090437e-06
1.7555862e-05 5.960852e-05 2.9801391e-05 -6.6501616e-06 -1.747245e-05 1.8006642e-05 5.6472286e-06 1.5033222e-05
1.545411e-05 7.185142e-06 4.90481e-05 1.8774514e-05 9.116804e-05 6.671019e-05 4.820969e-05 7.388867e-05
00000000: ed1c 2eb8 a575 09b8 c54a ce37 d5b1 8037
00000010: 0e9b 84b8 dc47 f7b7 fb24 4bb8 9959 8ab8
00000020: bc27 1eb8 7d13 a938 2d98 8438 aaf4 8038
00000030: 8050 0838 008f 36b6 eb33 84b6 d629 ae37
00000040: 97f3 5138 b0ef 0239 164d 49b7 335e 09b8
00000050: 098f 00b8 10aa 80b7 9a8c 7b37 c441 f836
00000060: 1091 2c37 396f 3838 0e10 8b38 0312 0e38
00000070: ec0d 2e39 e834 6cb7 e6b1 e437 b347 b837
00000080: b78e abb7 5f0a 7bb6 8dd8 6736 b93d df36
00000090: a8ab 4136 5c9e 6d38 f698 9f38 6f4a 9e38
000000a0: 91d5 8f38 ff0c a238 c1c3 c438 3c49 fb38
000000b0: 974b 5438 f6ff 3738 02d9 5238 7c20 e737
000000c0: ebc9 6738 cbb1 5d38 3f1b 3938 149a 2238
000000d0: 7322 b836 6f3b 03b6 4934 db38 3f50 f5b6
000000e0: 9258 ea37 e24b e838 7ad1 1f38 d513 7037
000000f0: 35db 7b38 7089 1a38 13dd 4d38 ca6d a937
00000100: 614d f436 b28e 8438 a9ca eb37 d45f 1535
00000110: 45b0 9638 59fc beb6 33f0 afb5 4af4 5338
00000120: 4dc6 0eb8 8650 e5b7 3e31 f9b7 b70c 52b5
00000130: ba29 6eb7 d970 2a37 4d30 a837 0040 bab4
00000140: 1525 88b7 1c83 ea37 78d1 d6b7 2413 6338
00000150: 5c8c 4eb8 e60b 33b7 90ee ab37 9a3d 71b8
00000160: 586d 62b8 6461 26b7 709e 9038 8162 0737
00000170: 1762 7db8 b809 1a39 d0fb d638 cf20 8438
00000180: 80b1 4839 60a1 2939 ad56 c438 43dd adb4
00000190: 8cbe b637 9de3 2b38 5680 2db7 d930 94b7
000001a0: 8d4d 69b7 ae7b a8b8 5fee 70b8 063a 5d36
000001b0: ad7a 4637 ea63 7737 5a2e 85b8 67c5 3d38
000001c0: 06ae 4538 7ee2 87b7 594d 8638 883e 8f38
000001d0: 921d 3fb6 0291 8337 2e24 4638 e46f 1638
000001e0: 259b 3ab6 c5c4 9b38 028e 7738 5641 4337
000001f0: 343e 3438 a972 9138 180a a038 8de1 db38
00000200: 48cc 0338 a5d2 b637 b1ac 5038 c11d 3b38
00000210: 5fb9 1a38 1133 4e38 6516 b738 0af7 7738
00000220: 29cd 29b7 f1a2 8237 fadf 9838 26cb 0238
00000230: 58e3 5738 e279 1e38 4c35 7138 f18b 1f38
00000240: f6c1 3fb7 b33e 5cb7 f84f 8db7 5fde c136
00000250: 5ad9 1f38 d415 6238 13a8 5c38 012a 3738
00000260: 4059 0138 9f9f b8b5 c344 5337 b803 4a38
00000270: 49f7 1c38 455b 5f37 fb4f 1236 235a 8638
00000280: db35 7938 2e82 9738 74b2 2638 f671 0238
00000290: b845 1937 3312 5c37 8329 70b7 f7db 0938
000002a0: a002 be37 ceab c037 4c39 3838 1d15 3638
000002b0: 0dd1 0b39 c556 3738 8897 f537 bb58 1f38
000002c0: 9f80 ca36 72ec ab38 6eba bf37 64b5 73b7
000002d0: 95f9 7b38 fe2f cc37 dcb2 dc36 5d49 1838
000002e0: 9605 5e38 75e4 7938 f27f 8938 adad 7738
000002f0: 84e3 6838 77c7 d838 f9d1 8338 726d 3b38
00000300: 91d8 be38 c389 c838 f0e5 6c38 2734 8138
00000310: 79d0 8238 fcd6 35b6 2dca 2bb6 1a5f 6337
00000320: 8516 9437 39a2 2338 7454 9738 d36b c737
00000330: f3eb 4538 430e 8f37 c7bb 1b38 c8ab d037
00000340: b7de d6b7 34bf 7136 3f3d aa37 87b5 3a38
00000350: 3c9d c537 a5f5 4a37 151e 8838 caf2 8538
00000360: 8e5a ee37 5476 18b8 e357 5db6 c0a9 8838
00000370: fcd7 8fb6 d8c6 2238 8246 fe38 9ab5 2c38
00000380: 082e 0738 6949 34b7 2508 d737 371c e1b7
00000390: 0860 fe35 83b4 84b5 75c2 c6b7 9d66 5a36
000003a0: 2aec ca36 7caf 1537 ca0d 5737 6a7a 9636
000003b0: eb30 8b36 fe5d 5338 51ba a737 3a2f eb36
000003c0: ed44 9337 2904 7a38 00fe f937 7424 dfb6
000003d0: cd91 92b7 f80c 9737 537d bd36 3237 7c37
000003e0: 73a3 8137 e617 f136 ffb8 4d38 f67d 9d37
000003f0: 7831 bf38 c3e6 8b38 c334 4a38 adf4 9a38

bias f4 [128]
7.088002e-05 3.6979087e-05 8.315703e-05 -0.01841403 0.000110764224 -0.00019642965 -9.653385e-05 0.00019276045
0.00013121594 0.00012685522 -0.08102192 3.192827e-05 -0.00010685899 9.531076e-05 -0.00016470464 -5.7110474e-06
-0.00026637013 -0.0001878236 3.7353602e-05 -0.00012987592 0.02110615 0.0001219074 -0.00020571961 0.00022236351
0.00012829751 0.000107846776 -6.61967e-05 -8.011507e-05 -9.868511e-05 -0.00013744981 4.8424754e-05 0.00013100034
0.00026050533 -0.00013557354 -5.819983e-05 0.0001943928 -0.00012623907 -0.0001230166 0.00010511942 8.707286e-05
8.44531e-05 -0.00012891242 0.00023629132 -2.9546656e-05 0.00026788068 0.08343314 -6.9559384e-05 0.00013439145
-3.0555777e-05 0.0001048837 0.00024085127 -1.627945e-05 3.885718e-05 -4.2458698e-05 0.08244768 -0.00012781328
-0.0001777242 -9.4664596e-05 0.00014940806 -0.00020767504 2.9180017e-06 -0.23311423 -0.00011106359 -0.00018869688
6.105614e-06 0.00018819368 -0.00022584274 0.042932585 7.966335e-05 -0.0001241302 -0.000106873515 0.24328297
6.356121e-05 0.00015622925 0.00012303225 -0.00014177486 -9.4502075e-06 6.655226e-05 0.00010119935 0.00012176767
6.804529e-05 -0.00014389139 -0.00026270744 0.0002496911 4.4138003e-05 0.00025789998 -6.561102e-05 -0.00012275075
-0.00013013236 0.007511673 -0.00020854607 -0.01994252 -0.00012927267 0.3106243 -0.00027829944 0.00013140118
-0.00025909816 5.0814164e-05 -7.977682e-05 -0.1877034 -8.601899e-05 0.00020807402 -4.9850943e-05 -0.00010632071
0.00011312519 9.395196e-05 5.1200437e-05 -0.00010211212 -3.3379503e-05 1.5475705e-05 0.03441429 7.372558e-05
-0.00012746842 9.799661e-05 0.00019563439 -4.985933e-05 -3.6005087e-05 -1.2170558e-05 -0.00022385645 -2.9776816e-06
0.022327181 5.582253e-05 0.0001152686 0.00019024307 0.00019458264 -9.451813e-05 -0.00017814797 -4.481588e-05
00000000: 6ca5 9438 fe19 1b38 9764 ae38 05d9 96bc
00000010: 174a e838 aff8 4db9 3772 cab8 bd1f 4a39
00000020: 0397 0939 7004 0539 d2ee a5bd b8ea 0538
00000030: 7c19 e0b8 93e1 c738 91b4 2cb9 86a1 bfb6
00000040: 98a7 8bb9 84f2 44b9 20ac 1c38 4d2f 08b9
00000050: cee6 ac3c 89a8 ff38 70b6 57b9 402a 6939
00000060: 9a87 0639 cc2b e238 15d3 8ab8 7303 a8b8
00000070: 2af5 ceb8 6720 10b9 af1b 4b38 235d 0939
00000080: 6f94 8839 bf28 0eb9 971b 74b8 ebd5 4b39
00000090: 0b5f 04b9 04fe 00b9 8f73 dc38 e39a b638
000000a0: 6a1c b138 aa2c 07b9 f8c4 7739 f6da f7b7
000000b0: 5672 8c39 fede aa3d 69e0 91b8 6eeb 0c39
000000c0: 0429 00b8 02f5 db38 058d 7c39 da8f 88b7
000000d0: 94fa 2238 ae15 32b8 54da a83d 9e05 06b9
000000e0: 7a5b 3ab9 ab86 c6b8 6caa 1c39 58c3 59b9
000000f0: e3d2 4336 7fb5 6ebe d0ea e8b8 efdc 45b9
00000100: d3de cc36 db55 4539 33d0 6cb9 14da 2f3d
00000110: ef10 a738 f228 02b9 4821 e0b8 2c1f 793e
00000120: 2a4c 8538 78d1 2339 3802 0139 66a9 14b9
00000130: 558c 1eb7 f991 8b38 fd3a d438 855d ff38
00000140: 89b3 8e38 8de1 16b9 ffbb 89b9 f9e8 8239
00000150: d220 3938 c036 8739 a698 89b8 a7b6 00b9
00000160: 2474 08b9 7b24 f63b 29ad 5ab9 7f5e a3bc
00000170: 5e8d 07b9 260a 9f3e b8e8 91b9 bcc8 0939
00000180: 91d7 87b9 4b21 5538 db4d a7b8 5235 40be
00000190: 1865 b4b8 722e 5a39 0b17 51b8 7ff8 deb8
000001a0: a03d ed38 1308 c538 0dc0 5638 0725 d6b8
000001b0: f800 0cb8 d3d1 8137 00f6 0c3d 1f9d 9a38
000001c0: 0ba9 05b9 8883 cd38 3523 4d39 0c20 51b8
000001d0: 2b04 17b8 2630 4cb7 02bb 6ab9 2ed4 47b6
000001e0: 7ee7 b63c fc22 6a38 5cbc f138 fc7b 4739
000001f0: e108 4c39 0938 c6b8 3bcd 3ab9 aff8 3bb8

weight f4 [2, 128]
1.52195125e-05 -2.969598e-05 -3.0220193e-05 -0.057062298 -2.3619348e-06 -5.7014017e-06 3.3441334e-05 5.6881534e-05
-9.490069e-06 -3.034637e-05 -0.01819836 -3.795745e-05 7.5983244e-06 3.0581582e-06 1.914324e-05 -3.4526417e-06
-1.11299105e-05 -5.816174e-06 3.1013173e-05 3.3873326e-05 -0.04643382 -2.3287766e-05 -3.0741157e-05 6.16011e-05
-1.3412956e-05 -4.6816203e-05 1.7453998e-05 1.50146625e-05 1.6120783e-05 4.069784e-05 -6.486242e-05 -4.6181317e-06
-3.484718e-05 1.565788e-05 1.2963395e-05 2.8236047e-05 3.1740274e-06 5.6670096e-06 -9.680495e-05 1.1626859e-05
-6.0807346e-05 4.539274e-05 3.1695236e-05 -7.1663335e-06 4.232397e-05 0.07883625 9.900647e-06 -5.2215655e-06
-2.1105216e-05 -3.7344565e-05 5.2611842e-05 -2.3605586e-05 2.8352477e-05 8.786949e-05 0.011173097 3.48044e-05
7.833932e-06 1.7845292e-05 1.4022046e-05 -4.6010027e-05 3.731733e-05 -1.4949439 1.7857721e-05 -6.6663306e-05
-1.9549147e-05 -2.7696462e-05 -3.6717247e-05 0.010061295 -4.4756875e-05 2.0238911e-05 4.2003943e-05 1.5542434
-4.965777e-06 -3.4864584e-05 -3.5817808e-05 3.8686143e-05 -2.6149573e-05 7.226959e-06 -4.650101e-05 -2.9285471e-05
-5.8624147e-07 -8.2422855e-05 -3.949374e-05 1.4946257e-05 -2.3843584e-05 3.8287286e-05 -2.2840057e-05 4.3505832e-05
3.9281244e-06 -0.028291985 -6.356619e-06 -0.0018242034 3.2480537e-05 0.03028592 -3.880246e-05 -2.4717017e-05
-3.6427693e-05 2.2479291e-05 5.1722764e-06 -1.6637118 -7.4778354e-06 -1.2325067e-05 1.25460565e-05 3.0224399e-05
-4.1593612e-05 -7.60703e-05 -6.7944944e-05 1.6440647e-05 -2.6284039e-05 -3.507767e-05 -0.15226828 -4.1090825e-05
4.1125622e-05 1.0838458e-05 3.8649425e-05 1.9496872e-05 1.968842e-05 -2.5367756e-06 -4.0649e-05 2.6763055e-07
0.004940716 -2.9412731e-05 -4.325481e-05 -0.00046796445 -2.0289584e-05 3.937512e-05 -4.269523e-05 1.8888748e-05
-1.5238366e-05 2.965936e-05 3.017855e-05 0.05705724 2.3357984e-06 5.721523e-06 -3.3457007e-05 -5.687741e-05
9.481524e-06 3.0345325e-05 0.0181955 3.795726e-05 -7.5657513e-06 -3.0792276e-06 -1.9141527e-05 3.4586046e-06
1.1137105e-05 5.8352007e-06 -3.102594e-05 -3.387164e-05 0.04643744 2.3284807e-05 3.073162e-05 -6.160215e-05
1.340632e-05 4.681623e-05 -1.7449884e-05 -1.4972801e-05 -1.608386e-05 -4.069737e-05 6.486576e-05 4.603609e-06
3.4826233e-05 -1.5653251e-05 -1.29269865e-05 -2.8241157e-05 -3.1529967e-06 -5.6444983e-06 9.6817836e-05 -1.1644971e-05
6.0761326e-05 -4.5402143e-05 -3.171192e-05 7.172137e-06 -4.2332296e-05 -0.07882685 -9.865406e-06 5.2030637e-06
2.1116939e-05 3.7342663e-05 -5.2624222e-05 2.3613211e-05 -2.8365856e-05 -8.79008e-05 -0.0111726085 -3.4801596e-05
-7.852123e-06 -1.7809736e-05 -1.4007987e-05 4.601505e-05 -3.73364e-05 1.4932374 -1.7851284e-05 6.6661516e-05
1.9556719e-05 2.7717777e-05 3.672396e-05 -0.010061535 4.4752214e-05 -2.0260373e-05 -4.2003052e-05 -1.5540516
4.960595e-06 3.486445e-05 3.5816094e-05 -3.8686456e-05 2.6160555e-05 -7.251272e-06 4.650195e-05 2.9278746e-05
5.608625e-07 8.244751e-05 3.9501097e-05 -1.4960578e-05 2.3810404e-05 -3.8293903e-05 2.2852899e-05 -4.3504402e-05
-3.9168153e-06 0.028437926 6.376304e-06 0.0018215064 -3.2479966e-05 -0.028241498 3.8812606e-05 2.473816e-05
3.6433856e-05 -2.2493894e-05 -5.130582e-06 1.6635091 7.520568e-06 1.2313168e-05 -1.25404895e-05 -3.0223173e-05
4.159248e-05 7.602906e-05 6.795957e-05 -1.6436732e-05 2.6293026e-05 3.5078676e-05 0.15254617 4.108983e-05
-4.1125888e-05 -1.0852322e-05 -3.8641945e-05 -1.9454696e-05 -1.9658077e-05 2.5415357e-06 4.0656163e-05 -2.327348e-07
-0.0049395724 2.9406587e-05 4.3255124e-05 0.00046758473 2.0296213e-05 -3.93943e-05 4.27008e-05 -1.8886361e-05
00000000: 4f57 7f37 a21b f9b7 5f81 fdb7 28ba 69bd
00000010: bb81 1eb6 ab4e bfb6 5c43 0c38 1594 6e38
00000020: 8937 1fb7 5590 feb7 ba14 95bc 8034 1fb8
00000030: 1cf5 fe36 c23a 4d36 cb95 a037 efb3 67b6
00000040: 9aba 3ab7 8e28 c3b6 2414 0238 3513 0e38
00000050: 6431 3ebd 195a c3b7 11f0 00b8 d72f 8138
00000060: 3508 61b7 845c 44b8 2d6a 9237 7ce7 7b37
00000070: 1e3b 8737 f9b2 2a38 bf06 88b8 73f5 9ab6
00000080: e028 12b8 0b59 8337 5c7d 5937 73dc ec37
00000090: 6001 5536 3e27 be36 c303 cbb8 fb10 4337
000000a0: 640b 7fb8 1564 3e38 80f0 0438 5676 f0b6
000000b0: 0485 3138 e674 a13d f41a 2637 e834 afb6
000000c0: 1b0b b1b7 6ca2 1cb8 89ab 5c38 9c04 c6b7
000000d0: 7bd6 ed37 9346 b838 5e0f 373c f1fa 1138
000000e0: 7b6e 0337 79b2 9537 3b40 6b37 e4fa 40b8
000000f0: 2e85 1c38 525a bfbf 2acd 9537 97cd 8bb8
00000100: 79fd a3b7 b355 e8b7 d800 1ab8 21d8 243c
00000110: 54b9 3bb8 bbc6 a937 642d 3038 73f1 c63f
00000120: b39f a6b6 903b 12b8 143b 16b8 ee42 2238
00000130: c85b dbb7 1b7f f236 140a 43b8 12aa f5b7
00000140: 355e 1db5 6fda acb8 15a6 25b8 afc1 7a37
00000150: b503 c8b7 a996 2038 a698 bfb7 087a 3638
00000160: 55ce 8336 98c4 e7bc f14a d5b6 1c1a efba
00000170: b63b 0838 2d1a f83c d3bf 22b8 6457 cfb7
00000180: f0c9 18b8 e991 bc37 848d ad36 82f4 d4bf
00000190: 1eea fab6 c2c7 4eb7 e77c 5237 678a fd37
000001a0: cd74 2eb8 ee87 9fb8 aa7d 8eb8 05ea 8937
000001b0: 8b7c dcb7 5d20 13b8 37ec 1bbe f058 2cb8
000001c0: 4d7e 2c38 d3d6 3537 811b 2238 378d a337
000001d0: 8f28 a537 793d 2ab6 887e 2ab8 ddae 8f34
000001e0: bbe5 a13b 5cbb f6b7 806c 35b8 2059 f5b9
000001f0: 8d33 aab7 b726 2538 a713 33b8 4773 9e37
00000200: 49a8 7fb7 fecc f837 f127 fd37 dab4 693d
00000210: b6c0 1c36 82fb bf36 3054 0cb8 a78f 6eb8
00000220: d612 1f37 178e fe37 bb0e 953c 4c34 1f38
00000230: 4fdd fdb6 baa4 4eb6 1e92 a0b7 601a 6836
00000240: 80d9 3a37 fecb c336 d921 02b8 6611 0eb8
00000250: 2f35 3e3d be53 c337 d3e5 0038 6730 81b8
00000260: b5eb 6037 8b5c 4438 5761 92b7 b133 7bb7
00000270: d4eb 86b7 78b2 2ab8 8a08 8838 b378 9a36
00000280: 6212 1238 1a4f 83b7 fce0 58b7 6ce7 ecb7
00000290: 1298 53b6 df65 bdb6 ae0a cb38 c55e 43b7
000002a0: fad9 7e38 2e6e 3eb8 6a02 05b8 30a8 f036
000002b0: f58d 31b8 f96f a1bd 9983 25b7 fa95 ae36
000002c0: 4824 b137 61a0 1c38 d4b8 5cb8 fc14 c637
000002d0: 36f3 edb7 6257 b8b8 510d 37bc eef7 11b8
000002e0: 9dbc 03b7 1e66 95b7 d903 6bb7 4900 4138
000002f0: a799 1cb8 6722 bf3f 57bf 95b7 a1cc 8b38
00000300: bc0d a437 7983 e837 0d08 1a38 23d9 24bc
00000310: 53b4 3b38 d2f4 a9b7 6f2c 30b8 2aeb c6bf
00000320: 3073 a636 6b3b 1238 3d39 1638 4443 22b8
00000330: 5d73 db37 f44f f3b6 170b 4338 a19b f537
00000340: 2d8e 1635 abe7 ac38 fbad 2538 31ff 7ab7
00000350: 74bc c737 c49d 20b8 3ab4 bf37 7f78 36b8
00000360: 306d 83b6 a7f6 e83c 09f4 d536 9dbf ee3a
00000370: 193b 08b8 b75a e7bc b8ca 2238 cb84 cf37
00000380: 8ed0 1838 45b1 bcb7 5d27 acb6 deed d43f
00000390: 3059 fc36 a794 4e37 fe64 52b7 c587 fdb7
000003a0: 9673 2e38 ca71 9f38 8485 8e38 9de1 89b7
000003b0: d88f dc37 7121 1338 1035 1c3e de57 2c38
000003c0: 967e 2cb8 5e12 36b7 7913 22b8 a432 a3b7
000003d0: 66e7 a4b7 408f 2a36 3986 2a38 a8e5 79b4
000003e0: 23dc a1bb 2aae f637 d66c 3538 2926 f539
000003f0: c941 aa37 4f3b 25b8 a319 3338 276e 9eb7

bias f4 [2]
0.13053818 -0.120719284
00000000: cdab 053e ac3b f7bd

weight f4 [4, 128]
4.729584e-06 0.00014253672 0.00042928863 0.031400684 0.00016250055 -0.00019144216 -0.00010650782 -3.0130914e-05
3.8534305e-05 6.924952e-05 0.1608743 9.854008e-06 -0.00029990874 0.00012081833 0.0003303632 2.6586e-05
1.5385513e-05 -0.00020203552 -5.369895e-05 -7.853507e-05 -0.22580895 4.2517473e-05 4.12823e-05 -6.30703e-05
3.9690716e-05 0.00012351312 -1.4804421e-05 -0.00035856542 -0.00039817402 -9.787451e-05 0.00019815132 6.010961e-05
7.390502e-05 -4.8582533e-05 -0.0001613843 -0.00024642592 -0.00014684029 -0.00010987573 7.4561074e-05 2.1354228e-05
0.00037156 -9.133292e-05 5.1594518e-05 2.4315179e-05 -1.7099697e-05 -0.08915527 -0.0002381969 0.000103636135
4.269217e-05 8.09625e-05 -6.636313e-05 5.3279382e-05 -5.1261093e-05 -8.328823e-05 -0.10665767 -8.962287e-05
-8.5749156e-07 0.00016015308 4.091777e-05 -1.857472e-05 -0.00026434637 0.15017802 -4.6329038e-05 2.9427913e-05
7.5390635e-05 9.172371e-06 0.00018602118 0.0012166903 6.685622e-05 -7.570353e-06 -9.835966e-05 0.38254473
-2.86962e-06 0.00011065839 7.656651e-05 -9.855809e-05 5.6665456e-05 0.00010908581 0.00011964888 7.976189e-05
0.0002569924 -0.0003952238 1.3861427e-05 5.051438e-05 0.00011856232 -1.8882083e-05 3.5366123e-05 -0.00011262857
-4.4706794e-05 0.06466688 -0.0001714789 -0.0413658 -8.0515114e-05 0.05697945 7.257053e-05 -7.737679e-06
2.5520238e-05 -3.3568744e-05 -0.00043099833 0.24694274 -0.00046411032 0.0001540602 -2.3633704e-06 -5.308293e-05
9.99927e-05 9.803726e-05 0.000113048336 -2.4878847e-05 4.9574504e-05 -5.635847e-06 0.11071984 5.7417656e-05
-9.168195e-05 7.80237e-06 -3.224234e-05 -0.0002799393 -1.3081532e-05 3.28825e-05 -5.8511587e-06 5.3308786e-06
0.032265864 1.5422453e-05 0.000109619425 -0.0016726189 2.6663372e-05 -8.8287336e-05 0.00019007888 -1.1609165e-05
9.648641e-05 0.0002092263 0.00039163476 -0.020940162 0.00020944932 -0.00022331695 3.9522714e-05 -0.000111370304
9.520593e-06 1.5099226e-05 0.11836135 -3.8647533e-05 -0.00031615593 0.00018593592 9.2915674e-05 6.6722685e-05
3.852494e-05 -0.00022923676 -3.6288726e-05 -1.7706338e-05 0.051748313 -1.6986947e-05 0.0001375076 -0.00011046971
9.131756e-07 5.120144e-05 1.2482231e-05 -0.0002982453 -0.0003981414 -3.0067533e-05 7.625589e-05 7.272981e-05
0.00025327943 -7.794887e-06 -0.0002337425 -9.337104e-05 -0.00019751662 -0.00014165089 -1.892559e-05 9.715725e-05
0.00041185418 6.972762e-05 8.177689e-05 6.86533e-05 -1.1580738e-06 -0.03493004 -0.00029449735 0.00013835564
4.2266613e-05 3.402159e-05 -3.619091e-05 6.659187e-05 -4.058285e-06 1.8559622e-05 -0.050783627 -3.9252365e-05
0.00015762643 -3.9196264e-05 -0.00011254496 5.6094206e-05 -5.907995e-05 0.41657603 -2.3740728e-05 0.0001049996
7.997363e-05 -0.00014920726 7.164234e-05 0.008219278 1.9206771e-05 0.00014790503 -4.36784e-05 0.114157915
-3.718382e-05 6.3986954e-05 1.1746232e-05 -3.755889e-05 5.3073225e-05 0.00020418093 5.0126782e-05 4.4394536e-05
0.00029238738 -0.00038893908 3.3656983e-05 8.699573e-05 0.00019835969 -5.4317174e-05 1.4379072e-05 -5.172683e-05
-4.274929e-05 0.083037615 -0.00019624319 0.009113287 -2.3797349e-05 0.19972742 1.5593949e-05 -0.0001561947
6.244058e-05 4.0502422e-05 -0.00034021868 -0.21877265 -0.0003941709 0.00021367079 4.043009e-05 2.2433943e-07
4.4210006e-05 0.0002501261 6.5231594e-05 2.4073077e-05 5.997883e-05 -4.6448542e-05 -0.2828544 1.7812212e-05
-1.9904808e-05 5.1579776e-05 -0.00012632548 -0.00027964404 -0.00012336252 6.8934176e-05 5.1785613e-05 -0.00010192218
0.006403816 -3.0714367e-05 4.9473427e-05 -0.00051233394 -0.00010690845 5.922542e-05 0.000108685395 2.78386e-05
00000000: d1b2 9e36 e975 1539 2512 e139 019e 003d
00000010: e964 2a39 ddbd 48b9 f35c dfb8 a5c1 fcb7
00000020: e59f 2138 0e3a 9138 3cbc 243e a452 2537
00000030: 123d 9db9 d95f fd38 9934 ad39 0005 df37
00000040: 2310 8137 7fd9 53b9 cf3a 61b8 32b3 a4b8
00000050: 763a 67be ca54 3238 8826 2d38 9c44 84b8
00000060: 9579 2638 4d83 0139 8160 78b7 d6fd bbb9
00000070: 03c2 d0b9 fa41 cdb8 d7c6 4f39 341e 7c38
00000080: 75fd 9a38 19c5 4bb8 4539 29b9 ba32 81b9
00000090: 24f9 19b9 156d e6b8 ac5d 9c38 db21 b337
000000a0: f0cd c239 fd89 bfb8 3167 5838 73f8 cb37
000000b0: 5271 8fb7 0a97 b6bd 7ec4 79b9 3a57 d938
000000c0: 5e10 3338 69ca a938 6f2c 8bb8 4d78 5f38
000000d0: 2e01 57b8 07ab aeb8 566f dabd e9f3 bbb8
000000e0: 5f2e 66b5 c4ee 2739 1f9f 2b38 e8d0 9bb7
000000f0: f897 8ab9 44c8 193e 6d51 42b8 f6db f637
00000100: 0a1b 9e38 09e3 1937 ae0e 4339 5a79 9f3a
00000110: 2935 8c38 d604 feb6 7146 ceb8 e7dc c33e
00000120: b293 40b6 4511 e838 5592 a038 f9b0 ceb8
00000130: 12ac 6d38 00c5 e438 01ec fa38 d745 a738
00000140: f0bc 8639 0a36 cfb9 608e 6837 67df 5338
00000150: a9a4 f838 f764 9eb7 1656 1438 0133 ecb8
00000160: 8e83 3bb8 1270 843d 04cf 33b9 2f6f 29bd
00000170: 39da a8b8 4963 693d 0231 9838 14d1 01b7
00000180: 4b14 d637 2acc 0cb8 9ef7 e1b9 8fde 7c3e
00000190: d553 f3b9 388b 2139 659a 1eb6 5da5 5eb8
000001a0: 2cb3 d138 5a99 cd38 5d14 ed38 ebb2 d0b7
000001b0: 38ee 4f38 8f1b bdb6 15c1 e23d bdd3 7038
000001c0: 5f45 c0b8 ede6 0237 f33b 07b8 d1c4 92b9
000001d0: c178 5bb7 51eb 0938 1255 c4b6 e6df b236
000001e0: 3629 043d 775f 8137 7be3 e538 c73b dbba
000001f0: 28ab df37 e726 b9b8 e94f 4739 fcc4 42b7
00000200: bf58 ca38 c263 5b39 5454 cd39 b48a abbc
00000210: a09f 5b39 302a 6ab9 31c5 2538 7a8f e9b8
00000220: a3ba 1f37 af52 7d37 6f67 f23d 7919 22b8
00000230: bbc1 a5b9 cbf7 4239 b9db c238 78ed 8b38
00000240: d795 2138 465f 70b9 b934 18b8 1288 94b7
00000250: 0af6 533d 317f 8eb7 ea2f 1039 f9ab e7b8
00000260: f320 7535 21c1 5638 c66a 5137 ce5d 9cb9
00000270: a2bd d0b9 8939 fcb7 92eb 9f38 8586 9838
00000280: 97ca 8439 c9c6 02b7 c618 75b9 32d0 c3b8
00000290: 771c 4fb9 1f88 14b9 65c2 9eb7 e7c0 cb38
000002a0: 22ee d739 bb3a 9238 a27f ab38 f6f9 8f38
000002b0: 1d6f 9bb5 cd12 0fbd c466 9ab9 8f13 1139
000002c0: 6e47 3138 67b2 0e38 b2cb 17b8 3da7 8b38
000002d0: 672c 88b6 7cb0 9b37 7e02 50bd e8a2 24b8
000002e0: 8648 2539 ab66 24b8 1e06 ecb8 b246 6b38
000002f0: 9dcc 77b8 7449 d53e d326 c7b7 3b33 dc38
00000300: 84b7 a738 8574 1cb9 b03e 9638 27aa 063c
00000310: 3a1e a137 f416 1b39 5333 37b8 a0cb e93d
00000320: d3f5 1bb8 bc30 8638 af11 4537 8d88 1db8
00000330: f19a 5e38 6719 5639 393f 5238 4534 3a38
00000340: 924b 9939 85ea cbb9 e92a 0d38 7a71 b638
00000350: c6fe 4f39 9fd2 63b8 a53d 7137 43f5 58b8
00000360: b34d 33b8 a00f aa3d a1c6 4db9 e54f 153c
00000370: 6ba0 c7b7 5885 4c3e c0cf 8237 32c8 23b9
00000380: 88f2 8238 25e1 2938 615f b2b9 f005 60be
00000390: b9a8 ceb9 d10c 6039 7b93 2938 f4e1 7034
000003a0: 226e 3938 5b23 8339 f2cc 8838 8af0 c937
000003b0: c791 7b38 bed1 42b8 4bd2 90be 6f6b 9537
000003c0: 40f9 a6b7 5d57 5838 3d76 04b9 309d 92b9
000003d0: e05a 01b9 c190 9038 6134 5938 0ebf d5b8
000003e0: 1ad7 d13b 4dd3 00b8 b081 4f38 264e 06ba
000003f0: 0934 e0b8 cf68 7838 07ee e338 f086 e937

bias f4 [4]
-0.024726138 -0.07062545 -0.065063916 -0.07420248
00000000: 788e cabc 13a4 90bd 3b40 85bd 78f7 97bd
