infer_models/RNet.pth (torch, 413448 bytes, 14 tensors)

weight f4 [28, 3, 3, 3]
-0.061817374 -0.077654526 -0.055512346 -0.0037140928 -0.0078481715 0.019765187 0.047963373 0.049256414
0.06290364 -0.033946518 -0.05009639 -0.01748186 0.0019902496 0.0020984274 0.032499876 0.017236339
0.025470013 0.028472787 0.108634956 0.08139086 0.089065135 0.04210467 0.0080646 0.018875659
-0.08242749 -0.11800917 -0.1382273 -0.10576859 -0.11199373 -0.08090201 0.3508866 0.34608522
0.112726904 -0.14457208 -0.17690358 -0.14013848 -0.31464747 -0.25766286 -0.13975492 0.2871706
0.3200959 0.12692003 -0.113804966 -0.11651893 0.0069238227 -0.3579563 -0.27995414 -0.10127746
0.339717 0.29647273 0.1901667 0.034452103 -0.019182187 0.006909038 0.107418545 -0.05494044
-0.18823402 -0.0546687 -0.36667553 0.24528483 -0.25607675 0.11655207 0.47338757 0.1982243
-0.017579656 -0.25897047 -0.002764223 -0.41244778 0.21443562 -0.15780407 0.1365097 0.35101497
0.3871744 0.058200352 -0.22678578 0.13390231 -0.3933657 0.11299447 -0.14427975 -0.070331484
0.13891453 0.12993987 0.10310083 0.1753635 0.04906223 0.19678074 0.14866488 -0.016130986
0.08310036 0.15105066 0.2640531 0.31669998 0.29457057 0.22005144 0.2059569 0.2457095
0.2005775 0.2539555 0.19921191 -0.3370249 -0.45722747 -0.38600224 -0.21737671 -0.35152903
-0.41962677 -0.19014436 -0.34023923 -0.3406456 0.046606153 -0.036683574 -0.06740592 0.064202674
0.0026865914 -0.04155937 0.0784193 -0.024741301 -0.0553408 0.03141207 -0.0237189 -0.03310986
0.03496003 0.012730977 0.005275558 0.03812587 -0.028898632 -0.01120538 -0.030031156 -0.0135898
0.05625618 -0.03884827 0.013835835 0.07798234 -0.060554646 -0.047672894 0.05063406 -0.20546684
-0.00019502315 0.31334975 0.17025258 -0.40870792 -0.05952595 0.33331528 0.0758861 -0.29268274
-0.28083128 -0.10129619 0.32145554 0.12191955 -0.44475877 0.003277275 0.38721967 0.13441598
-0.11705132 -0.15189648 0.05008522 0.38035628 0.11263962 -0.47915262 0.014730783 0.18374473
-0.05045736 -0.16982965 0.15584953 0.17300384 0.23463602 -0.2512009 0.031493686 0.13303687
-0.1541951 -0.19733611 -0.18540877 0.15776728 0.39839724 0.18768166 -0.33090395 -0.06349218
0.1884276 -0.2526225 -0.21612604 -0.13965806 0.3007086 0.3794108 0.27144918 -0.31813797
0.020832622 0.28345218 -0.30723506 -0.39698982 -0.21084154 -0.20693286 0.011796365 0.09337539
-0.10371675 0.2509975 -0.04952126 0.07012608 0.07225735 -0.09108784 -0.23074308 0.020740792
0.0812207 -0.099765606 0.26406154 -0.092677034 0.1222998 0.0671985 -0.18756682 -0.2375144
0.07403228 0.188554 -0.13553609 0.22682324 -0.08471091 0.065219335 0.037933197 -0.2437567
-0.22152637 0.056044318 0.045305453 -0.16673037 -0.027185386 0.18549484 -0.09464639 -0.0051684203
0.19756053 -0.29469606 0.098696284 0.26330638 -0.28384346 -0.06847691 0.2818837 -0.2730193
-0.03805481 0.211368 -0.4247289 0.15514392 0.3763972 -0.35772505 -0.021669475 0.31907028
-0.2702602 0.039072067 0.25789404 0.045482367 -0.116590396 -0.13337803 -0.18015397 -0.2925488
-0.2287378 -0.074091166 -0.12790675 -0.28210095 0.39614826 0.30621392 0.27870047 0.17812723
00000000: 3734 7dbd 5609 9fbd ea60 63bd 2368 73bb
00000010: 9e95 00bc 9aea a13c 3e75 443d 18c1 493d
00000020: a0d3 803d 810b 0bbd df31 4dbd 1e36 8fbc
00000030: d96e 023b c585 093b 971e 053d 3933 8d3c
00000040: 7da6 d03c c33f e93c 017c de3d 40b0 a63d
00000050: c867 b63d f275 2c3d 6221 043c 20a1 9a3c
00000060: becf a8bd cbae f1bd 758b 0dbe 349d d8bd
00000070: f85c e5bd f4af a5bd 69a7 b33e 1532 b13e
00000080: 5ddd e63d b40a 14be 3626 35be 7680 0fbe
00000090: 7919 a1be 63ec 83be ea1b 0fbe 0608 933e
000000a0: 9ce3 a33e 53f7 013e 9412 e9bd 7aa1 eebd
000000b0: 3ce1 e23b 0c46 b7be 2656 8fbe 8f6a cfbd
000000c0: 63ef ad3e 46cb 973e 0fbb 423e a61d 0d3d
000000d0: f623 9dbc 3665 e23b 41fe db3d 3a09 61bd
000000e0: 6bc0 40be 49ec 5fbd e5bc bbbe f22b 7b3e
000000f0: 7e1c 83be dab2 ee3d db5f f23e 50fb 4a3e
00000100: 3603 90bc c797 84be f727 35bb 5b2c d3be
00000110: 0395 5b3e 6497 21be 33c9 0b3e 3cb8 b33e
00000120: b93b c63e 7e63 6e3d 883a 68be b01d 093e
00000130: 3b67 c9be a569 e73d 12be 13be f409 90bd
00000140: 9c3f 0e3e f50e 053e 8726 d33d 7d92 333e
00000150: 7af5 483d e480 493e 9b3b 183e 2125 84bc
00000160: 8630 aa3d 06ad 1a3e f831 873e 8026 a23e
00000170: f4d1 963e 2a55 613e 5ee6 523e 459b 7b3e
00000180: 3064 4d3e 7506 823e 35fe 4b3e 878e acbe
00000190: b819 eabe 16a2 c5be 0098 5ebe 9dfb b3be
000001a0: 52d9 d6be 34b5 42be d633 aebe 1a69 aebe
000001b0: 18e6 3e3d 8441 16bd 1d0c 8abd b17c 833d
000001c0: 8611 303b 283a 2abd 4c9a a03d 45ae cabc
000001d0: 09ad 62bd f1a9 003d 234e c2bc 349e 07bd
000001e0: 4032 0f3d 9695 503c 97de ac3b df29 1c3d
000001f0: d3bc ecbc c596 37bc e603 f6bc c1a7 5ebc
00000200: e16c 663d 5d1f 1fbd b3af 623c 34b5 9f3d
00000210: 2608 78bd a744 43bd a965 4f3d e665 52be
00000220: 217f 4cb9 616f a03e b156 2e3e 2a42 d1be
00000230: 7cd1 73bd 4da8 aa3e 2c6a 9b3d 83da 95be
00000240: 1ec9 8fbe 6074 cfbd d295 a43e f5b0 f93d
00000250: 6cb7 e3be 8dc7 563b a841 c63e 58a4 093e
00000260: 9ab8 efbd c08a 1bbe 2926 4d3d 0fbe c23e
00000270: 9aaf e63d 7e53 f5be 6259 713c 9427 3c3e
00000280: 60ac 4ebd d3e7 2dbe 0597 1f3e eb27 313e
00000290: 6d44 703e 689d 80be 86ff 003d d13a 083e
000002a0: 52e5 1dbe 7a12 4abe ccdb 3dbe bf8d 213e
000002b0: b9fa cb3e 9f2f 403e 3e6c a9be 3008 82bd
000002c0: 2af3 403e bc57 81be 2550 5dbe 8602 0fbe
000002d0: 7af6 993e 2242 c23e 63fb 8a3e fbe2 a2be
000002e0: 2da9 aa3c a520 913e ea4d 9dbe 4042 cbbe
000002f0: d8e6 57be 35e6 53be 8a45 413c 993b bf3d
00000300: 7369 d4bd bf82 803e ced6 4abd 439e 8f3d
00000310: a9fb 933d 438c babd ea47 6cbe 98e8 a93c
00000320: 0a57 a63d e951 ccbd 1333 873e 75cd bdbd
00000330: 5178 fa3d 5e9f 893d 8411 40be fa36 73be
00000340: 3c9e 973d 4d14 413e f9c9 0abe 5a44 683e
00000350: ea7c adbd b791 853d d75f 1b3d 5b9b 79be
00000360: cfd7 62be ba8e 653d 3692 393d 5ebb 2abe
00000370: e3b3 debc 5cf2 3d3e f7d5 c1bd da5b a9bb
00000380: 4f4d 4a3e 67e2 96be 4721 ca3d 18d0 863e
00000390: ee53 91be 9f3d 8cbd 0f53 903e 30c9 8bbe
000003a0: 5cdf 1bbd da70 583e 1176 d9be 0cde 1e3e
000003b0: 22b7 c03e bd27 b7be 2f84 b1bc 2e5d a33e
000003c0: 8c5f 8abe 080a 203d b00a 843e b84b 3a3d
000003d0: f2c6 eebd 4094 08be 487a 38be f5c8 95be
000003e0: 3e3a 6abe 1cbd 97bd fdf9 02be 896f 90be
000003f0: f2d3 ca3e 12c8 9c3e d4b1 8e3e fc66 363e

bias f4 [28]
-0.016437607 -0.08300037 -0.087349884 0.7532466 -0.028223349 -0.13095468 -0.106497474 -0.109201446
-0.07896427 0.10102938 -0.44956627 -0.08888138 -0.10729169 -0.006454948 -0.04172077 -0.09121302
-0.11203055 -0.055172276 -0.07308024 -0.05621718 -0.076607235 -0.06670359 -0.034714025 -0.05415694
-0.029149543 -0.09735617 -0.1418734 -0.13261145
00000000: 29a8 86bc 19fc a9bd 7fe4 b2bd c5d4 403f
00000010: a734 e7bc fc18 06be 591b dabd 02a5 dfbd
00000020: 05b8 a1bd 7ee8 ce3d 8d2d e6be 7107 b6bd
00000030: bfbb dbbd 0784 d3bb 66e3 2abd e4cd babd
00000040: 4670 e5bd 53fc 61bd 18ab 95bd fc43 66bd
00000050: 41e4 9cbd e49b 88bd 4b30 0ebd abd3 5dbd
00000060: 06cb eebc ac62 c7bd 4347 11be 4ccb 07be

weight f4 [48, 28, 3, 3]
0.018774942 0.013156509 0.011128721 -0.0072989576 -0.007195217 -0.013900274 0.0060749114 0.008267312
0.006916926 -0.011058836 -0.010737694 0.014057015 0.09389841 0.10930362 0.08010615 0.061743338
0.039415833 0.0013187018 -0.06922646 -0.02152159 -0.0005940515 -0.03680981 0.0044926135 0.019147102
-0.070593424 -0.029575724 0.0035822466 0.20128083 0.28844622 0.27303585 0.034333322 0.040724568
0.036428705 -0.20134388 -0.22622685 -0.22967353 -0.0066960445 -0.0049067675 -0.012155232 -0.010456215
-0.0025554383 -0.010704026 -0.00082570786 0.00059709523 -0.000104827064 0.044990607 -0.048190705 -0.0066808257
0.00016322591 -0.045503434 -0.04588446 -0.018810209 -0.04667576 -0.09331558 -0.01301482 -0.05663328
-0.024857128 0.04680801 -0.100756116 -0.010245391 -0.018384703 -0.039292216 0.0020960642 0.025791923
0.036569547 0.02831659 0.0019611104 0.028838873 0.011873029 -0.004264117 0.015587255 -0.030987246
0.21526474 0.17658533 0.025706524 0.018605059 -0.017281225 -0.016968064 -0.1259802 -0.0641737
-0.07386956 0.0868214 0.12771651 0.12539975 0.03385075 0.026026292 0.043537978 -0.0637785
-0.034647983 0.0061210995 -0.031762958 -0.047900457 -0.08613322 -0.016486593 -0.024916818 -0.061533988
0.04738702 0.029545909 -0.014082893 0.13214493 0.06842585 0.105586484 0.009873703 0.0028599584
0.06788516 -0.038150497 -0.006700972 0.026626393 -0.043780204 -0.04348883 -0.012794014 0.027530415
0.02361317 0.0129593 -0.01969754 -0.05668433 -0.04112081 0.0025249918 0.0011765872 0.00024168225
-0.0020114735 -0.0019481538 -0.0038524512 -0.0009973358 4.4365384e-05 -0.00027518652 -0.065975495 0.0067086024
-0.019572847 0.018948289 0.03523784 0.0019893607 -0.029362751 -0.021598483 -0.038586043 0.03961225
0.09135579 0.133687 -0.06736814 -0.00842698 -0.0358715 -0.12035433 -0.04179029 -0.14436932
-0.0305868 0.0090853935 0.07465717 -0.0018265 0.0012906605 0.072797276 0.054319527 0.0027787806
-0.08672241 0.07294757 0.012854804 0.029474728 -0.013945039 -0.0515039 0.0033187033 -0.045587435
-0.036943633 -0.05873153 0.029462624 -0.08621105 -0.0038932886 0.037285656 -0.018255003 -0.02332131
0.0018439362 -0.011261186 -0.006381915 -0.00616447 0.019388761 0.026601447 0.04448332 0.03165954
0.024707839 0.017284764 0.013271262 0.005407365 0.05580406 -0.02907174 0.08238341 0.11981247
-0.022776902 0.021829074 0.06243868 0.014916946 -0.052475784 0.08214152 0.086130224 0.027159588
-0.015077699 0.03560942 0.01615504 0.052984353 0.025849048 0.018813714 -0.043487836 0.03762531
0.06288175 0.052479673 0.062034912 0.08900332 -0.06070304 -0.075090855 -0.030318113 0.027019542
-0.009633766 -0.001333064 0.02781625 0.007370942 0.011378842 0.004537648 0.00027391812 0.0015308415
-0.03292911 -0.010369396 -0.017926043 -0.028491598 -0.02073683 -0.010562444 -0.018217087 -0.022368222
-0.01962207 0.055099163 0.0048289075 0.045944434 0.01551739 -0.05549031 0.008887083 -0.05843639
-0.0051229815 -0.052341405 -0.05513158 0.0025725167 -0.03999694 -0.018898573 -0.100974225 -0.039362762
-0.056546435 -0.025570078 -0.035710182 -0.022476045 0.050488308 0.035512526 0.05500473 0.071722075
0.05436308 0.05928505 0.05033438 0.021347402 -0.004021489 -0.0029300316 -0.006710012 -0.0145829525
00000000: e8cd 993c 668e 573c 3d55 363c 182c efbb
00000010: dbc5 ebbb fabd 63bc 0d10 c73b 9f73 073c
00000020: 61a7 e23b 1f30 35bc 27ed 2fbc 654f 663c
00000030: cf4d c03d 94da df3d b10e a43d 95e6 7c3d
00000040: 7f72 213d 4ad8 ac3a 9ac6 8dbd 0c4e b0bc
00000050: 1fba 1bba e2c5 16bd c636 933b 62da 9c3c
00000060: 4993 90bd ca48 f2bc 20c4 6a3b 901c 4e3e
00000070: 39af 933e 5bcb 8b3e 19a1 0c3d cece 263d
00000080: 4436 153d 172d 4ebe 03a8 67be 8a2f 6bbe
00000090: 7e6a dbbb f3c8 a0bb bd26 47bc 8b50 2bbc
000000a0: 2479 27bb f05f 2fbc 5174 58ba 6286 1c3a
000000b0: 9ad6 dbb8 1248 383d 9e63 45bd d4ea dabb
000000c0: 9f27 2b39 cf61 3abd 58f1 3bbd de17 9abc
000000d0: 152f 3fbd 3d1c bfbd 1d3c 55bc 4cf8 67bd
000000e0: 2da1 cbbc c2b9 3f3d 3959 cebd 49dc 27bc
000000f0: 849b 96bc e0f0 20bd 1f5e 093b 9549 d33c
00000100: f3c9 153d 31f8 e73c f985 003b 803f ec3c
00000110: 1887 423c 02ba 8bbb b061 7f3c f7d8 fdbc
00000120: 5c6e 5c3e c9d2 343e 7d96 d23c a369 983c
00000130: 5b91 8dbc 9c00 8bbc f400 01be 806d 83bd
00000140: ed48 97bd 6bcf b13d 1ec8 023e cb68 003e
00000150: 16a7 0a3d 1735 d53c e154 323d 4d9e 82bd
00000160: 0beb 0dbd 8193 c83b e019 02bd 4533 44bd
00000170: 9d66 b0bd e40e 87bc 5b1e ccbc 100b 7cbd
00000180: e418 423d 430a f23c efbb 66bc 0051 073e
00000190: da22 8c3d ba3d d83d 50c5 213c 246e 3b3b
000001a0: 6007 8b3d b243 1cbd d493 dbbb 981f da3c
000001b0: df52 33bd 5821 32bd fc9d 51bc 7787 e13c
000001c0: 6870 c13c 3e53 543c bc5c a1bc d42d 68bd
000001d0: 4b6e 28bd 557a 253b b737 9a3a 166c 7d39
000001e0: edd2 03bb 3259 ffba 6879 7cbb 09b9 82ba
000001f0: f814 3a38 e946 90b9 291e 87bd d6d3 db3b
00000200: 3c57 a0bc 7139 9b3c 8e55 103d ef5f 023b
00000210: 278a f0bc 4def b0bc 660c 1ebd 7440 223d
00000220: bf18 bb3d 3fe5 083e 4ff8 89bd 5111 0abc
00000230: feed 12bd 557c f6bd 4c2c 2bbd 8dd5 13be
00000240: 2b91 fabc e7da 143c dce5 983d 2c67 efba
00000250: 612b a93a bd16 953d 277e 5e3d 341c 363b
00000260: 859b b1bd 8965 953d f59c 523c fc74 f13c
00000270: bc79 64bc c1f5 52bd 9a7e 593b e4b9 3abd
00000280: 3552 17bd 7990 70bd 9a5b f13c 6b8f b0bd
00000290: 8b26 7fbb d8b8 183d 848b 95bc 550c bfbc
000002a0: 3bb0 f13a d680 38bc 621f d1bb 53ff c9bb
000002b0: 2ed5 9e3c 47eb d93c 2434 363d 6fad 013d
000002c0: 1868 ca3c c798 8d3c b56f 593c 4430 b13b
000002d0: cc92 643d dc27 eebc a2b8 a83d 3e60 f53d
000002e0: a096 babc e3d2 b23c b4bf 7f3d 3566 743c
000002f0: d9f0 56bd d039 a83d 0b65 b03d c97d de3c
00000300: 7408 77bc 2fdb 113d 9357 843c 1f06 593d
00000310: 62c1 d33c 381f 9a3c 4d20 32bd ff1c 1a3d
00000320: 26c8 803d edf4 563d 5218 7e3d 5f47 b63d
00000330: c0a3 78bd 3cc9 99bd b15d f8bc 1658 dd3c
00000340: f1d6 1dbc 35ba aeba e8de e33c f187 f13b
00000350: 536e 3a3c 8db0 943b ab9c 8f39 84a6 c83a
00000360: ade0 06bd 66e4 29bc a3d9 92bc 3667 e9bc
00000370: 49e0 a9bc 1a0e 2dbc 003c 95bc 903d b7bc
00000380: 77be a0bc a9af 613d d03b 9e3b 3b30 3c3d
00000390: a73c 7e3c cf49 63bd 219b 113c ff5a 6fbd
000003a0: afde a7bb f163 56bd a7d1 61bd ab97 283b
000003b0: d5d3 23bd 2ed1 9abc 93cb cebd d93a 21bd
000003c0: 3c9d 67bd 5778 d1bc d744 12bd af1f b8bc
000003d0: d4cc 4e3d 9575 113d a44c 613d 06e3 923d
000003e0: d2ab 5e3d e1d4 723d 6c2b 4e3d bfe0 ae3c
000003f0: b2c6 83bb c605 40bb a9df dbbb 56ed 6ebc

bias f4 [48]
-0.3204622 0.08684589 0.12209655 -0.021413649 -0.118187055 -0.042325303 -0.10147672 -0.2554481
-0.070380054 -0.11698709 -0.0007372831 0.16070245 -0.07488414 -0.067263566 -0.28328946 -0.58182555
0.32409483 -0.097225405 0.061246276 -0.01007408 -0.15197206 -0.09176582 0.13246317 -0.026228182
-0.1955055 0.040603697 -0.08923702 0.028537506 -0.089140855 0.0092902 -0.27661824 0.021388818
-0.008466226 -0.057552014 0.0009907752 -0.04990805 -0.11004624 -0.019822987 -0.12513308 -0.023133555
0.13078812 -0.08326236 -0.2869418 -0.37749287 -0.058353633 0.28176066 -0.05305507 -0.21264422
00000000: 9f13 a4be 42dc b13d c20d fa3d ad6b afbc
00000010: 0e0c f2bd 4c5d 2dbd 07d3 cfbd 18ca 82be
00000020: 6b23 90bd ed96 efbd 3b46 41ba 2f8f 243e
00000030: db5c 99bd 7bc1 89bd 510b 91be 85f2 14bf
00000040: c2ef a53e 1d1e c7bd 60dd 7a3d c10d 25bc
00000050: 909e 1bbe b8ef bbbd 6da4 073e 7cdc d6bc
00000060: 9832 48be 1050 263d e6c1 b6bd 7dc7 e93c
00000070: 7b8f b6bd ec35 183c e8a0 8dbe 9a37 af3c
00000080: edb5 0abc a9bb 6bbd e6dc 813a 626c 4cbd
00000090: ec5f e1bd d163 a2bc e322 00be 9582 bdbc
000000a0: 52ed 053e 7585 aabd 09ea 92be bf46 c1be
000000b0: 3804 6fbd ef42 903e 4650 59bd 68bf 59be

weight f4 [64, 48, 2, 2]
-0.026215006 -0.0027189145 -0.077800944 0.02899638 0.05712445 -0.14297819 0.08815967 0.021436103
-0.03826023 0.024282899 -0.049509536 0.009077764 -0.059611943 -0.0927045 0.07325926 -0.13814472
0.044525173 -0.053568013 0.026264163 -0.00865245 -0.027495246 -0.013143849 -0.03307307 -0.0567392
0.027332 -0.02163028 0.028213311 -0.07327783 -0.051213033 0.11667096 0.0009885551 0.056905694
0.0937304 -0.020339139 -0.024184294 -0.16459468 0.013841579 0.00966707 -0.030290172 0.029838275
0.18819125 0.0018651377 -0.010049657 0.07305811 0.081206664 -0.07524647 0.11055267 0.01566893
-0.08975626 0.0148810055 -0.060338 0.017328527 -0.04480891 -0.10140455 -0.048854165 0.08550646
-0.03946175 -0.10148197 0.03602821 0.002941782 -0.1398286 0.04961714 0.024169693 -0.030040663
0.21667394 -0.11248233 0.1357797 0.10046011 0.057234526 -0.044552743 -0.027821824 0.025042348
-0.052921526 -0.034638427 0.07191525 -0.049330745 -0.109803885 -0.056480087 -0.02565278 0.006765599
0.08382119 -0.012501034 0.097754635 0.08284045 0.030510832 -0.09913691 -0.010062084 -0.07841217
0.0028397623 -0.07673848 -0.038994435 -0.0621894 0.004736647 -0.047527306 -0.007920489 -0.025763065
-0.06986759 -0.002426187 -0.037471846 0.04220413 -0.13829711 -0.13249552 -0.026858818 0.0012596218
-0.10824596 0.076726936 -0.054368887 0.0024554343 0.05247168 -0.028401362 0.03893927 0.027815899
0.030668505 0.04883872 -0.052277908 0.035352595 -0.14536639 -0.065031976 -0.028202694 -0.06898033
-0.012717814 0.065813206 0.015346223 -0.042394567 -0.11411658 -0.08421203 -0.013611044 5.2566476e-05
-0.101217836 -0.014968509 -0.07437566 0.08333388 0.13590981 0.031520378 -0.046545707 0.066341154
0.03566836 0.0581191 -0.009772989 -0.0034390637 0.07491162 0.06817043 -0.025614602 -0.03399446
-0.00582126 0.024888607 0.08673308 0.08081055 0.07003936 -0.031388856 -0.027414793 0.0318007
0.020817611 -0.003946278 0.05619889 -0.039423853 0.009484113 -0.039708108 0.0020276702 0.06036166
0.10232674 -0.011627105 -0.007140594 0.050836097 0.13392639 0.028106133 -0.001155863 -0.050273698
-0.046225052 -0.04689285 -0.0022411125 -0.03020571 0.05252762 -0.09369527 -0.06165539 -0.0510663
0.059591133 -0.04508203 0.043223727 -0.106848516 -0.109237276 -0.00050987373 -0.06381208 -0.05178933
0.08750894 0.0466927 0.102548264 -0.10168077 -0.0035356777 -0.038301997 0.051040106 -0.06995956
0.033820316 -0.09446065 0.014266663 -0.104145095 -0.009196866 0.17073342 0.033796676 0.22185238
0.05473909 0.051873133 -0.06391404 -0.042313613 0.046156738 -0.035009008 -0.074714564 0.008588619
-0.033001438 -0.015860941 0.08165632 0.0048778937 -0.03740224 -0.019946065 0.039962117 -0.07988319
-0.0379531 -0.017972168 -0.037413552 -0.022563247 0.026613567 -0.064033985 0.029920671 -0.03797031
-0.038661666 0.027370678 0.04244613 0.028355634 0.027247546 0.05996831 0.025787733 0.053922147
0.10562514 -0.0005427215 0.05489295 -0.20251527 0.0239346 0.07208993 0.065891854 -0.0034159555
-0.0053956513 0.034787636 -0.025346952 0.0061719297 -0.08417514 0.07060796 -0.039749924 -0.025370669
0.039088394 -0.07497262 0.08199824 0.04271057 -0.015745735 -0.12747775 -0.039058477 -0.04950823
00000000: dac0 d6bc d12f 32bb 1a56 9fbd d189 ed3c
00000010: 54fb 693d e068 12be 0f8d b43d c49a af3c
00000020: c2b6 1cbd eeec c63c 83ca 4abd e7ba 143c
00000030: a72b 74bd dbdb bdbd f308 963d cf75 0dbe
00000040: 0760 363d 226a 5bbd f127 d73c 01c3 0dbc
00000050: b63d e1bc 4c59 57bc a177 07bd 5d67 68bd
00000060: 5ce7 df3c fc31 b1bc 9a1f e73c b012 96bd
00000070: c2c4 51bd 2ff1 ee3d 6892 813a f215 693d
00000080: b9f5 bf3d 449e a6bc 241e c6bc 828b 28be
00000090: cac7 623c a162 1e3c 1823 f8bc 666f f43c
000000a0: 35b5 403e a377 f43a 51a7 24bc 7e9f 953d
000000b0: ae4f a63d d21a 9abd 7069 e23d 215c 803c
000000c0: 21d2 b7bd 76cf 733c fb24 77bd 8ef4 8d3c
000000d0: 8c89 37bd 30ad cfbd 4e1b 48bd 031e af3d
000000e0: a5a2 21bd c7d5 cfbd 5192 133d e9ca 403b
000000f0: 3b2f 0fbe 583b 4b3d 85ff c53c d617 f6bc
00000100: c6df 5d3e 235d e6bd d509 0b3e 08be cd3d
00000110: c06e 6a3d f07c 36bd 98ea e3bc 9c25 cd3c
00000120: 3ec4 58bd 06e1 0dbd 4d48 933d 090f 4abd
00000130: dce0 e0bd aa57 67bd c725 d2bc f5b1 dd3b
00000140: 72aa ab3d 23d1 4cbc 9533 c83d 41a8 a93d
00000150: daf1 f93c 4b08 cbbd 70db 24bc 8f96 a0bd
00000160: 4e1b 3a3b 1029 9dbd a1b8 1fbd 50ba 7ebd
00000170: e035 9b3b feab 42bd f0c4 01bc 100d d3bc
00000180: bd16 8fbd aa00 1fbb 147c 19bd 3dde 2c3d
00000190: c29d 0dbe e8ac 07be 0607 dcbc e519 a53a
000001a0: 0fb0 ddbd 0323 9d3d e9b1 5ebd 5aeb 203b
000001b0: 8bec 563d f9a9 e8bc c97e 1f3d 2bde e33c
000001c0: 843c fb3c 1c0b 483d 5c21 56bd e2cd 103d
000001d0: edda 14be 7c2f 85bd 5609 e7bc 8f45 8dbd
000001e0: 615e 50bc 13c9 863d b96e 7b3c eda5 2dbd
000001f0: f4b5 e9bd 5b77 acbd db00 5fbc d37a 5c38
00000200: 4c4b cfbd 7a3e 75bc 4452 98bd f4aa aa3d
00000210: f12b 0b3e 831b 013d b6a6 3ebd dfdd 873d
00000220: fc18 123d 4b0e 6e3d e31e 20bc ea61 61bb
00000230: 436b 993d f09c 8b3d b7d5 d1bc c63d 0bbd
00000240: 45c0 bebb 31e3 cb3c 1da1 b13d 0080 a53d
00000250: cc70 8f3d 9a91 00bd fd94 e0bc 7341 023d
00000260: b289 aa3c c74f 81bb cf30 663d e87a 21bd
00000270: 4163 1b3c f8a4 22bd a9e2 043b ca3d 773d
00000280: af90 d13d 9d7f 3ebc a5fb e9bb 8339 503d
00000290: 0024 093e d53e e63c 5480 97ba cbeb 4dbd
000002a0: 7b56 3dbd b812 40bd a1df 12bb f771 f7bc
000002b0: 3427 573d 4ee3 bfbd 5d8a 7cbd e62a 51bd
000002c0: d515 743d efa7 38bd 5d0b 313d 65d3 dabd
000002d0: cbb7 dfbd 0ca9 05ba e8af 82bd 0c21 54bd
000002e0: e337 b33d d840 3f3d d304 d23d 023e d0bd
000002f0: d4b6 67bb 8ee2 1cbd 6e0f 513d f546 8fbd
00000300: 2c87 0a3d 9674 c1bd b9be 693c 064a d5bd
00000310: 74ae 16bc bed4 2e3e 626e 0a3d 452d 633e
00000320: 1936 603d ec78 543d 5de5 82bd 0a51 2dbd
00000330: d90e 3d3d 9b65 0fbd f303 99bd 47b7 0c3c
00000340: 842c 07bd ceee 81bc 6e3b a73d bdd6 9f3b
00000350: 1733 19bd ee65 a3bc 51af 233d cc99 a3bd
00000360: b674 1bbd 5e3a 93bc f43e 19bd 8fd6 b8bc
00000370: b204 da3c 4024 83bd 321c f53c c186 1bbd
00000380: b25b 1ebd 7938 e03c fedb 2d3d 134a e83c
00000390: 3f36 df3c 55a1 753d cc40 d33c 78dd 5c3d
000003a0: fe51 d83d 6c45 0eba 6ed7 603d 2a60 4fbe
000003b0: 7f12 c43c e3a3 933d 4ff2 863d 39de 5fbb
000003c0: 01ce b0bb 7b7d 0e3d 69a4 cfbc e63d ca3b
000003d0: 0464 acbd e89a 903d d1d0 22bd 26d6 cfbc
000003e0: 271b 203d 3f8b 99bd b1ee a73d 47f1 2e3d
000003f0: 33fd 80bc 8789 02be c8fb 1fbd 24c9 4abd

bias f4 [64]
0.13805896 -0.07795611 0.11643981 0.21185555 0.12816948 0.038708936 0.07719362 -0.05176275
-0.0032793407 0.28661704 0.24310783 -0.019999191 -0.15997823 0.21736272 -0.03926702 0.08404166
0.01914153 -0.2078155 0.29014817 -0.09297443 0.19048247 -0.1153577 0.38473603 -0.043105185
0.23760763 -0.36962813 0.029200202 -0.05697105 0.22388725 7.671306e-05 -0.2518096 -0.24184391
0.19652325 -0.092478454 0.012420742 -0.021512873 0.27031606 0.0014721351 0.021152487 0.09266169
0.14870237 0.2103912 0.16011807 -0.13081469 0.06867424 -0.06335726 -0.122107744 0.05992973
0.012971079 0.13992772 0.17776105 -0.061303206 0.17065096 -0.034973163 0.18618336 0.07655358
0.06637387 -0.0373936 0.04459233 0.21847545 0.12504144 0.30200115 0.1440223 -0.0056822593
00000000: 545f 0d3e 74a7 9fbd ff77 ee3d a9f0 583e
00000010: dc3e 033e 438d 1e3d b017 9e3d 2d05 54bd
00000020: 35ea 56bb 78bf 923e 42f1 783e 58d5 a3bc
00000030: 55d1 23be 5594 5e3e 74d6 20bd 091e ac3d
00000040: b3ce 9c3c 96cd 54be 4d8e 943e 6169 bebd
00000050: d60d 433e a840 ecbd 1ffc c43e 108f 30bd
00000060: 6a4f 733e e63f bdbe 4335 ef3c 7a5a 69bd
00000070: b342 653e 03e1 a038 30ed 80be eea5 77be
00000080: 643d 493e 5865 bdbd 5e80 4b3c c43b b0bc
00000090: de66 8a3e a8f4 c03a fb47 ad3c 6ac5 bd3d
000000a0: 6f45 183e ca70 573e fef5 233e 49f4 05be
000000b0: 14a5 8c3d 73c1 81bd a013 fabd e078 753d
000000c0: a684 543c 3649 0f3e fe06 363e 1219 7bbd
000000d0: 20bf 2e3e 0540 0fbd daa6 3e3e 20c8 9c3d
000000e0: 06ef 873d 082a 19bd 72a6 363d 07b8 5f3e
000000f0: dd0a 003e e59f 9a3e 957a 133e 3f32 babb

weight f4 [128, 576]
-0.0003760122 -0.00023325691 -0.00020854431 -0.0002897047 -0.00035474246 -6.878684e-05 9.787966e-05 0.00011176701
-0.00011489487 0.00011449081 9.175208e-05 0.0001267314 8.330558e-05 0.00019967572 9.6371055e-05 -0.000109562934
-2.9720877e-05 0.00015374333 -0.00019679383 8.691253e-06 -0.00012215081 -0.00014450747 2.6368985e-05 -0.00038069402
-0.00011377361 -6.8598524e-06 -0.00030697405 -0.00020005742 0.00012294491 7.5820244e-06 -9.352519e-05 0.0001142359
-2.7565693e-05 9.788056e-05 0.00010166436 -3.1262025e-06 4.8350874e-05 -4.5963945e-05 -0.00019647252 8.897391e-05
-0.00034099398 -0.00024575257 0.00027497314 -0.00017853947 -0.0001648296 5.8278052e-05 7.8174686e-05 4.3000306e-05
9.849223e-05 -6.110432e-05 -0.00029668972 5.1164778e-05 -0.00017946368 -0.00013448116 -0.00011005488 -0.0003357482
-0.00015854105 4.877469e-05 0.00022743201 6.8749054e-05 -0.00026807038 -2.2899963e-05 0.0003195474 -0.0001860758
-0.00015994298 -3.6747348e-05 -0.0001422847 -5.275323e-05 -0.00018324745 0.00020329811 -0.00017688471 -0.00015919411
4.113472e-05 -0.00016830271 -4.9716033e-05 5.7407677e-05 2.457422e-05 3.2664443e-06 6.049695e-05 7.664969e-05
-0.00015700831 -0.00017863026 2.301221e-06 6.6101566e-05 -0.00012299034 -5.551317e-05 1.7835457e-05 -3.2354026e-05
-0.000108345375 0.0001611992 -0.00025051975 -0.00022774369 -0.00018797694 -0.0002448493 -0.00024497675 -0.00017330828
-0.00016327287 -0.00035577404 -0.0002926708 -0.00024260064 -0.0004908898 -0.00027876176 0.0001749514 9.876385e-05
-2.6597207e-05 -0.0001202959 -0.00018380607 -8.214892e-05 -0.00016259815 0.0004117386 2.9359559e-05 0.0001068801
0.00035538903 -0.00031730102 8.49268e-05 0.0002996416 -0.00015741868 2.5972247e-05 -1.5027998e-05 -9.3127215e-05
3.9392617e-05 -0.000119505785 -0.00015697323 0.00011708954 -9.9861325e-05 5.3277513e-06 7.66265e-05 2.0787596e-05
0.0001699238 -1.7708744e-05 8.878349e-06 4.951264e-05 -0.0003057439 -8.1737446e-05 0.00036312724 7.591364e-05
9.940009e-05 0.00016836559 0.00017780955 0.0002551182 -0.00013335957 0.00011408756 3.143357e-05 3.6363654e-05
-2.7949267e-05 0.00014817093 0.00014104192 3.5125646e-05 0.00031027955 -4.8193302e-05 -0.00012215546 0.00022900265
-5.454151e-05 0.00019979 0.000103814105 -4.4914013e-05 -0.00014649586 -0.00020241643 2.277689e-05 -2.4287936e-05
5.4007072e-05 1.03022185e-05 -0.00013139988 -0.0002404498 -0.0002905073 -0.00014858971 -0.00018134079 6.795789e-05
4.6637102e-05 -3.1023872e-05 3.9057773e-05 0.00016326236 0.00013528646 -0.00023523303 6.0547496e-05 -0.00031643081
-0.00034173016 4.8166366e-06 4.4996028e-05 3.1334577e-07 2.3444625e-05 -0.00011695209 -9.353925e-06 6.215744e-05
1.2799297e-05 8.244276e-05 7.9039964e-05 8.291548e-05 0.00025109673 0.00025435293 -4.96963e-06 -0.00012746232
0.00014655205 -4.502338e-05 0.0001711665 0.00023519945 -0.000372336 6.713756e-05 5.9738813e-05 -4.9080423e-05
-3.258757e-05 -1.6696344e-05 -0.00013806243 -0.0001232141 -1.6078253e-05 7.0451233e-06 6.982455e-05 -0.00016842666
-0.00023154166 0.0001409245 -2.8974971e-05 7.785984e-05 4.8805763e-05 -0.00021292747 0.00013680375 -6.659055e-05
1.4618506e-05 -4.500485e-05 -5.746701e-05 1.2408334e-05 -0.00020915206 0.00015945148 1.3630957e-05 5.9568636e-05
0.00011244478 -4.2984793e-05 -4.860759e-05 -3.0403822e-05 1.4935538e-06 -0.0002541408 -9.218279e-05 0.00011083264
-8.307639e-05 -6.192269e-05 1.9335916e-06 -5.3130665e-05 -4.416399e-05 -2.46908e-05 -7.485807e-05 -0.0001114583
-0.00022135513 -6.492287e-05 8.299623e-05 -3.0170977e-05 0.00013551206 0.00017291117 5.7712423e-05 -0.00019203858
-0.00021215084 0.0001533338 0.00012096926 4.527664e-05 -0.0001769299 -7.020928e-05 -0.00011113141 -0.00024244671
00000000: 8123 c5b9 6d96 74b9 b0ac 5ab9 82e3 97b9
00000010: bafc b9b9 a741 90b8 be44 cd38 7564 ea38
00000020: b7f3 f0b8 c91a f038 066b c038 33e3 0439
00000030: 58b4 ae38 0b60 5139 d11a ca38 27c5 e5b8
00000040: 1951 f9b7 2936 2139 715a 4eb9 a6d0 1137
00000050: 9c15 00b9 ee86 17b9 f732 dd37 e397 c7b9
00000060: be99 eeb8 af2d e6b6 5cf1 a0b9 81c6 51b9
00000070: c6ea 0039 1869 fe36 f422 c4b8 ef91 ef38
00000080: e03c e7b7 3a45 cd38 a334 d538 c0cb 51b6
00000090: 5bcc 4a38 69c9 40b8 3104 4eb9 8197 ba38
000000a0: 70c7 b2b9 5ad8 80b9 452a 9039 5336 3bb9
000000b0: 1cd6 2cb9 956f 7438 b7f1 a338 3a5b 3438
000000c0: 9d8d ce38 2225 80b8 058d 9bb9 c399 5638
000000d0: 6a2e 3cb9 8303 0db9 44cd e6b8 5c07 b0b9
000000e0: 0a3e 26b9 6d93 4c38 d17a 6e39 5e2d 9038
000000f0: cc8b 8cb9 4c19 c0b7 ed88 a739 581d 43b9
00000100: 5eb6 27b9 2a21 1ab8 4232 15b9 5943 5db8
00000110: 1d26 40b9 6c2c 5539 217a 39b9 58ed 26b9
00000120: 1288 2c38 6a7a 30b9 2f86 50b8 06c9 7038
00000130: bc24 ce37 1635 5b36 1bbe 7d38 fdbe a038
00000140: 99a2 24b9 b24e 3bb9 ad6e 1a36 02a0 8a38
00000150: f8f6 00b9 d0d6 68b8 5a9d 9537 dfb3 07b8
00000160: 7b37 e3b8 9507 2939 3158 83b9 7bce 6eb9
00000170: ad1b 45b9 1e5f 80b9 3970 80b9 16ba 35b9
00000180: 3a34 2bb9 2f87 bab9 9c71 99b9 9d62 7eb9
00000190: 0faf 00ba c526 92b9 2973 3739 701f cf38
000001a0: 111d dfb7 5f47 fcb8 11bc 40b9 5e47 acb8
000001b0: 1c7f 2ab9 9fde d739 2c49 f637 d124 e038
000001c0: 8253 ba39 6c5b a6b9 bb1a b238 3719 9d39
000001d0: c110 25b9 fade d937 c320 7cb7 4b4d c3b8
000001e0: 8039 2538 2e9f fab8 2e99 24b9 f88d f538
000001f0: a46c d1b8 09c5 b236 8ab2 a038 0661 ae37
00000200: 932d 3239 3d8d 94b7 38f4 1437 cbab 4f38
00000210: 404c a0b9 756a abb8 1d62 be39 d333 9f38
00000220: 0475 d038 4b8b 3039 6372 3a39 63c1 8539
00000230: 70d6 0bb9 4b42 ef38 8ad7 0338 2d85 1838
00000240: 9874 eab7 555e 1b39 a7e4 1339 e053 1338
00000250: 04ad a239 2a23 4ab8 db16 00b9 6e20 7039
00000260: 80c3 64b8 b87e 5139 c6b6 d938 0e62 3cb8
00000270: af9c 19b9 bf3f 54b9 0011 bf37 f2bd cbb7
00000280: a785 6238 b1d7 2c37 63c8 09b9 4021 7cb9
00000290: 3b4f 98b9 bfce 1bb9 4c26 3eb9 9d84 8e38
000002a0: 359c 4338 a11f 02b8 f7d1 2338 6831 2b39
000002b0: afdb 0d39 e3a8 76b9 61f4 7d38 a0e6 a5b9
000002c0: 3f2a b3b9 989e a136 1eba 3c38 ea39 a834
000002d0: f3aa c437 2d44 f5b8 cdee 1cb7 865a 8238
000002e0: 90bc 5637 1fe5 ac38 42c2 a538 e9e2 ad38
000002f0: a2a5 8339 ac5a 8539 ccc0 a6b6 68a7 05b9
00000300: c4ab 1939 7cd7 3cb8 287b 3339 df9f 7639
00000310: 1836 c3b9 34cc 8c38 1090 7a38 b4db 4db8
00000320: a3ae 08b8 200f 8cb7 dac4 10b9 0833 01b9
00000330: c9df 86b7 2665 ec36 c56e 9238 b09b 30b9
00000340: fec9 72b9 22c5 1339 470f f3b7 af48 a338
00000350: cab4 4c38 4845 5fb9 fa72 0f39 88a6 8bb8
00000360: 0142 7537 97c3 3cb8 bb08 71b8 642d 5037
00000370: d44f 5bb9 6e32 2739 84b0 6437 56d9 7938
00000380: 55d0 eb38 924a 34b8 01e0 4bb8 b60b ffb7
00000390: 1e76 c835 333e 85b9 4252 c1b8 d26e e838
000003a0: 4c39 aeb8 7edc 81b8 dac2 0136 9ed8 5eb8
000003b0: b93c 39b8 171f cfb7 1ffd 9cb8 b8be e9b8
000003c0: 911b 68b9 3327 88b8 430e ae38 ae17 fdb7
000003d0: 3e18 0e39 7d4f 3539 3e10 7238 f75d 49b9
000003e0: cf74 5eb9 3bc8 2039 e0b0 fd38 6ce7 3d38
000003f0: 4286 39b9 523d 93b8 390f e9b8 4b39 7eb9

bias f4 [128]
-0.00013928056 -9.2967086e-05 0.00011645548 0.00015421692 5.2363124e-05 5.0881514e-05 -5.824401e-05 1.680878e-05
-6.763007e-05 0.00016743557 -4.633524e-05 0.00016033756 -9.4989075e-05 -0.00014205389 3.8640464e-05 -0.000108598164
-0.00014158462 -1.4236887e-05 -4.3477135e-05 -3.1912623e-05 4.9581817e-05 6.248565e-05 1.1517224e-05 -6.901291e-05
3.0831372e-05 2.3129227e-05 0.025573865 4.7551883e-05 -0.00011596062 0.009602027 5.7706686e-05 8.7547895e-05
-0.05788081 -1.3001264e-05 0.014035414 1.9105182e-05 -1.6405163e-05 1.3961012e-05 -0.00010440071 1.5260479e-05
-0.00011365743 -4.154227e-05 -5.1114525e-06 4.3141925e-05 0.00012293505 -0.00015200926 -1.5891523e-05 9.667194e-05
-1.8544055e-05 0.00024285703 5.7406884e-05 0.00014827482 5.406121e-05 -7.83043e-06 -8.109078e-05 -8.750131e-05
0.00014958957 -0.00011547502 3.694444e-05 0.00010860438 -0.00014525476 -3.49097e-05 5.210727e-05 1.9320103e-05
-8.4617255e-05 0.05003029 -1.2484544e-05 2.9089299e-05 0.033212416 0.000121899444 4.0174167e-05 -0.10908115
-3.6632013e-05 -0.000138795 3.078321e-05 -4.7390745e-06 0.2815258 0.00012283925 0.21884587 3.1284955e-05
-0.03208064 -8.965137e-05 -4.1223568e-05 -3.8021026e-05 8.4907544e-05 0.00013875338 -6.776213e-05 8.96314e-05
-0.00014415004 0.24696359 -0.000138699 9.9941804e-05 9.927911e-05 0.00012262314 -3.297416e-05 -8.5210326e-05
-0.00012273503 -4.2896336e-05 -2.1755859e-05 0.00011829152 4.573789e-06 0.04688988 0.1308495 -0.0001573183
-5.9793187e-05 -0.0001892447 -0.000114703376 8.8769135e-05 -4.341369e-05 -6.686895e-05 0.0025913687 -0.00015819857
-8.7388005e-05 -2.3030172e-05 -0.014360433 -2.4786637e-05 -0.00015700568 -7.537742e-05 -9.809693e-05 1.5056695e-05
0.00023159766 -0.14646973 9.536035e-05 -9.6328986e-05 -7.943671e-05 0.00017713862 2.7688473e-05 -8.6529406e-05
00000000: d70b 12b9 53f7 c2b8 8f39 f438 4ab5 2139
00000010: 7aa0 5b38 9c69 5538 084b 74b8 9500 8d37
00000020: 9ed4 8db8 a591 2f39 1658 42b8 4920 2839
00000030: df34 c7b8 4df4 14b9 e211 2238 32bf e3b8
00000040: 5576 14b9 f7da 6eb7 385b 36b8 ebd9 05b8
00000050: 12f6 4f38 ba0a 8338 1a3a 4137 06bb 90b8
00000060: ef50 0138 a305 c237 4880 d13c 7272 4738
00000070: e22f f3b8 d251 1d3c 150a 7238 eb99 b738
00000080: 6e14 6dbd 0120 5ab7 cbf4 653c 1144 a037
00000090: d29d 89b7 173a 6a37 b4f1 dab8 a103 8037
000000a0: 5e5b eeb8 ac3d 2eb8 0b83 abb6 4af3 3438
000000b0: 20e8 0039 ad64 1fb9 c94e 85b7 5abc ca38
000000c0: 0e8f 9bb7 70a7 7e39 2cc8 7038 387a 1b39
000000d0: c8bf 6238 715f 03b7 480f aab8 e880 b7b8
000000e0: 25db 1c39 2e2b f2b8 caf4 1a38 88c2 e338
000000f0: 874f 18b9 016c 12b8 c18d 5a38 9b11 a237
00000100: 8b74 b1b8 90ec 4c3d b574 51b7 cb04 f437
00000110: be09 083d 44a4 ff38 af80 2838 f065 dfbd
00000120: 53a5 19b8 8089 11b9 381d 0138 5704 9fb6
00000130: 2624 903e 69ce 0039 2219 603e f737 0338
00000140: fd66 03bd 3603 bcb8 78e7 2cb8 c478 1fb8
00000150: 6410 b238 547e 1139 841b 8eb8 7ef8 bb38
00000160: fb26 17b9 06e4 7c3e bb6f 11b9 d997 d138
00000170: 1134 d038 6694 0039 bc4d 0ab8 f2b2 b2b8
00000180: 6fb2 00b9 97eb 33b8 5a80 b6b7 4713 f838
00000190: 8c78 9936 9a0f 403d 69fd 053e cff5 24b9
000001a0: 72ca 7ab8 fd6f 46b9 e88c f0b8 9129 ba38
000001b0: 1817 36b8 ff3b 8cb8 f4d3 293b 1be2 25b9
000001c0: 1444 b7b8 eb30 c1b7 0648 6bbc e6ec cfb7
000001d0: e4a1 24b9 f213 9eb8 63b9 cdb8 039c 7c37
000001e0: 06d9 7239 29fc 15be 33fc c738 3b04 cab8
000001f0: 4297 a6b8 49be 3939 8b44 e837 1f77 b5b8

weight f4 [2, 128]
-0.00028631423 -0.00036012183 0.00028020007 0.00030484877 0.00015361568 0.00037306812 -0.00015108033 8.112377e-05
-0.00023161803 0.0003615472 -0.00020698491 0.000349662 -0.0003442558 -0.00030240664 0.000110025845 -0.00021433154
-0.0002038829 -3.350162e-05 -0.0001558738 -0.00030582424 0.00015147185 0.00033793127 -7.153749e-05 -0.00022054678
3.1023996e-05 0.0002436868 0.03945391 0.00013535976 -0.0002781407 -0.0014320589 0.00018588972 0.00025045295
0.1337427 -0.00017428912 0.0010419353 8.373994e-05 -0.00027667134 5.0062135e-05 -0.0002966585 2.2116703e-05
-0.0002452284 -0.00014111238 -2.1452786e-05 0.00018572377 0.0002655743 -0.00027073958 0.0003052426 0.00023450062
-0.00012163409 0.0002820515 0.00011300175 0.00023765235 4.0187708e-05 -9.93916e-05 -0.00011086705 -6.0034115e-05
0.00032382173 -0.00028137502 0.00017483806 0.00031495074 -0.00031209338 -0.00014243861 0.00012432803 0.0001518813
-0.00020920137 -0.01563154 -1.665915e-05 -0.00012595838 0.005118836 0.00026136808 0.00013967596 -1.0080686
-6.739784e-05 -0.00032955085 6.6306566e-05 -0.00010395932 -0.0044017415 0.0002813538 0.11775475 0.00015555354
-0.021275481 -0.00017837922 -0.000102525715 -0.00017044124 0.00035184578 0.00028233646 -7.6739416e-05 0.00022764636
-0.00028515008 2.103049 -0.00029432675 0.00027037156 0.0002635861 0.00019093342 -0.00029369083 -3.3440407e-05
-0.00022746844 -0.00020822171 7.955614e-06 0.00026677715 -9.8921206e-05 0.09308056 -0.07654205 -0.0002456389
-0.00013270487 -0.00036952857 -0.0002799731 0.0002883577 -0.0001086889 -0.00029511846 0.00014863747 -0.0002516932
-0.00021464641 -3.6823978e-06 -0.00037018518 -0.00010576185 -0.00033003566 -0.0002494193 -0.00036524684 -0.00012714055
0.0002906042 -1.4261768 -3.523539e-05 -6.0369493e-05 -0.0001848214 0.00036281737 4.060201e-05 -0.00015710678
0.0002863191 0.00036011726 -0.00028021832 -0.00030486393 -0.0001536168 -0.00037306795 0.00015107651 -8.1150974e-05
0.00023160833 -0.0003615585 0.0002069589 -0.0003496793 0.000344246 0.00030242308 -0.00011000598 0.00021435265
0.00020389163 3.3479613e-05 0.00015589962 0.00030582253 -0.00015145545 -0.0003379209 7.1526825e-05 0.00022056316
-3.101017e-05 -0.0002436807 -0.039449193 -0.00013532814 0.00027813914 0.0014319812 -0.00018586894 -0.0002504695
-0.13355994 0.0001742796 -0.0010397234 -8.3721265e-05 0.00027666963 -5.0037444e-05 0.00029665156 -2.2089249e-05
0.00024524302 0.0001410976 2.1424368e-05 -0.0001857506 -0.0002655962 0.00027075628 -0.00030524863 -0.00023451225
0.00012160376 -0.00028205634 -0.00011298234 -0.00023765412 -4.0174462e-05 9.941406e-05 0.00011088931 6.0015667e-05
-0.00032384167 0.00028139795 -0.0001748396 -0.0003149664 0.00031210628 0.00014241817 -0.00012432119 -0.00015187396
0.0002091957 0.01563045 1.6687094e-05 0.00012593452 -0.0051214937 -0.00026138677 -0.00013970048 1.007744
6.738228e-05 0.0003295586 -6.632461e-05 0.000103930724 0.0039792075 -0.00028136082 -0.11563897 -0.00015557732
0.021333532 0.0001783528 0.00010250743 0.00017041422 -0.00035184014 -0.00028234092 7.676408e-05 -0.00022763688
0.0002851544 -2.1042123 0.0002943439 -0.00027038722 -0.00026361056 -0.00019096104 0.00029368815 3.3430835e-05
0.0002274963 0.00020819719 -7.981257e-06 -0.0002667947 9.88955e-05 -0.09309377 0.0753628 0.0002456456
0.00013272114 0.00036954 0.00027999503 -0.00028838153 0.00010868347 0.00029513365 -0.00014901023 0.0002517083
0.00021466057 3.6778101e-06 0.00036856276 0.00010578676 0.00033005138 0.0002494208 0.00036524885 0.00012711497
-0.00029061123 1.4276867 3.5252342e-05 6.03582e-05 0.00018484126 -0.0003628328 -4.0586503e-05 0.00015710399
00000000: 721c 96b9 bcce bcb9 d1e7 9239 1cd4 9f39
00000010: e513 2139 5b98 c339 516b 1eb9 fe20 aa38
00000020: 7ede 72b9 0b8e bd39 170a 59b9 d752 b739
00000030: 3b7d b4b9 558c 9eb9 adbd e638 2fbe 60b9
00000040: 66c9 55b9 1784 0cb8 0e72 23b9 0957 a0b9
00000050: 6ad4 1e39 5e2c b139 6606 96b8 9342 67b9
00000060: c31f 0238 2d86 7f39 6c9a 213d 5cef 0d39
00000070: 6ad3 91b9 ecb3 bbba 64eb 4239 3a4f 8339
00000080: d9f3 083e 61c1 36b9 8c91 883a 8a9d af38
00000090: 330e 91b9 cff9 5138 d488 9bb9 4287 b937
000000a0: 0092 80b9 91f7 13b9 82f5 b3b7 d8be 4239
000000b0: c73c 8b39 0df2 8db9 f808 a039 48e4 7539
000000c0: ce15 ffb8 50e0 9339 5afb ec38 5132 7939
000000d0: 398f 2838 7570 d0b8 4b81 e8b8 24cd 7bb8
000000e0: 9ec6 a939 8485 93b9 bc54 3739 f91f a539
000000f0: 77a0 a3b9 935b 15b9 0d5e 0239 5342 1f39
00000100: 115d 5bb9 b70d 80bc 41bf 8bb7 b213 04b9
00000110: e9bb a73b 3b08 8939 fb75 1239 6408 81bf
00000120: f157 8db8 91c7 acb9 110e 8b38 bc04 dab8
00000130: 7c3c 90bb ab82 9339 6729 f13d 161c 2339
00000140: eb49 aebc 4f0b 3bb9 1303 d7b8 79b8 32b9
00000150: f177 b839 8f06 9439 29ef a0b8 5bb4 6e39
00000160: 3280 95b9 5b98 0640 de4f 9ab9 a8c0 8d39
00000170: ed31 8a39 4d35 4839 84fa 99b9 5d42 0cb8
00000180: 9884 6eb9 1756 5ab9 1a79 0537 39de 8b39
00000190: eb73 cfb8 05a1 be3d 14c2 9cbd 18c9 80b9
000001a0: b126 0bb9 49bd c1b9 5ac9 92b9 b72e 9739
000001b0: e9ef e3b8 21ba 9ab9 91db 1b39 b1f5 83b9
000001c0: b512 61b9 1d1f 77b6 6a15 c2b9 76cc ddb8
000001d0: a308 adb9 7ec4 82b9 9a7e bfb9 0851 05b9
000001e0: 3c5c 9839 f68c b6bf b6c9 13b8 4035 7db8
000001f0: 9ecc 41b9 8638 be39 144c 2a38 08bd 24b9
00000200: 191d 9639 1fce bc39 44ea 92b9 25d6 9fb9
00000210: 3214 21b9 5598 c3b9 4b6a 1e39 992f aab8
00000220: e3db 7239 8f8f bdb9 1b03 5939 2955 b7b9
00000230: ea7b b439 8a8e 9e39 03b3 e6b8 dac3 6039
00000240: becb 5539 766c 0c38 fc78 2339 ce56 a039
00000250: 03d0 1eb9 fa2a b1b9 ac00 9638 f946 6739
00000260: eb10 02b8 8a84 7fb9 7a95 21bd dfe6 0db9
00000270: 34d3 9139 51b1 bb3a d0e5 42b9 7251 83b9
00000280: f0c3 08be d3be 3639 5447 88ba 8393 afb8
00000290: f80d 9139 4cdf 51b8 e687 9b39 4d4c b9b7
000002a0: f693 8039 99f3 1339 7bb8 b337 0cc6 42b9
000002b0: b83f 8bb9 4bf4 8d39 c709 a0b9 67e7 75b9
000002c0: 8605 ff38 f6e0 93b9 eff0 ecb8 cb32 79b9
000002d0: 0081 28b8 847c d038 3f8d e838 55b9 7b38
000002e0: 4bc9 a9b9 9888 9339 2655 37b9 1322 a5b9
000002f0: 32a2 a339 1656 1539 375c 02b9 5b40 1fb9
00000300: 8b5b 5b39 6e0b 803c 43fb 8b37 4a0d 0439
00000310: 34d2 a7bb bd0a 89b9 907c 12b9 c1fd 803f
00000320: 964f 8d38 9bc8 ac39 c117 8bb8 62f5 d938
00000330: 0364 823b 9c83 93b9 20d4 ecbd 7822 23b9
00000340: a9c3 ae3c 3704 3b39 42f9 d638 38b1 3239
00000350: 2f77 b8b9 2807 94b9 67fc a038 cfb1 6eb9
00000360: c780 9539 6aab 06c0 2b52 9a39 c2c2 8db9
00000370: 3635 8ab9 b73c 48b9 28fa 9939 1638 0c38
00000380: 138c 6e39 824f 5a39 3de7 05b7 94e0 8bb9
00000390: 1e66 cf38 f2a7 bebd d057 9a3d ffc9 8039
000003a0: 0f2b 0b39 d2be c139 4ccc 9239 ea31 97b9
000003b0: feec e338 2bbc 9a39 a13f 1cb9 b7f7 8339
000003c0: 8216 6139 4cd0 7636 a83b c139 d6d9 dd38
000003d0: bf0a ad39 b1c4 8239 df7e bf39 2a4a 0539
000003e0: 2e5d 98b9 70be b63f eadb 1338 2029 7d38
000003f0: f3d1 4139 983a beb9 6d3b 2ab8 48bc 2439

bias f4 [2]
0.072961286 -0.07574541
00000000: ba6c 953d 6920 9bbd

weight f4 [4, 128]
8.594019e-06 -2.7254522e-05 8.31032e-05 8.791814e-05 -7.357451e-05 5.68205e-05 8.220664e-05 0.00013531405
4.6629848e-05 5.1619114e-05 0.0002499337 6.370196e-05 -3.1828527e-05 -8.995435e-05 -0.00014749543 -9.677337e-05
8.310294e-05 0.00014672051 -0.0001420821 -6.5388645e-05 -0.00010097135 3.092797e-05 0.00011643683 -4.4425775e-05
-0.00015902137 5.3464366e-05 0.079704635 -0.00023218666 7.175298e-06 -0.005658602 -0.00019913 2.3787405e-05
0.21686822 0.00016725235 0.008414865 -8.90538e-05 2.667135e-05 -0.000208409 -9.8163124e-05 -0.00020896243
-0.00013167548 0.00022979766 0.00021495216 0.00015722452 8.9795896e-05 -7.570831e-05 5.4615477e-05 0.000113429865
0.00024304522 8.636881e-08 -0.00018690298 -5.0931743e-05 -0.00022139656 -0.00017245865 -0.00012389626 0.00026588343
7.173734e-05 -8.9171896e-05 -4.9134765e-06 3.864464e-05 -6.779332e-05 0.00019858907 -0.00016203757 -6.010627e-05
2.2499275e-05 -0.051052064 -0.00019445151 0.000172145 -0.03327402 0.00010646514 0.00013860819 -0.09455926
0.00010064534 -1.9834551e-05 0.00011571558 0.00023744402 -0.024497569 -5.4564716e-06 0.0849251 0.0001351447
0.2677333 0.00024601293 0.00019933 0.00022926833 -1.1618123e-06 -1.9097131e-05 -0.00012658525 -4.5112105e-05
2.5799956e-05 0.07372746 -9.450839e-05 2.1321302e-05 3.6083282e-05 0.00013110948 -6.3329906e-05 0.0001899866
-0.000119016215 0.00017879218 0.00027828402 9.0166985e-05 0.00020294204 -0.11890116 0.48839557 3.3295702e-05
-0.0001797312 -4.3007272e-05 -9.0180285e-05 6.0548937e-05 0.00014153315 -9.6577736e-05 0.0006489872 3.9804927e-05
-0.00014512554 0.00013217176 -0.011125626 -0.00015763126 -8.016213e-05 -5.378225e-06 -3.6778416e-05 0.00019428688
-8.7711777e-07 0.21022639 -0.0001613788 0.00021352363 -0.00015027486 4.6575995e-05 -0.0002379151 -0.00017259925
1.7790262e-05 1.2393707e-05 -4.573271e-05 -4.3652202e-05 3.5079807e-05 -2.464302e-06 -4.9006474e-05 -6.497869e-05
-1.3728506e-05 -9.2033595e-05 -0.00010831957 -8.069849e-05 3.3373046e-05 6.4237385e-05 8.7816916e-05 6.566415e-05
6.642552e-05 -9.389581e-05 8.396005e-05 -7.085837e-05 7.56968e-05 -2.092179e-05 -8.720367e-05 1.3624881e-05
6.1850486e-05 7.02418e-05 -0.016376566 0.00012446707 6.233785e-05 -0.020830449 0.0001074145 -8.079966e-06
-0.19524688 -6.738485e-05 -0.0038858012 7.748801e-05 -2.1793456e-05 0.00011904003 4.6458772e-05 0.00011685019
7.185617e-05 -0.00012440489 -0.000117020354 -8.015603e-05 -2.8769584e-05 3.9106355e-05 6.568035e-05 -2.0857857e-05
-0.00013677214 -0.00012377763 9.3706294e-05 -7.837714e-05 0.000114907256 8.11042e-05 0.00010446448 -8.43902e-05
1.2240135e-05 4.87663e-05 2.8587498e-05 -2.2280537e-05 4.826789e-05 -0.00012909062 7.746132e-05 6.959093e-05
-2.0931013e-05 -0.004736734 0.00010146193 -0.00013450124 0.000992323 -6.309992e-05 -5.450671e-05 -0.13257107
-4.3128006e-05 4.530351e-05 -6.106678e-05 -0.00013877414 0.15672879 -1.2122831e-05 0.19301555 -5.6099525e-05
0.41506827 -7.981882e-05 -9.4558665e-05 -0.00012281032 2.2941273e-05 -3.6053647e-05 0.00011162911 1.6958638e-05
4.3049113e-05 0.09219083 5.3549957e-05 -6.8216564e-06 -3.1929496e-05 -4.4445118e-05 -7.643606e-05 -9.878393e-05
4.2090185e-05 -6.955092e-05 -0.000116416944 -4.8603793e-05 -0.00013310809 -0.059594736 -0.22733623 0.00012492941
8.001242e-05 0.00010200851 3.6422687e-05 -4.0177227e-05 -7.467335e-05 1.2749491e-05 -7.551252e-05 0.0001551547
7.3462645e-05 -5.7928515e-05 0.00038628528 6.817172e-05 6.714066e-05 -1.9823909e-05 2.6669377e-05 -0.00012413095
-0.00014207739 0.26337174 5.2774336e-05 -8.753913e-05 8.573327e-05 -9.90933e-05 0.00014028288 6.620836e-05
00000000: 082f 1037 a4a0 e4b7 b147 ae38 b160 b838
00000010: 044c 9ab8 8c52 6e38 5b66 ac38 17e3 0d39
00000020: 6b94 4338 9a81 5838 8909 8339 bb97 8538
00000030: 9f7f 05b8 e0a5 bcb8 01a9 1ab9 cff2 cab8
00000040: 8d47 ae38 fdd8 1939 e0fb 14b9 4321 89b8
00000050: 95c0 d3b8 a8b8 0138 8c2f f438 d055 3ab8
00000060: f9be 26b9 ed3e 6038 2f3c a33d 2277 73b9
00000070: 57c3 f036 cb6b b9bb 8dcd 50b9 108b c737
00000080: b412 5e3e 7660 2f39 80de 093c 65c2 bab8
00000090: 4abc df37 5d88 5ab9 eddc cdb8 ed1c 5bb9
000000a0: 5e12 0ab9 d7f5 7039 c864 6139 a3dc 2439
000000b0: ce50 bc38 97c5 9eb8 ec12 6538 32e1 ed38
000000c0: f4d9 7e39 c179 b933 63fb 43b9 8b9f 55b8
000000d0: b026 68b9 04d6 34b9 26ea 01b9 4566 8b39
000000e0: b171 9638 cc01 bbb8 71de a4b6 5e16 2238
000000f0: 432c 8eb8 593c 5039 a1e8 29b9 9e1a 7cb8
00000100: d3bc bc37 f81b 51bd aee5 4bb9 d281 3439
00000110: 574a 08bd 0946 df38 5a57 1139 49a8 c1bd
00000120: 8e11 d338 6062 a6b7 54ac f238 65fa 7839
00000130: 20af c8bc bc16 b7b6 36ed ad3d a1b5 0d39
00000140: 5714 893e 4cfb 8039 3d03 5139 c067 7039
00000150: 91ef 9bb5 c732 a0b7 f8bb 04b9 c136 3db8
00000160: fc6c d837 6cfe 963d ce32 c6b8 26db b237
00000170: 2158 1738 6f7a 0939 fccf 84b8 2437 4739
00000180: 5898 f9b8 297a 3b39 a6e6 9139 0818 bd38
00000190: d7cc 5439 7482 f3bd fc0e fa3e fda6 0b38
000001a0: 3a76 3cb9 b562 34b8 2c1f bdb8 edf5 7d38
000001b0: 8468 1439 c789 cab8 cb20 2a3a 37f4 2638
000001c0: d72c 18b9 9697 0a39 4248 36bc d249 25b9
000001d0: b71c a8b8 9a76 b4b6 8642 1ab8 7db9 4b39
000001e0: 1373 6bb5 9645 573e cb37 29b9 50e5 5f39
000001f0: 1a93 1db9 985a 4338 d978 79b9 c2fb 34b9
00000200: 4c3c 9537 91ee 4f37 20d1 3fb8 3217 37b8
00000210: a822 1338 6360 25b6 4d8c 4db8 2b45 88b8
00000220: 7c53 66b7 2902 c1b8 a029 e3b8 ac3c a9b8
00000230: 09fa 0b38 2fb7 8638 592a b838 2cb5 8938
00000240: ee4d 8b38 eee9 c4b8 b513 b038 cc99 94b8
00000250: 69bf 9e38 3481 afb7 1de1 b6b8 6b96 6437
00000260: bab5 8138 c74e 9338 2628 86bc 6083 0239
00000270: 61bb 8238 9ea4 aabc b843 e138 318f 07b7
00000280: ccee 47be f750 8db8 eda8 7ebb 0f81 a238
00000290: 17d1 b6b7 21a5 f938 badc 4238 780d f538
000002a0: 7db1 9638 af72 02b9 d368 f5b8 7119 a8b8
000002b0: 3656 f1b7 2106 2438 dfbd 8938 e8f7 aeb7
000002c0: 7e6a 0fb9 4eca 01b9 2f84 c438 685e a4b8
000002d0: 5dfa f038 7c16 aa38 f113 db38 a5fa b0b8
000002e0: fb5a 4d37 6a8a 4c38 2fcf ef37 17e7 bab7
000002f0: 4173 4a38 805c 07b9 bb72 a238 59f1 9138
00000300: 0295 afb7 9b36 9bbb f5c7 d438 e708 0db9
00000310: d610 823a 8354 84b8 229e 64b8 b6c0 07be
00000320: 58e4 34b8 4604 3e38 fa10 80b8 e683 11b9
00000330: 837d 203e 2a63 4bb7 dea5 453e 684c 6bb8
00000340: d483 d43e 6764 a7b8 cc4d c6b8 a5c6 00b9
00000350: 0272 c037 4f38 17b8 6c1a ea38 6642 8e37
00000360: a28f 3438 8cce bc3d d49a 6038 95e5 e4b6
00000370: 09ec 05b8 956a 3ab8 4c4c a0b8 382a cfb8
00000380: fe89 3038 dedb 91b8 df24 f4b8 eddb 4bb8
00000390: ee92 0bb9 9c19 74bd d4ca 68be 7cff 0239
000003a0: 57cc a738 67ed d538 90c4 1838 f883 28b8
000003b0: f399 9cb8 a6e6 5537 7a5c 9eb8 06b1 2239
000003c0: f50f 9a38 45f8 72b8 5586 ca39 6af7 8e38
000003d0: decd 8c38 854b a6b7 0db8 df37 2629 02b9
000003e0: 9cfa 14b9 a9d8 863e 035a 5d38 3695 b7b8
000003f0: b3cb b338 4fd0 cfb8 e618 1339 58d9 8a38

bias f4 [4]
0.017357102 0.00302357 -0.1063344 -0.06522044
00000000: 7b30 8e3c 1627 463b dac5 d9bd 4b92 85bd
